Homework_2/hw2_code/BipedalWalker-PPO_test/dir_save/we0_critic_linear_240.pth (torch, 1255 bytes, 1 tensors)

weight f4 [1, 64]
00000000: f683 0040 012d 2fc0 9fd2 07c0 8a17 12c0
00000010: 6c45 32c0 73a9 1940 efb5 0740 8014 3540
00000020: 9228 0540 7918 f43f 1418 f2bf 19f3 3840
00000030: 5a49 0bc0 1178 0940 5b5d 0fc0 6152 e43f
00000040: 41f6 0040 7c4d 18c0 1398 2640 1cf6 3ac0
00000050: 942c 06c0 8ec7 0ac0 422b 05c0 fc9b edbf
00000060: 8fa1 0440 6078 1840 f146 0cc0 dad7 20c0
00000070: 9803 ccbf f17f ffbf fed6 2dc0 2056 0cc0
00000080: 14df 19c0 27fd f4bf f7ea 0740 642d e8bf
00000090: 6fcc 0ec0 8e87 f73f a20d 22c0 4563 fe3f
000000a0: 140c 09c0 b036 fabf 5626 0340 f266 4340
000000b0: 4f6d 02c0 4680 0140 9c3c 1f40 7bb5 28c0
000000c0: 6824 ed3f 7819 0bc0 e588 0cc0 24cf 17c0
000000d0: 34bd e4bf 2e23 0fc0 bdef f8bf b617 23c0
000000e0: 867b f43f 3814 ff3f 9d23 39c0 f227 1d40
000000f0: 97ad fd3f 7d0b 07c0 cf9f 31c0 1da5 09c0
2.0080543 -2.7371218 -2.1222303 -2.2826867 -2.7854872 2.4009674 2.1204793 2.8293762
2.0806012 1.9069968 -1.8913598 2.8898375 -2.176352 2.1479533 -2.240073 1.783764
2.0150301 -2.3797293 2.6030319 -2.9212713 -2.0964708 -2.1684299 -2.0807652 -1.8563228
2.0723608 2.382347 -2.19183 -2.5131745 -1.5938597 -1.996092 -2.716247 -2.1927567
-2.4042406 -1.9139756 2.123716 -1.8138852 -2.2312276 1.9338243 -2.532082 1.9874045
-2.1413622 -1.9547939 2.0492148 3.0531583 -2.0379217 2.0234542 2.4880743 -2.6360767
1.8526735 -2.1734295 -2.1958554 -2.3720179 -1.787024 -2.2365222 -1.9448162 -2.5483222
1.9100196 1.9928045 -2.8927987 2.455563 1.98186 -2.1100762 -2.775379 -2.1507027
