Homework_2/hw2_code/BipedalWalker-PPO_test/dir_save/we0_critic_-100.pth (torch, 24543 bytes, 4 tensors)

0.weight f4 [64, 24]
-1.0078615 -1.4324477 1.3998964 0.24194567 -0.2526432 -0.24236895 -0.015082542 -0.13177681
0.19717567 -1.2963095 0.15035194 -0.20131496 0.1107626 -0.048321154 0.44291443 0.15381485
0.44208974 -0.025975348 0.24809924 0.13184309 0.56479895 0.28553775 0.4746006 -0.46179307
-1.8679292 -2.6943119 1.598355 0.10488695 -0.4902173 0.11201135 -0.58689344 0.10447329
0.15623426 0.056970708 -0.4173016 -0.31328037 -0.17351702 -0.3315422 -0.35617483 -0.2820961
-0.31408134 -0.85854626 -0.45094556 -0.3383006 -0.39221764 0.06388294 0.10767156 0.10680141
-0.63453364 1.3937055 0.7423304 1.6174531 0.27683043 -0.09919737 0.20490931 -0.11117233
-0.31456807 -0.11653414 0.23373474 0.7031695 -0.11014603 -0.29767728 -0.352804 0.023686448
-0.22485024 -0.08090408 -0.3904942 -0.014241987 -0.23236692 0.16439101 0.25034428 -0.6437722
1.8917512 2.797417 -2.3271 1.707857 1.4614705 0.03219547 0.6946611 0.026115648
-0.16730523 0.9588873 0.117338635 0.65397906 0.061530825 -0.2207625 0.092609316 -0.29467204
-0.3935573 -0.2531113 -0.21700174 -0.23161204 0.09011905 -0.1017558 -0.5298074 -0.7550781
-0.43522075 -0.1974776 0.7424947 -1.1413449 0.53624153 0.29317108 0.2767725 0.18826994
-0.26741096 -1.4110241 -0.3242113 -0.2854255 -0.27362692 -0.09338591 0.28836665 0.024145119
-0.195867 -0.11186908 0.102782786 -0.11889839 -0.16605563 0.2497851 0.21140109 0.3910153
0.056156524 0.7818557 0.73802984 1.0022495 0.15979524 0.2547418 0.53767025 -0.48552337
-0.63859427 -0.20819837 -0.13404018 0.36088204 0.15838231 -0.18697475 0.08334029 -0.24751608
0.10892581 0.26676208 -0.36641178 -0.3378415 0.15868568 -0.16788244 -0.4660054 -0.34678936
0.37050083 -1.3562379 -0.61726016 -0.7748247 0.069378026 -0.014563827 -0.093060635 0.037587944
0.09933662 0.4681541 0.010238729 0.9881188 -0.116441466 -0.010966989 0.5768765 0.038890895
0.2549891 -0.15702617 0.34448764 0.05013629 -0.22908823 -0.60430616 -0.2770504 -0.1719038
0.39245126 0.28788733 0.7294958 0.6050767 0.73671585 -0.09669511 0.1872196 -0.0552587
0.53829664 -1.0092711 0.16595405 -0.29595134 0.09303984 -0.15064059 -0.108614884 -0.350884
0.074753016 -0.32468474 -0.28229007 -0.25126517 -0.17262897 -0.67238486 -0.4587082 0.21064037
0.06535143 2.0651443 -0.50135505 -1.3635257 1.4064733 -0.070289455 0.10661968 -0.06582028
0.038494065 -0.16291933 -0.14214751 -0.0816813 -0.19628043 -0.21774392 -0.0747504 0.23749527
0.16049643 0.108225144 0.55487335 -0.027898662 0.11165233 -0.109153785 -0.17262079 0.01900462
-0.7986005 1.1725876 0.5927043 0.53499705 -0.16813897 0.13006632 -0.40349635 0.037276477
-0.03563266 0.7895787 -0.19704999 1.1227129 0.11832569 -0.5698707 -0.0798188 0.31349105
0.17279732 0.2656076 0.23312841 0.070642516 0.17442212 0.15223014 0.0012835867 -0.0317726
0.108953655 -0.10789929 0.42393756 0.84041864 -0.024628963 -0.1539755 -0.3098343 0.013170136
-0.534785 -0.5831292 -0.08041933 -0.56190306 -0.11048829 -0.28484192 -0.6544547 -0.385274
00000000: 9b01 81bf 725a b7bf ce2f b33f 9bc0 773e
00000010: 735a 81be 912f 78be c41c 77bc 80f0 06be
00000020: 6be8 493e 78ed a5bf dcf5 193e 8225 4ebe
00000030: 81d7 e23d 67ec 45bd aec5 e23e a481 1d3e
00000040: 9659 e23e 41ca d4bc ba0d 7e3e e001 073e
00000050: aa96 103f 0132 923e dafe f23e 2470 ecbe
00000060: 4e18 efbf 9b6f 2cc0 e696 cc3f f8ce d63d
00000070: c3fd fabe 3566 e53d a63e 16bf 18f6 d53d
00000080: e0fb 1f3e 1e5a 693d 8ea8 d5be 4966 a0be
00000090: 72ae 31be e6bf a9be 8c5c b6be e66e 90be
000000a0: 45cf a0be b0c9 5bbf 56e2 e6be bc35 adbe
000000b0: c0d0 c8be 0fd5 823d e882 dc3d b3ba da3d
000000c0: cc70 22bf f164 b23f 5d09 3e3f b408 cf3f
000000d0: b8bc 8d3e fe27 cbbd bfd3 513e 52ae e3bd
000000e0: 110f a1be 74a9 eebd 2958 6f3e eb02 343f
000000f0: 3e94 e1bd 2869 98be baa2 b4be 150a c23c
00000100: 243f 66be 0ab1 a5bd dbee c7be 3957 69bc
00000110: 98f1 6dbe 1e56 283e 202d 803e 41ce 24bf
00000120: e724 f23f e108 3340 35ef 14c0 0f9b da3f
00000130: 7711 bb3f 66df 033d 4fd5 313f 7cf0 d53c
00000140: 1052 2bbe a379 753f 3d4f f03d 2c6b 273f
00000150: bf07 7c3d 910f 62be f4a9 bd3d 41df 96be
00000160: 5880 c9be ce97 81be b435 5ebe b52b 6dbe
00000170: 5690 b83d 5865 d0bd 75a1 07bf cc4c 41bf
00000180: 41d5 debe 9137 4abe 2214 3e3f 9717 92bf
00000190: 2047 093f 851a 963e 20b5 8d3e d6c9 403e
000001a0: 17ea 88be 709c b4bf 06ff a5be 4b23 92be
000001b0: d418 8cbe 1d41 bfbd cba4 933e fccb c53c
000001c0: 5c91 48be 9e1b e5bd c87f d23d 0081 f3bd
000001d0: 7d0a 2abe aac7 7f3e 8779 583e 2833 c83e
000001e0: 6204 663d b227 483f 86ef 3c3f b649 803f
000001f0: 5da1 233e 846d 823e c2a4 093f 8596 f8be
00000200: ea7a 23bf f431 55be d441 09be 88c5 b83e
00000210: f92e 223e 4f76 3fbe 50ae aa3d db74 7dbe
00000220: 7f14 df3d 0a95 883e 539a bbbe 90f9 acbe
00000230: 807e 223e 60e9 2bbe 4398 eebe 608e b1be
00000240: 49b2 bd3e 3499 adbf c304 1ebf e95a 46bf
00000250: 1116 8e3d 1e9d 6ebc 9396 bebd d1f5 193d
00000260: ff70 cb3d e5b1 ef3e 58c0 273c 5bf5 7c3f
00000270: dd78 eebd e3ae 33bc 2eae 133f 0f4c 1f3d
00000280: ee8d 823e 78cb 20be af60 b03e b65b 4d3d
00000290: 1b96 6abe cfb3 1abf 8dd9 8dbe 8d07 30be
000002a0: 5fef c83e f865 933e 3dc0 3a3f 4ee6 1a3f
000002b0: 6999 3c3f 1608 c6bd 7fb6 3f3e f256 62bd
000002c0: cfcd 093f cc2f 81bf dcef 293e ef86 97be
000002d0: ac8b be3d 8741 1abe 7b71 debd 11a7 b3be
000002e0: 1c18 993d 143d a6be 5388 90be d4a5 80be
000002f0: a6c5 30be 6a21 2cbf cddb eabe 1cb2 573e
00000300: f8d6 853d 532b 0440 ce58 00bf 0388 aebf
00000310: 5107 b43f ebf3 8fbd 6b5b da3d c8cc 86bd
00000320: f4ab 1d3d 53d4 26be 1e8f 11be 8748 a7bd
00000330: bdfd 48be 43f8 5ebe bd16 99bd f631 733e
00000340: 2d59 243e 25a5 dd3d 2e0c 0e3f bc8b e4bc
00000350: faa9 e43d 058c dfbd 81c3 30be 94af 9b3c
00000360: 1571 4cbf 5a17 963f 78bb 173f 91f5 083f
00000370: 9f2c 2cbe 1b30 053e 1397 cebe 38af 183d
00000380: 8df3 11bd d421 4a3f 79c7 49be 0eb5 8f3f
00000390: bd54 f23d 0ce3 11bf 0a78 a3bd e681 a03e
000003a0: c8f1 303e b8fd 873e 37b9 6e3e 06ad 903d
000003b0: b69b 323e 38e2 1b3e 063e a83a fc23 02bd
000003c0: 1823 df3d 4efa dcbd 580e d93e ad25 573f
000003d0: aec2 c9bc c1ab 1dbe 9aa2 9ebe 8ec7 573c
000003e0: abe7 08bf f547 15bf e4b2 a4bd e1d8 0fbf
000003f0: af47 e2bd cdd6 91be 588a 27bf a242 c5be

0.bias f4 [64]
-0.042069066 0.12380294 -0.29661894 -0.31638688 0.30365378 -0.28670377 0.3098546 0.09628071
0.14422476 -0.052390873 -0.3922805 -0.05469831 -0.23889014 -0.4626487 -0.17190781 0.0033425635
-0.085249655 0.5143892 -0.081210814 0.07914072 -0.24068645 0.32284498 -0.105528444 -0.14566927
-0.24049513 -0.36832458 -0.20511083 -0.059392884 0.013903891 0.3736454 -0.21007088 -0.11423436
0.14086239 0.02875007 0.14716819 -0.119747676 -0.0826611 0.18317695 -0.23618002 -0.31553388
-0.105966404 -0.20073113 0.24589525 0.21336551 -0.0016424514 0.21314166 0.1962246 -0.060358725
0.7312357 0.24172091 0.19598715 -0.028792894 0.45561442 -0.28890532 0.25782338 -0.23529646
-0.19929647 0.3683047 0.5885344 -0.28106037 -0.04855043 0.07279309 -0.014020701 -0.32301942
00000000: 9d50 2cbd 658c fd3d 70de 97be 76fd a1be
00000010: 8278 9b3e d6ca 92be 43a5 9e3e d22e c53d
00000020: a8af 133e d097 56bd fdd8 c8be 560b 60bd
00000030: 9e9f 74be 4ae0 ecbe 9a08 30be e90e 5b3b
00000040: 5f97 aebd 03af 033f db51 a6bd 8814 a23d
00000050: 8276 76be f04b a53e 4c1f d8bd 532a 15be
00000060: 5b44 76be 0a95 bcbe 9308 52be f445 73bd
00000070: 25cd 633c 734e bf3e d21c 57be b4f3 e9bd
00000080: 3b3e 103e 4485 eb3c 42b3 163e 453e f5bd
00000090: 394a a9bd bd92 3b3e 2dd9 71be a88d a1be
000000a0: ea04 d9bd 768c 4dbe f7cb 7b3e 7d7c 5a3e
000000b0: 8647 d7ba cf41 5a3e 1aef 483e b63a 77bd
000000c0: 4332 3b3f b085 773e dbb0 483e 13df ebbc
000000d0: 4b46 e93e 66eb 93be 6d01 843e 8ef1 70be
000000e0: 6014 4cbe 6f92 bc3e 31aa 163f 25e7 8fbe
000000f0: d1dc 46bd 8b14 953d 15b7 65bc cd62 a5be

2.weight f4 [64, 64]
-0.062059496 0.023742247 0.21908386 -1.3290739 0.22768266 0.11180362 -0.68695194 0.07692341
-0.5865148 0.09821612 0.31814516 -0.30840534 0.102632955 0.3392599 -0.031973757 -0.6692887
-0.29228505 -0.16064623 -0.14681594 0.7064921 0.13173689 -0.28845742 -0.12901543 0.29061267
0.005257197 -0.6651231 -0.13138723 0.30231267 -0.3740845 -0.38002726 -0.07582841 -0.45801592
0.058068227 -0.0029863527 -0.08314768 0.3104711 -0.17184047 0.032952175 0.51826704 -1.2090483
0.2794427 0.1666407 -0.92358035 -0.85568726 -0.050458644 0.015323302 -0.060101908 0.023374943
-0.34183747 -0.080549456 0.0599226 0.08824488 -0.4870092 0.0002715513 -0.6095169 0.08082134
-0.2733145 -0.3716333 -0.13830999 -0.28792107 0.60678303 0.22321968 -0.5905404 0.111550495
-0.7173896 0.5799838 -0.039799094 1.1236933 -0.34491593 -0.10110797 -0.076080516 -0.3286877
-0.022400858 -0.33613148 -0.3262041 -0.25767913 -0.13726722 -0.43957335 -0.31604514 -1.3089552
0.65363 0.05262027 0.14370249 0.071003646 -0.184025 -0.4220855 -0.3306054 -0.04897918
-0.43585378 1.6408063 -0.6448648 -0.2138995 -0.6490113 0.31229672 -0.37828693 0.85321057
0.37171045 0.57679135 0.21842992 0.7233312 0.1363407 0.6444044 -0.514735 -1.1449337
-0.56169516 -0.5084378 1.511214 0.0053961775 -0.8007254 0.28369275 0.7021114 -0.3296313
0.34814543 -0.4927592 0.80701864 0.272054 0.3716742 -0.36568174 -0.22595611 -0.243459
-0.3934578 0.14855413 0.32379293 -0.6828054 1.0753664 0.3740824 -0.45184296 -0.4550437
-0.14286433 -0.17627871 -0.032053474 1.1924416 0.45889986 -0.28634012 -0.08020525 -0.10944585
0.4704332 -0.2808697 -0.27720222 0.23012419 -1.0286511 -0.25725982 0.41981003 0.41886157
0.09730604 0.32601702 0.10365866 -0.4608556 -0.13267606 0.058684528 0.16148555 0.37175208
-0.44325194 0.9150815 0.3518809 -0.66055703 0.36020026 0.32230756 -0.35807356 0.49814877
0.03361329 -0.051189266 0.18776533 -0.3845085 -0.0403421 -0.041764524 -0.59802824 0.53729486
-0.487143 -0.1593609 -0.16225214 1.0573095 -0.06580075 0.36358765 0.1586666 -0.24794191
0.2542292 -0.14175901 -0.20395823 -0.21540178 1.4929745 -0.24549894 1.0817028 -0.37810373
0.19376552 0.32261765 0.17581965 0.23748708 -0.89547676 -0.4268852 -0.29276976 -0.29723758
0.30093953 0.117150374 -0.33329692 0.94039 -0.029197752 -0.22189683 -0.6832742 -0.27245373
0.17756057 -0.23395224 -0.29255632 -0.0026054601 -0.29047182 -0.3565248 0.02499081 0.4416509
0.11767285 0.2731789 -0.27170572 -0.38533977 -0.14419277 0.48972693 -0.02593006 0.6360019
-0.33955392 0.3657235 0.010440257 0.13490327 0.5721979 0.2999082 0.07327718 0.32425752
-0.06521068 -0.31000975 0.51125664 0.2346459 -0.13391289 -0.24307336 -0.41676536 0.62992877
0.067849144 -0.34986523 0.7706324 1.3162073 -0.24093637 0.254069 -0.019135533 -0.08942197
0.26149574 -0.09151543 -0.20543285 0.13906154 0.6026268 0.21685898 0.4007742 -0.2646561
0.2860121 0.21754521 0.17949545 -0.28241134 -1.4345095 -0.49374062 -0.3067575 0.2162308
00000000: 1932 7ebd 1a7f c23c 8557 603e 181f aabf
00000010: a525 693e 4cf9 e43d 15dc 2fbf 058a 9d3d
00000020: d525 16bf 8825 c93d ece3 a23e 4ee7 9dbe
00000030: 3a31 d23d 79b3 ad3e eaf6 02bd 8156 2bbf
00000040: 63a6 95be 7280 24be eb56 16be abdc 343f
00000050: 09e6 063e b1b0 93be 9f1c 04be 2fcb 943e
00000060: 9144 ac3b 8245 2abf 608a 06be bac8 9a3e
00000070: 0188 bfbe ef92 c2be ed4b 9bbd 1081 eabe
00000080: f3d8 6d3d afb6 43bb 5549 aabd 11f6 9e3e
00000090: f3f6 2fbe dcf8 063d 26ad 043f 18c2 9abf
000000a0: 1d13 8f3e dca3 2a3e c36f 6cbf 520e 5bbf
000000b0: b9ad 4ebd 960e 7b3c 6b2d 76bd cf7c bf3c
000000c0: 5205 afbe 1df7 a4bd 6671 753d bbb9 b43d
000000d0: 4559 f9be 005f 8e39 4d09 1cbf a985 a53d
000000e0: e1ef 8bbe b846 bebe 22a1 0dbe 646a 93be
000000f0: 2256 1b3f b393 643e a82d 17bf 9674 e43d
00000100: d8a6 37bf d179 143f 6004 23bd 2fd5 8f3f
00000110: d298 b0be b211 cfbd 1ad0 9bbd c149 a8be
00000120: 0182 b7bc 6d19 acbe 3904 a7be 85ee 83be
00000130: c78f 0cbe c20f e1be abd0 a1be d88b a7bf
00000140: 4c54 273f 5a88 573d bf26 133e 5c6a 913d
00000150: 0d71 3cbe 971b d8be 1c45 a9be 659e 48bd
00000160: 3a28 dfbe f105 d23f dc15 25bf 7808 5bbe
00000170: 9b25 26bf 5be5 9f3e d3ae c1be 026c 5a3f
00000180: d550 be3e 99a8 133f 18ac 5f3e 3c2c 393f
00000190: e59c 0b3e b0f7 243f acc5 03bf 308d 92bf
000001a0: 41cb 0fbf fb28 02bf 766f c13f 6bd2 b03b
000001b0: 57fc 4cbf 2d40 913e 93bd 333f 6fc5 a8be
000001c0: 1e40 b23e ef4a fcbe c698 4e3f a94a 8b3e
000001d0: 154c be3e a33a bbbe 0a61 67be 514d 79be
000001e0: 4d73 c9be 931e 183e 30c8 a53e 56cc 2ebf
000001f0: 9ba5 893f ba87 bf3e f657 e7be 7dfb e8be
00000200: 074b 12be 6882 34be 814a 03bd eda1 983f
00000210: ecf4 ea3e 2c9b 92be a642 a4bd 2525 e0bd
00000220: 9fdc f03e 27ce 8fbe 73ed 8dbe ada5 6b3e
00000230: d7aa 83bf 8fb7 83be 57f1 d63e 0675 d63e
00000240: 6448 c73d b4eb a63e fe4a d43d 44f5 ebbe
00000250: 3cdc 07be 305f 703d 785c 253e 4a56 be3e
00000260: ebf1 e2be c842 6a3f bc29 b43e 441a 29bf
00000270: 2b6c b83e 7f05 a53e 6b55 b7be 5b0d ff3e
00000280: 17ae 093d d6ab 51bd 8e45 403e 4cde c4be
00000290: c23d 25bd 4711 2bbd 6118 19bf 288c 093f
000002a0: cf6a f9be 812f 23be 6d25 26be eb55 873f
000002b0: 8bc2 86bd 2928 ba3e 7f79 223e 7ce4 7dbe
000002c0: 542a 823e 4629 11be 6dda 50be 4992 5cbe
000002d0: ca19 bf3f 1364 7bbe 3d75 8a3f d096 c1be
000002e0: 786a 463e 242e a53e 110a 343e d02f 733e
000002f0: f73d 65bf b290 dabe ebe5 95be 862f 98be
00000300: bf14 9a3e 89ec ef3d e5a5 aabe 66bd 703f
00000310: 2030 efbc ec38 63be 0feb 2ebf 0e7f 8bbe
00000320: 70d2 353e 2d91 6fbe f1c9 95be 5ec0 2abb
00000330: b9b8 94be 6b8a b6be 87b9 cc3c 1120 e23e
00000340: 77fe f03d 1bde 8b3e 031d 8bbe 414b c5be
00000350: 45a7 13be 7dbd fa3e 476b d4bc 05d1 223f
00000360: 03da adbe 1c40 bb3e 9d0d 2b3c 1524 0a3e
00000370: 907b 123f 918d 993e 5912 963d 1505 a63e
00000380: 2d8d 85bd 99b9 9ebe b7e1 023f 0447 703e
00000390: 7620 09be 39e8 78be 4562 d5be 0343 213f
000003a0: 7ef4 8a3d 8921 b3be 2a48 453f 7b79 a83f
000003b0: 06b8 76be 5515 823e 1fc2 9cbc de22 b7bd
000003c0: c5e2 853e 716c bbbd fd5c 52be 2666 0e3e
000003d0: c045 1a3f 4810 5e3e 4732 cd3e 0181 87be
000003e0: 2e70 923e 2cc4 5e3e a8cd 373e 3898 90be
000003f0: 029e b7bf 92cb fcbe 520f 9dbe 9b6b 5d3e

2.bias f4 [64]
-0.22686265 0.35395837 0.298174 0.26054674 0.25395066 -0.32839075 -0.23615097 -0.22044548
-0.26273108 -0.1758808 0.14998962 -0.25680226 0.33098847 -0.34120563 0.27900168 -0.29516262
-0.26537114 0.31767493 -0.2475699 0.25578344 0.11313133 0.27282164 0.2885532 0.12419418
-0.30398542 -0.20181234 -0.10453071 0.2696082 0.24230033 0.2356127 0.3465607 0.28751782
0.362607 0.16564067 -0.31566384 0.2663281 0.31357783 -0.29057604 0.23451646 -0.32571256
0.30992478 0.25258425 -0.31808046 -0.13544674 0.32334322 -0.28215197 -0.23185176 0.24392381
-0.20056807 0.4078696 0.35288733 0.34168217 0.029405149 0.25070533 0.30083942 0.35315076
-0.3838943 -0.2018589 0.18372194 -0.17911594 -0.32061213 0.33606872 0.21975388 0.263282
00000000: af4e 68be 083a b53e 43aa 983e 6266 853e
00000010: d205 823e d522 a8be 8fd1 71be 76bc 61be
00000020: b084 86be 191a 34be e196 193e 967b 83be
00000030: 5277 a93e 81b2 aebe 4fd9 8e3e 8e1f 97be
00000040: bade 87be 4aa6 a23e f782 7dbe 0cf6 823e
00000050: 66b1 e73d 47af 8b3e 3fbd 933e 8559 fe3d
00000060: faa3 9bbe e5a7 4ebe 3214 d6bd 160a 8a3e
00000070: 941d 783e 7544 713e 6770 b13e 8935 933e
00000080: a0a7 b93e b59d 293e b19e a1be 285c 883e
00000090: 468d a03e 62c6 94be 1525 703e ccc3 a6be
000000a0: 76ae 9e3e b952 813e 71db a2be 8db2 0abe
000000b0: 3e8d a53e 3976 90be 8c6a 6dbe 2ac7 793e
000000c0: b761 4dbe 49d4 d03e a6ad b43e f7f0 ae3e
000000d0: 11e3 f03c 735c 803e a007 9a3e 2dd0 b43e
000000e0: cb8d c4be 19b4 4ebe 9b21 3c3e 2b6a 37be
000000f0: 4627 a4be 3311 ac3e 2907 613e e6cc 863e
