Homework_2/hw2_code/BipedalWalker-PPO_test/dir_save/we0_actor_final.pth (torch, 24543 bytes, 4 tensors)

0.weight f4 [64, 24]
-0.7445938 -0.030624745 -0.103762485 -0.49935558 -0.013966592 -0.5445154 1.0100654 -0.10104028
0.75527 -0.47493827 0.49073818 0.617823 0.47067273 -0.42671835 0.2357262 -0.12540033
0.33412465 0.12391862 0.14913471 0.01303242 0.15822983 0.16254719 -0.01834461 -0.51845115
-0.8923347 -0.5838796 0.22444592 -1.4104643 -0.2784497 -0.61729604 0.15859978 0.3483115
0.40282324 0.53862894 0.1875519 1.0201061 0.6873999 -0.91528624 -0.030419035 -0.10543879
-0.2955151 0.08622005 0.13102314 0.054646235 -0.14609547 0.08019357 0.46485263 -0.21513642
-0.21021716 0.3145735 0.23539424 -1.5456952 0.17082354 -0.080566995 -1.1910479 0.4410192
0.45572263 0.016154604 -0.6690929 0.79073143 -0.083247244 0.03736555 -0.20396063 -0.37919307
0.041626144 -0.3297737 -0.09253564 -0.4119773 0.3756784 -0.08338489 0.3631477 -0.02699493
0.51977557 -0.50309575 -1.088101 1.3608122 -0.36907634 0.323754 0.26728135 -0.15725295
0.59704953 0.23051775 0.018531956 -0.67191035 -0.32721293 0.4205637 0.18309696 0.42432627
0.07711927 -0.46842337 -0.103500746 0.034505088 -0.20892368 0.14934245 -0.13442776 0.01518023
-0.46941924 0.9754956 0.3370682 -0.15256 -0.18142013 0.684689 0.07964672 -0.034736883
0.91175497 0.6457976 -0.45400435 0.4585102 1.044454 0.066317 -0.34122646 -0.22499566
0.018296117 -0.13446674 -0.3321188 -0.36495602 -0.4722017 -0.35566232 0.36372262 -0.018482126
-0.037911363 -0.78019136 1.3312658 -0.77302986 0.5590551 -0.57481486 -0.82891494 0.3461426
-0.44774956 -0.54809356 0.30544555 0.2781865 0.40399748 0.62656003 -0.3513595 -0.2311117
-0.22184843 0.061290488 -0.14634822 -0.4590416 0.23291348 -0.18985301 0.08574627 0.044957902
-0.023547376 -1.01619 -0.36949912 0.37668782 0.13071701 -0.92783505 -0.42837024 0.10993102
-0.1913927 0.21352687 -0.2871389 0.42469224 -0.20946576 -0.39436838 0.22717509 -0.4706282
-0.09926806 -0.018245794 0.012699465 -0.14758167 -0.33862033 -0.109509245 -0.18100236 0.78354543
-0.054055847 0.5483757 0.30355865 -1.0778158 0.20162329 -0.015469157 0.47956425 -0.43592522
0.048296366 -0.15768993 -0.4424343 0.0016672005 1.210886 0.21833324 -0.40106714 -0.058008056
-0.31134546 -0.020866258 0.01575753 0.004343123 -0.13401547 -0.42959806 -0.2902264 -0.21218094
-0.84350127 -1.9680439 0.2556709 -2.5887282 0.32933685 0.018974667 0.43302825 -0.16399023
-0.094780885 -0.315663 0.07765867 -1.0476683 0.34305295 -0.20767432 0.110413924 0.014889256
-0.06851477 -0.49095327 -0.23611923 0.055078924 -0.34250364 -0.42440268 -0.21400046 0.06761728
-0.5730518 -1.0216401 0.38072202 0.2951501 0.32725385 -0.47872108 -0.6678962 0.49633294
0.3254935 -0.80017734 -0.31437463 1.457064 0.5532204 -0.21594562 -0.27169532 -0.17938304
-0.20057742 -0.13716839 -0.49579594 0.1310815 -0.2793052 -0.3254865 -0.19133013 -0.16132553
-0.015334092 1.6571598 0.51702404 -0.6066964 0.10459793 0.081085674 0.38875556 0.1698375
-0.109626934 0.14324927 -0.29495734 0.8068327 -0.3497531 -0.12828675 -0.30074733 -0.35535148
00000000: b39d 3ebf bfe0 fabc 6d81 d4bd 89ab ffbe
00000010: 22d4 64bc 5c65 0bbf d349 813f 35ee cebd
00000020: 6059 413f 1c2b f3be 0942 fb3e a629 1e3f
00000030: 04fc f03e d47a dabe 3562 713e f268 00be
00000040: 6312 ab3e 0cc9 fd3d c5b6 183e ee85 553c
00000050: 0007 223e c572 263e 7047 96bc 37b9 04bf
00000060: 0c70 64bf 2279 15bf 27d5 653e 188a b4bf
00000070: f690 8ebe 1d07 1ebf fb67 223e e355 b23e
00000080: d93e ce3e 96e3 093f 9b0d 403e d692 823f
00000090: 71f9 2f3f 3350 6abf 5731 f9bc 4bf0 d7bd
000000a0: c14d 97be 2394 b03d ee2a 063e bbd4 5f3d
000000b0: 0d9a 15be 873c a43d 2a01 ee3e b94c 5cbe
000000c0: 2b43 57be c70f a13e 300b 713e 57d9 c5bf
000000d0: 5eec 2e3e 4f00 a5bd 4274 98bf 45cd e13e
000000e0: 7a54 e93e a956 843c ac49 2bbf 606d 4a3f
000000f0: 887d aabd 9e0c 193d 0edb 50be 9825 c2be
00000100: 2d80 2a3d 19d8 a8be 5383 bdbd b0ee d2be
00000110: eb58 c03e b2c5 aabd 7fee b93e 7924 ddbc
00000120: 0310 053f e2ca 00bf e546 8bbf 182f ae3f
00000130: 93f7 bcbe 16c3 a53e 1ad9 883e eb06 21be
00000140: 3dd8 183f d80c 6c3e 54d0 973c 5102 2cbf
00000150: 7488 a7be 2054 d73e c57d 3b3e 4b41 d93e
00000160: b5f0 9d3d 30d5 efbe 33f8 d3bd 3555 0d3d
00000170: 17f0 55be 3aed 183e 6ea7 09be 80b6 783c
00000180: b857 f0be 14ba 793f 3494 ac3e b038 1cbe
00000190: 33c6 39be c747 2f3f d21d a33d 4348 0ebd
000001a0: c668 693f fe52 253f 4273 e8be d9c1 ea3e
000001b0: abb0 853f 35d1 873d 3cb5 aebe 4365 66be
000001c0: bde1 953c a6b1 09be 7a0b aabe 84db babe
000001d0: 6cc4 f1be 5f19 b6be da39 ba3e d467 97bc
000001e0: f248 1bbd 9fba 47bf eb66 aa3f 49e5 45bf
000001f0: 3c1e 0f3f 1127 13bf c533 54bf 9a39 b13e
00000200: 6e3f e5be dc4f 0cbf 5c63 9c3e 766e 8e3e
00000210: c2d8 ce3e 3d66 203f 64e5 b3be 8ca8 6cbe
00000220: 3c2c 63be bc0b 7b3d 4fdc 15be 8007 ebbe
00000230: df80 6e3e d468 42be be9b af3d c725 383d
00000240: 6de6 c0bc 8412 82bf fd2e bdbe 3add c03e
00000250: aeda 053e 9986 6dbf 5853 dbbe 8423 e13d
00000260: 73fc 43be caa6 5a3e df03 93be 4371 d93e
00000270: 317e 56be a7ea c9be 96a0 683e 2ef6 f0be
00000280: 0d4d cbbd 3478 95bc 6b11 503c a61f 17be
00000290: a55f adbe 6246 e0bd af58 39be 6f96 483f
000002a0: aa69 5dbd 5a62 0c3f 0a6c 9b3e def5 89bf
000002b0: 5676 4e3e 5972 7dbc 7289 f53e 9731 dfbe
000002c0: 69d2 453d 7879 21be c086 e2be f785 da3a
000002d0: 50fe 9a3f c092 5f3e ac58 cdbe db99 6dbd
000002e0: ac68 9fbe b7ef aabc f015 813c c250 8e3b
000002f0: 5a3b 09be 47f4 dbbe 8e98 94be f645 59be
00000300: b3ef 57bf dde8 fbbf 4ce7 823e b9ad 25c0
00000310: d79e a83e c370 9b3c e1b5 dd3e 0eed 27be
00000320: 7b1c c2bd 959e a1be 820b 9f3d ff19 86bf
00000330: a3a4 af3e 94a8 54be b220 e23d 11f2 733c
00000340: 7951 8cbd 3a5e fbbe 3dc9 71be 709a 613d
00000350: a35c afbe 4f4b d9be f022 5bbe ee7a 8a3d
00000360: 86b3 12bf 1ac5 82bf ffed c23e ea1d 973e
00000370: d18d a73e ee1a f5be 3ffb 2abf 5a1f fe3e
00000380: 16a7 a63e 6cd8 4cbf b6f5 a0be 1381 ba3f
00000390: da9f 0d3f d920 5dbe a61b 8bbe 30b0 37be
000003a0: 2b64 4dbe df75 0cbe f7d8 fdbe 3b3a 063e
000003b0: 1701 8fbe 2ba6 a6be 0cec 43be 8532 25be
000003c0: d83b 7bbc d01d d43f b05b 043f 7550 1bbf
000003d0: 7137 d63d 3f10 a63d f80a c73e e2e9 2d3e
000003e0: 1684 e0bd f0af 123e a604 97be 968c 4e3f
000003f0: d712 b3be 9a5d 03be 8efb 99be a1f0 b5be

0.bias f4 [64]
-0.019651156 0.025404694 0.008073932 0.047014736 -0.038076222 0.017813204 0.2113185 -0.11287923
0.19815463 -0.12072095 -0.16263333 -0.12361226 0.041199118 0.13123633 0.071702465 0.068519354
-0.19927055 -0.047604725 0.2340232 0.14177369 -0.18514037 -0.05293343 -0.16323964 -0.023469508
-0.23721403 0.14750053 -0.19686039 0.01579831 -0.12435976 0.028733833 0.04567616 -0.16738695
0.07318086 0.09179715 0.008046073 0.048778024 0.009391906 -0.04410601 -0.22256549 0.08957508
-0.20283891 0.10803069 0.2735123 0.101765476 -0.087091 0.29486045 -0.11092984 0.19336577
-0.09256616 0.1380585 0.053406138 -0.14736436 0.013552666 0.060276143 -0.050832484 0.109182104
0.07328156 0.27571002 0.41140535 0.13742949 0.21897508 0.21350315 0.16737372 0.033455685
00000000: 76fb a0bc 811d d03c 8648 043c 8692 403d
00000010: d0f5 1bbd ffec 913c e063 583e 3a2d e7bd
00000020: 0ce9 4a3e 8c3c f7bd 5a89 26be 6d28 fdbd
00000030: 68c0 283d d162 063e bed8 923d e053 8c3d
00000040: 940d 4cbe 2cfd 42bd c7a3 6f3e 1f2d 113e
00000050: 7095 3dbe b9d0 58bd 4b28 27be 2043 c0bc
00000060: 3ce8 72be 610a 173e c595 49be 756b 813c
00000070: 54b0 febd 3763 eb3c ed16 3b3d 7c67 2bbe
00000080: d9df 953d 2500 bc3d add3 033c 77cb 473d
00000090: 82e0 193c 81a8 34bd 35e8 63be 2473 b73d
000000a0: 01b5 4fbe 323f dd3d ce09 8c3e 6b6a d03d
000000b0: c45c b2bd f3f7 963e 2f2f e3bd ad01 463e
000000c0: 5493 bdbd 355f 0d3e 65c0 5a3d afe6 16be
000000d0: 000c 5e3c 1ee4 763d b935 50bd de9a df3d
000000e0: a414 963d dd29 8d3e b9a3 d23e 51ba 0c3e
000000f0: 013b 603e 92a0 5a3e 0464 2b3e d408 093d

2.weight f4 [64, 64]
0.55972916 0.33789632 -0.056175977 -0.15703022 -0.25147226 0.854757 0.23381385 0.14740513
0.44462454 0.2598525 -0.1807535 0.1972631 -0.5588484 -0.0031318788 -0.16546766 -0.09025331
0.1808274 1.2951442 -0.1676256 -0.19282937 -0.22574243 0.09068337 0.76063466 -0.11126043
0.21863787 0.061657302 -0.24547079 0.34910426 -0.6463038 -0.50406665 0.656663 0.40636548
-0.74852675 0.020210585 -0.01012995 -0.20193368 -1.031032 -0.09449937 -0.095463574 0.090943165
-0.28318942 -0.22395554 0.33221504 0.6633158 0.267632 0.23282017 0.010972381 -0.13303453
-0.34316888 -0.597127 -0.24187645 -0.35269827 0.2349111 0.028600572 -0.28740007 -0.30094975
-0.061922148 -0.5695001 -0.4409224 -0.087155744 -0.39496967 0.012205098 0.08418441 -0.0012466357
0.27138042 0.27474368 0.4515793 0.22564647 0.18360884 -0.005300472 -0.33810836 0.7222917
0.27713966 -0.085002884 0.25632617 -0.010287684 -0.11041349 -0.112221174 0.08658018 0.05654665
-0.17002586 0.49006104 -0.7059888 0.27256775 -0.020847203 -0.2697815 1.0226848 0.39790353
0.11042272 -0.021185765 -0.011270859 -0.16590431 -0.5937977 -0.08739948 0.42258263 0.15493034
-0.38409832 -0.14510481 -0.07015833 -1.0337039 0.027554125 0.3418592 0.07958524 -0.16329527
0.20835544 -0.12258811 0.07376733 0.65669495 -0.5756328 0.08156388 0.001533016 0.19561875
-0.30286002 -0.40694153 0.17344828 -0.15922102 0.20663376 -0.11544713 0.5423274 0.09038215
-0.08627014 -0.30378973 -1.5234901 -0.16095003 0.07142274 -0.12550202 -0.38889846 -0.07382832
0.1293803 0.3612437 0.4847529 -0.4577131 0.11858085 0.51800406 -0.21348618 0.22922099
0.6935565 0.41679826 0.04777603 -0.30676293 0.24588168 0.43199664 0.24376853 0.38814652
-0.51964647 1.0562505 0.18918045 -0.30200258 -0.52082914 -0.31376815 -0.21388403 0.003138483
0.00086375925 0.3284049 0.48307395 -0.15014473 0.46227756 0.02286021 0.12287408 0.043438166
0.30373803 0.22979678 -0.9143918 0.55956453 -0.7963376 -0.6481156 0.31495103 0.097072266
-0.13779199 -0.036314994 -0.1343133 -0.28048283 0.30445397 0.67965555 0.06825286 -0.12305325
0.031957515 -0.12029909 0.14037976 -0.07060363 0.21218146 -0.053104464 -0.1613917 -0.0062096524
-0.4663087 0.4023987 -0.16563198 0.098832354 -0.038312845 -0.32474327 0.5587122 0.22319679
0.40633827 -0.3434819 -0.81092155 -0.2499965 0.3022591 -0.4125193 -0.3459532 -0.19777147
0.60922545 -0.5995568 -0.109685935 0.17564262 -0.43638006 -0.16090858 -0.29608664 -0.047649868
0.3000901 -0.2740564 0.046498664 0.022463737 0.0040364 0.38493806 -0.13194807 0.13554187
-0.6180955 0.44599953 -0.1154448 0.15167975 -0.103120014 -0.0071367836 -0.4940741 0.16504884
-0.037302602 -0.17497832 0.14028724 0.33846104 0.015672607 -0.19745895 -0.3560112 0.0348292
-0.200642 -0.18457825 -0.017914314 -0.09076788 -0.1684183 -0.2262532 0.08408412 -0.27398258
-0.34820706 0.8289345 0.18609276 0.26187268 -0.17205197 -0.5279715 -0.51310796 0.36328176
-0.13035934 -0.5490624 0.44765338 0.18142483 -0.008293751 0.011460169 0.5913178 -0.076735675
00000000: 694a 0f3f bf00 ad3e c818 66bd 88cc 20be
00000010: f9c0 80be 5bd1 5a3f e66c 6f3e 5ff1 163e
00000020: d4a5 e33e 630b 853e 7217 39be 57ff 493e
00000030: b010 0fbf 3540 4dbb 5b70 29be bad6 b8bd
00000040: d12a 393e 49c7 a53f 0ca6 2bbe 1075 45be
00000050: 0629 67be 34b8 b93d f4b8 423f 82dc e3bd
00000060: 9be2 5f3e 5e8c 7c3d b25c 7bbe cbbd b23e
00000070: 2a74 25bf 830a 01bf 111b 283f 230f d03e
00000080: 739f 3fbf ab90 a53c 17f8 25bc b4c7 4ebe
00000090: dbf8 83bf e388 c1bd 6882 c3bd 6940 ba3d
000000a0: 34fe 90be 9a54 65be 1718 aa3e 10cf 293f
000000b0: 1007 893e 6968 6e3e 80c5 333c 343a 08be
000000c0: d5b3 afbe 51dd 18bf 76ae 77be de94 b4be
000000d0: 898c 703e bf4b ea3c 1a26 93be 1616 9abe
000000e0: 14a2 7dbd c2ca 11bf 95c0 e1be b67e b2bd
000000f0: 7739 cabe e4f7 473c e068 ac3d 2766 a3ba
00000100: 60f2 8a3e 34ab 8c3e 6735 e73e de0f 673e
00000110: f503 3c3e 95af adbb 8a1c adbe 1ce8 383f
00000120: 40e5 8d3e fe15 aebd 2f3d 833e ad8d 28bc
00000130: 7820 e2bd 37d4 e5bd f350 b13d 769d 673d
00000140: 421b 2ebe 48e9 fa3e afbb 34bf 008e 8b3e
00000150: c1c7 aabc cd20 8abe 56e7 823f 03ba cb3e
00000160: 4f25 e23d c58d adbc 69a9 38bc d2e2 29be
00000170: 2003 18bf 80fe b2bd c05c d83e 0fa6 1e3e
00000180: 89a8 c4be 5b96 14be 2caf 8fbd 6950 84bf
00000190: 30b9 e13c 2b08 af3e 96fd a23d e036 27be
000001a0: 215b 553e 7a0f fbbd 5313 973d 291d 283f
000001b0: ac5c 13bf f70a a73d 7bef c83a 4850 483e
000001c0: 7810 9bbe a45a d0be 6d9c 313e d60a 23be
000001d0: cd97 533e 8b6f ecbd f8d5 0a3f 471a b93d
000001e0: 66ae b0bd 548a 9bbe b901 c3bf 16d0 24be
000001f0: 1646 923d 9a83 00be b31d c7be 4d33 97bd
00000200: 457c 043e eff4 b83e 8831 f83e 5f59 eabe
00000210: 84da f23d ea9b 043f 1f9c 5abe e8b8 6a3e
00000220: eb8c 313f 9566 d53e ccb0 433d 0810 9dbe
00000230: 68c8 7b3e aa2e dd3e 759e 793e 24bb c63e
00000240: 8d07 05bf 3733 873f 85b8 413e 15a0 9abe
00000250: 0f55 05bf 38a6 a0be 6a04 5bbe 02af 4d3b
00000260: e76d 623a b024 a83e 7855 f73e 8abf 19be
00000270: a5af ec3e 5645 bb3c 68a5 fb3d 38ec 313d
00000280: 8d83 9b3e d94f 6b3e 9515 6abf 9f3f 0f3f
00000290: c8dc 4bbf e7ea 25bf 4341 a13e d3cd c63d
000002a0: 5819 0dbe 08bf 14bd 6d89 09be 729b 8fbe
000002b0: 64e1 9b3e e8fd 2d3f 28c8 8b3d 5803 fcbd
000002c0: e2e5 023d 5f5f f6bd b6bf 0f3e a398 90bd
000002d0: 1946 593e 1184 59bd de43 25be 577a cbbb
000002e0: 04c0 eebe 3407 ce3e 6e9b 29be 9e68 ca3d
000002f0: eeed 1cbd c044 a6be c307 0f3f b38d 643e
00000300: 920b d03e dcdc afbe 8e98 4fbf 15ff 7fbe
00000310: b4c1 9a3e bb35 d3be c720 b1be 9b84 4abe
00000320: 33f6 1b3f 8e7c 19bf 05a3 e0bd a9db 333e
00000330: 356d dfbe 38c5 24be ab98 97be 822c 43bd
00000340: 69a5 993e 1f51 8cbe 6275 3e3d df05 b83c
00000350: c743 843b 9a16 c53e 651d 07be 7dcb 0a3e
00000360: 823b 1ebf 0d5a e43e 536e ecbd f051 1b3e
00000370: 9630 d3bd aedb e9bb 48f7 fcbe 9002 293e
00000380: 9dca 18bd 842d 33be 75a7 0f3e c44a ad3e
00000390: d763 803c ae32 4abe 1a47 b6be 10a9 0e3d
000003a0: 1975 4dbe 1502 3dbe 0ac1 92bc 83e4 b9bd
000003b0: d975 2cbe ebae 67be 4c34 ac3d 7247 8cbe
000003c0: 3248 b2be 0d35 543f 1a8f 3e3e 2d14 863e
000003d0: 642e 30be 2429 07bf 0b5b 03bf 1100 ba3e
000003e0: eb7c 05be 5a8f 0cbf d332 e53e 6ec7 393e
000003f0: 83e2 07bc 6fc3 3b3c 9a60 173f 9827 9dbd

2.bias f4 [64]
-0.43057543 -0.3800036 0.09235223 -0.08784571 -0.13519204 0.47956872 0.0966925 -0.041824233
-0.22280154 -0.57360214 0.4086242 -0.07645774 -0.07689944 -0.24451996 0.13796498 0.044918574
-0.24432679 -0.32583112 0.05879081 0.069133304 0.09708373 0.017291455 0.020843605 0.11761872
0.05702664 -0.12996309 -0.05807501 -0.11784295 0.2978442 0.18270846 -0.08194899 0.13869326
0.0072480845 0.23038097 -0.24422275 0.2065392 -0.18917963 -0.2781338 -0.27963066 -0.23748694
0.04015373 -0.3809619 -0.30415297 -0.18687405 0.11289965 0.13365076 0.011081609 0.38096574
0.17112446 0.009682782 -0.07786092 0.017223103 0.31945133 0.18363762 0.05503773 0.17283583
0.035462096 -0.08783021 -0.29243597 0.01287993 0.16787565 0.19006678 0.28018302 0.06832923
00000000: 6274 dcbe d58f c2be 2a23 bd3d 74e8 b3bd
00000010: c86f 0abe 088a f53e b806 c63d e34f 2bbd
00000020: 1626 64be 97d7 12bf 3137 d13e e095 9cbd
00000030: 747d 9dbd 7163 7abe b146 0d3e 8afc 373d
00000040: cd30 7abe 56d3 a6be a2ce 703d c395 8d3d
00000050: d6d3 c63d cfa6 8d3c 35c0 aa3c 15e2 f03d
00000060: c494 693d 0b15 05be 10e0 6dbd a557 f1bd
00000070: 097f 983e ed17 3b3e dfd4 a7bd 9b05 0e3e
00000080: 5781 ed3b fde8 6b3e 8715 7abe 037f 533e
00000090: 4eb8 41be 8e67 8ebe c02b 8fbe c72f 73be
000000a0: 3d78 243d 700d c3be f0b9 9bbe e95b 3fbe
000000b0: ef37 e73d bfdb 083e a38f 353c f10d c33e
000000c0: 403b 2f3e 88a4 1e3c 8c75 9fbd 7717 8d3c
000000d0: 208f a33e 800b 3c3e 3e6f 613d e0fb 303e
000000e0: b440 113d 53e0 b3bd 2bba 95be 5806 533c
000000f0: 98e7 2b3e dea0 423e 2674 8f3e 32f0 8b3d
