Homework_2/hw2_code/BipedalWalker-PPO_test/dir_save/we0_actor_180.pth (torch, 24543 bytes, 4 tensors)

0.weight f4 [64, 24]
-0.49489954 0.21781445 -0.2355126 -0.4494014 -0.069143526 -0.5396241 0.8098376 -0.06796617
0.6184339 -0.38041943 0.39470842 0.41565335 0.34139562 -0.4124077 0.22256845 -0.13733517
0.32291856 0.1084778 0.12901062 -0.0099770855 0.13057226 0.13102223 -0.03570526 -0.54558086
-0.799893 -0.13955586 0.10660475 -1.3401265 -0.32195517 -0.29871982 0.047501408 0.3163968
0.37539598 0.64309704 0.112317815 0.7990564 0.5410529 -0.87713844 -0.035719253 -0.113587685
-0.305468 0.071592644 0.108606495 0.0296661 -0.17579964 0.04992677 0.46104774 -0.20850773
-0.17426704 0.28009123 0.16755301 -0.89089376 0.16828537 0.21885215 -0.9224636 0.41901058
0.3023225 0.052646797 -0.6574297 0.56703925 0.02958661 0.057928666 -0.20253162 -0.37724343
0.043375008 -0.32448173 -0.087303735 -0.40807652 0.3803055 -0.08578542 0.36688036 0.005679706
0.31190896 -0.49762008 -0.90701777 0.74391097 -0.32813346 0.31198958 0.19472855 0.068158366
0.4581231 0.23797318 0.026881626 -0.6486816 -0.3080462 0.38623896 0.15775748 0.40067756
0.05529762 -0.49080735 -0.12517668 0.014338665 -0.23086275 0.13795708 -0.1541309 -0.038358867
-0.23847362 0.90141755 0.28004304 0.09066041 -0.15160912 0.60292023 0.06852811 -0.14282173
0.7661528 0.5067767 -0.39446536 0.2606407 0.99531174 -0.00027941924 -0.3236349 -0.21211195
0.026881058 -0.13061802 -0.33530647 -0.37066725 -0.4814243 -0.36412472 0.38166866 0.027325545
-0.11883939 -0.81739247 1.094037 -0.08143285 0.4909678 -0.459134 -0.7441266 0.46336046
-0.39073557 -0.5140987 0.48698187 0.3529105 0.15849686 0.58588594 -0.36012122 -0.24055642
-0.2313019 0.053732045 -0.15445052 -0.47136438 0.21702816 -0.21624619 0.050482895 0.051600587
-0.0407004 -0.9861195 -0.33502525 0.5736479 0.07321547 -0.62617534 -0.2064886 0.18195482
-0.32669875 0.21059129 -0.21949542 0.41055956 -0.1282133 -0.19514985 0.18291262 -0.51035607
-0.13307232 -0.045534827 -0.0064792037 -0.16038814 -0.3407856 -0.10354704 -0.19050221 0.7205636
-0.1577022 0.32348165 0.20984891 -0.5994851 0.17016579 0.013837479 0.4401751 -0.45255056
-0.049015775 -0.09578996 -0.36574587 0.14805505 1.0732862 0.11348072 -0.39173433 -0.04874609
-0.3034289 -0.016380614 0.014943719 0.00010095098 -0.14087655 -0.43789065 -0.30261347 -0.24266848
-0.7777616 -1.8794708 0.21465988 -1.4999149 0.23760772 0.032452848 0.32675287 -0.17577578
-0.001122808 -0.23149133 0.080691986 -0.92172086 0.3400058 -0.3090112 0.112815835 0.023465892
-0.051450506 -0.46962997 -0.21470997 0.07318924 -0.3356808 -0.43798554 -0.2725054 0.001493611
-0.6195225 -0.97841984 0.3679831 0.4938051 0.33521172 -0.36702305 -0.470999 0.64700115
0.10392402 -0.5057326 -0.3648984 1.1212837 0.5632948 -0.020274889 -0.22883525 -0.13259333
-0.15043418 -0.08135156 -0.43929297 0.18731456 -0.21772823 -0.2678595 -0.12951632 -0.1116969
0.09572505 1.6906525 0.39512533 -0.5138209 0.117571935 0.08478685 0.44105938 0.033610802
-0.043957334 0.15394843 -0.24184786 0.68935305 -0.29598463 -0.12351255 -0.2779994 -0.33164272
00000000: 7963 fdbe c00a 5f3e 372a 71be f117 e6be
00000010: 1f9b 8dbd ce24 0abf 8451 4f3f d931 8bbd
00000020: af51 1e3f 56c6 c2be 3917 ca3e 84d0 d43e
00000030: 68cb ae3e 1a27 d3be fce8 633e 97a1 0cbe
00000040: 9555 a53e 9c29 de3d 5c1b 043e ee76 23bc
00000050: bcb4 053e b12a 063e ae3f 12bd 30ab 0bbf
00000060: cac5 4cbf bbe7 0ebe 9753 da3d 4489 abbf
00000070: 4fd7 a4be cef1 98be d690 423d c3fe a13e
00000080: e733 c03e 02a2 243f e206 e63d f68e 4c3f
00000090: 7182 0a3f 258c 60bf 5a4e 12bd a9a0 e8bd
000000a0: 4d66 9cbe 2a9f 923d 156d de3d 5206 f33c
000000b0: d204 34be 0380 4c3d 730e ec3e 0d83 55be
000000c0: 0f73 32be 1e68 8f3e 0493 2b3e 9d11 64bf
000000d0: 0053 2c3e c71a 603e 9326 6cbf 8e88 d63e
000000e0: 04ca 9a3e 2ba4 573d 504d 28bf 7c29 113f
000000f0: 9e5f f23c 9c46 6d3d 7364 4fbe 0d26 c1be
00000100: fea9 313d 7822 a6be 4dcc b2bd 68ef d0be
00000110: 67b7 c23e 44b0 afbd bed7 bb3e d41c ba3b
00000120: 88b2 9f3e 0fc8 febe 5132 68bf f370 3e3f
00000130: 1c01 a8be 19bd 9f3e ec66 473e 9d96 8b3d
00000140: 1c8f ea3e 3eaf 733e db36 dc3c ff0f 26bf
00000150: 3bb8 9dbe 1dc1 c53e 2d8b 213e 9c25 cd3e
00000160: c27f 623d 1a4b fbbe 512e 00be b8ec 6a3c
00000170: 4967 6cbe 9f44 0d3e 7ed4 1dbe 301e 1dbd
00000180: 6e32 74be 4dc3 663f cd61 8f3e 2aac b93d
00000190: 6c3f 1bbe fb58 1a3f 7758 8c3d dc3f 12be
000001a0: 9722 443f 1ebc 013f 5df7 c9be b372 853e
000001b0: c0cc 7e3f 047f 92b9 79b3 a5be e033 59be
000001c0: aa35 dc3c bbc0 05be 4aad abbe 19c8 bdbe
000001d0: 3f7d f6be 8e6e babe 136a c33e d2d9 df3c
000001e0: 1162 f3bd a240 51bf 6809 8c3f 44c6 a6bd
000001f0: 2260 fb3e 9d13 ebbe 157f 3ebf 953d ed3e
00000200: 7e0e c8be f99b 03bf b055 f93e afb0 b43e
00000210: 004d 223e 9ffc 153f cf61 b8be 6c54 76be
00000220: 68da 6cbe 2216 5c3d 4728 1ebe ac56 f1be
00000230: a13c 5e3e a46f 5dbe 27c7 4e3d 235b 533d
00000240: 76b5 26bd 5472 7cbf 6e88 abbe 97da 123f
00000250: fef1 953d 074d 20bf bf71 53be 5d52 3a3e
00000260: 0f45 a7be 3ea5 573e 68c3 60be dd34 d23e
00000270: 594a 03be 5dd5 47be 724d 3b3e b2a6 02bf
00000280: 1c44 08be ba82 3abd 804f d4bb ca3c 24be
00000290: 737b aebe 7810 d4bd 0313 43be db76 383f
000002a0: af7c 21be 639f a53e a2e2 563e db77 19bf
000002b0: f13f 2e3e 98b6 623c a15e e13e b5b4 e7be
000002c0: c4c4 48bd 872d c4bd 0b43 bbbe be9b 173e
000002d0: 7161 893f 9468 e83d 6791 c8be fba9 47bd
000002e0: 085b 9bbe a330 86bc 80d6 743c a5b5 d338
000002f0: f141 10be 3433 e0be 27f0 9abe 167e 78be
00000300: 621b 47bf 8092 f0bf cdcf 5b3e 36fd bfbf
00000310: 704f 733e 47ed 043d 274c a73e 91fe 33be
00000320: 2f2b 93ba 100c 6dbe d741 a53d e6f5 6bbf
00000330: 3d15 ae3e b736 9ebe fd0b e73d 8b3b c03c
00000340: c4bd 52bd 5773 f0be eedc 5bbe 3ee4 953d
00000350: 5bde abbe a43f e0be d485 8bbe 45c5 c33a
00000360: 0799 1ebf b979 7abf 4868 bc3e 06d4 fc3e
00000370: dfa0 ab3e 72ea bbbe c826 f1be dea1 253f
00000380: 1ed6 d43d b177 01bf f7d3 babe 3986 8f3f
00000390: 1734 103f 8617 a6bc ca53 6abe 8cc6 07be
000003a0: 6b0b 1abe a69b a6bd 02eb e0be 63cf 3f3e
000003b0: 26f4 5ebe e124 89be ed9f 04be 58c1 e4bd
000003c0: 7f0b c43d 4d67 d83f de4d ca3e c489 03bf
000003d0: 8ec9 f03d baa4 ad3d 89d2 e13e 7bab 093d
000003e0: 9b0c 34bd a8a4 1d3e f7a6 77be 7179 303f
000003f0: 4c8b 97be 26f4 fcbd f055 8ebe 13cd a9be

0.bias f4 [64]
-0.047019005 0.031168345 0.04231833 -0.005826494 0.00796991 0.024935303 0.14558531 -0.14415433
0.1311846 -0.071237996 -0.116802245 -0.038347434 -0.013237737 0.13923788 -0.058526795 0.030201286
-0.1680689 -0.05550427 0.19276108 0.1413528 -0.18151303 -0.03151536 -0.18668377 -0.040148742
-0.233347 0.12604944 -0.11332232 -0.061058186 -0.15384646 0.0063982205 0.03290302 -0.1914005
0.003492998 0.052496586 0.009528439 0.0495035 -0.008846445 -0.023202483 -0.26331824 0.07250587
-0.1946538 0.10340729 0.1456761 0.081146315 -0.09578408 0.2336208 -0.13016497 0.14319885
-0.100667045 0.1456334 0.063197955 -0.08810973 0.055073168 0.07348427 -0.10676429 0.10421545
0.07031744 0.23909415 0.37496945 0.1300973 0.15720503 0.27580053 0.11923832 -0.0037364636
00000000: 0097 40bd c254 ff3c fc55 2d3d 2dec bebb
00000010: 3a94 023c 1f45 cc3c 5114 153e 319d 13be
00000020: 4155 063e 3ae5 91bd 0436 efbd 3312 1dbd
00000030: 18e3 58bc 6094 0e3e cbb9 6fbd b068 f73c
00000040: 411a 2cbe 7258 63bd 2963 453e cabe 103e
00000050: 8dde 39be 4016 01bd 082a 3fbe 0273 24bd
00000060: 84f2 6ebe 1b13 013e 8815 e8bd 2618 7abd
00000070: ed89 1dbe 2aa8 d13b 51c5 063d 7efe 43be
00000080: c8ea 643b a906 573d 2b1d 1c3c 2fc4 4a3d
00000090: aef0 10bc 2213 bebc a6d1 86be f57d 943d
000000a0: 5353 47be 34c7 d33d 1e2c 153e 0a30 a63d
000000b0: 722a c4bd 4a3a 6f3e f749 05be b8a2 123e
000000c0: 862a cebd ec20 153e ee6d 813d e072 b4bd
000000d0: 6794 613d ec7e 963d 3ca7 dabd e96e d53d
000000e0: 9702 903d 19d5 743e fffb bf3e 3a38 053e
000000f0: 5bfa 203e ba35 8d3e 3833 f43d 75df 74bb

2.weight f4 [64, 64]
0.43052518 0.1761584 0.16287889 -0.16295485 -0.29091045 0.97023124 0.3628014 -0.18685722
0.19423461 0.26100433 -0.15665764 0.2641677 -0.4360987 -0.014969034 -0.13238081 0.24592388
0.25708532 0.9753691 -0.23698038 -0.29239333 -0.42666703 0.19692795 0.71968657 0.062424753
0.07849999 0.041436646 -0.2201676 0.36508948 -0.42202392 -0.36794075 0.30246946 0.0901997
-0.45578817 0.1746569 -0.23414528 -0.006405332 -0.6549754 -0.08592353 -0.04656194 0.07905795
-0.15023524 -0.42083496 0.25613984 0.7505894 0.15774839 0.2094965 0.036538057 -0.02655192
-0.29291886 -0.85206777 -0.13594382 -0.29604766 -0.06788722 0.20068951 0.061735835 -0.23788053
0.07126103 -0.39268133 -0.19793767 0.26496798 -0.56206816 0.14865358 -0.08267221 0.0045334203
0.22451533 0.43655375 0.51759076 0.08700854 0.2313819 0.05882848 -0.16028628 0.4759919
0.10759491 0.049835622 0.25325042 0.08447924 -0.21496865 -0.12031074 0.11556944 0.13570993
-0.19602175 0.28546742 -0.64494115 0.09750685 0.15723583 0.002010139 0.7489624 0.3250286
0.12736036 0.05131322 -0.032818913 -0.12148497 -0.5925896 -0.073130995 0.32422885 0.16011825
-0.19139908 -0.11949941 0.12014166 -0.99848604 -0.011232983 0.55779237 0.015465826 -0.31569156
0.31336838 -0.051620793 0.06469107 0.43433288 -0.28354248 0.025569834 0.034312624 0.059955575
-0.13651651 -0.4118258 0.25986794 -0.07434492 0.20501693 -0.16043413 0.59157884 0.15918645
-0.07295968 -0.30001876 -1.3020618 -0.1016363 -0.12402541 -0.043773364 -0.36628038 -0.27686682
0.119309865 0.29492274 0.34070575 -0.47929457 0.047214054 0.53179663 -0.13068622 0.1613826
0.5692633 0.417619 0.00885855 -0.17348373 0.2654787 0.38544214 0.12986006 0.34902775
-0.36648932 0.7221001 0.35763776 0.074090466 -0.38680398 -0.026467498 -0.42521513 -0.07278855
-0.16073585 0.3490411 0.4483211 -0.10694363 0.43299675 0.010549214 -0.050010614 0.06695127
0.2594707 0.15063146 -0.61116856 0.61546654 -0.80310076 -0.54556847 0.21296094 0.08451074
-0.36136526 0.038937014 -0.20451756 -0.21363328 0.31212243 0.41300145 0.02071147 -0.21403363
0.096418515 0.039130613 0.1364383 -0.13608544 0.19023661 -0.1148193 -0.19438818 0.013806919
-0.32724306 0.21395709 -0.1060358 0.1646067 -0.02939219 -0.1653104 0.47060224 0.15474181
0.29377496 -0.28628024 -0.6077445 -0.30959415 0.14411508 -0.19981252 -0.16513926 -0.14840856
0.4725172 -0.49054515 -0.15553446 0.09866418 -0.0099978745 -0.11072344 -0.24572225 -0.27244112
0.28414142 0.012215824 0.025586547 0.11948077 0.04895729 0.52152526 -0.08319036 -0.07640229
-0.32720706 0.2277141 -0.10803963 0.113353536 -0.23000461 -0.029114874 -0.4068677 0.2621224
-0.1691246 -0.12933195 0.09174087 0.3059062 -0.08801906 -0.426907 -0.30837822 -0.06069043
-0.25970313 -0.10592511 0.06899867 -0.1309227 -0.18104239 -0.12112237 0.04224279 -0.13727427
-0.40882793 0.49632397 0.12890941 0.034955606 -0.20109265 -0.43106756 -0.48937628 -0.058455467
-0.03333659 -0.3557007 0.20231456 0.111506134 -0.16689514 0.05878483 0.7461972 0.03307514
00000000: cc6d dc3e de62 343e b9c9 263e a3dd 26be
00000010: 37f2 94be 1361 783f 1bc1 b93e 8057 3fbe
00000020: 70e5 463e 5ca2 853e dc6a 20be fd40 873e
00000030: 5448 dfbe ae40 75bc d68e 07be 78d3 7b3e
00000040: b0a0 833e cab1 793f fcaa 72be 94b4 95be
00000050: 1a74 dabe 7ba7 493e 613d 383f 19b1 7f3d
00000060: 9ac4 a03d 79b9 293d 9e73 61be 02ed ba3e
00000070: 8513 d8be bb62 bcbe 47dd 9a3e 9fba b83d
00000080: 115d e9be 42d9 323e c8c3 6fbe d2e3 d1bb
00000090: 78ac 27bf adf8 afbd bcb7 3ebd 22e9 a13d
000000a0: 44d7 19be ae77 d7be c324 833e a026 403f
000000b0: cb88 213e 4086 563e eea8 153d 6a83 d9bc
000000c0: 76f9 95be 1d21 5abf db34 0bbe 8f93 97be
000000d0: 7408 8bbd 8d81 4d3e b7de 7c3d f496 73be
000000e0: 4ef1 913d 870d c9be 2cb0 4abe e2a9 873e
000000f0: b3e3 0fbf a538 183e 0c50 a9bd 168d 943b
00000100: 59e7 653e f983 df3e d480 043f 8931 b23d
00000110: 60ef 6c3e 22f6 703d 1622 24be 36b5 f33e
00000120: b85a dc3d 7020 4c3d 0aaa 813e 7403 ad3d
00000130: be20 5cbe 7a65 f6bd acaf ec3d 8bf7 0a3e
00000140: edb9 48be c928 923e dd1a 25bf acb1 c73d
00000150: 6e02 213e 89bc 033b 00bc 3f3f 266a a63e
00000160: c16a 023e d02d 523d 206d 06bd 1dcd f8bd
00000170: f4b3 17bf b4c5 95bd 5301 a63e 0af6 233e
00000180: 1ffe 43be 1bbc f4bd d50c f63d c89c 7fbf
00000190: 8c0a 38bc 7bcb 0e3f 6064 7d3c 53a2 a1be
000001a0: d271 a03e 5370 53bd c07c 843d e160 de3e
000001b0: 7b2c 91be d477 d13c 658b 0c3d fa93 753d
000001c0: fcca 0bbe d5da d2be 690d 853e 2642 98bd
000001d0: f5ef 513e d848 24be b671 173f c601 233e
000001e0: e26b 95bd 0f9c 99be f6a9 a6bf b126 d0bd
000001f0: 0901 febd b34b 33bd 1a89 bbbe 7dc1 8dbe
00000200: bb58 f43d 1d00 973e fc70 ae3e 1966 f5be
00000210: 8663 413d d323 083f 9cd2 05be 7b41 253e
00000220: 3dbb 113f 28d2 d53e 7423 113c b8a5 31be
00000230: d3ec 873e ac58 c53e 09fa 043e c4b3 b23e
00000240: 7da4 bbbe 8ddb 383f 4c1c b73e bebc 973d
00000250: 2c0b c6be 5ed2 d8bc ccb5 d9be 2a12 95bd
00000260: f097 24be 84b5 b23e 588a e53e 4305 dbbd
00000270: c0b1 dd3e 9cd6 2c3c eed7 4cbd bf1d 893d
00000280: 58d9 843e 223f 1a3e 8b75 1cbf 378f 1d3f
00000290: 0398 4dbf 60aa 0bbf 6f12 5a3e f813 ad3d
000002a0: de04 b9be 6b7c 1f3d 0d6d 51be afc2 5abe
000002b0: 83ce 9f3e ed74 d33e 1aab a93c a22b 5bbe
000002c0: 1277 c53d 6c47 203d 7bb6 0b3e fb59 0bbe
000002d0: 63cd 423e 6226 ebbd b20d 47be 6a36 623c
000002e0: 678c a7be 9117 5b3e 4c29 d9bd a98e 283e
000002f0: e4c7 f0bc 2147 29be c7f2 f03e a374 1e3e
00000300: ac69 963e 5393 92be 2595 1bbf 2083 9ebe
00000310: e792 133e a79b 4cbe 441a 29be 6af8 17be
00000320: c6ed f13e bc28 fbbe 6d44 1fbe 7210 ca3d
00000330: 20ce 23bc f9c2 e2bd 9d9e 7bbe 677d 8bbe
00000340: fc7a 913e e124 483c e19a d13c 55b2 f43d
00000350: 7087 483d ae82 053f b55f aabd ce78 9cbd
00000360: af87 a7be e32d 693e e243 ddbd e625 e83d
00000370: 5486 6bbe 5182 eebc f750 d0be e834 863e
00000380: 002f 2dbe 986f 04be a3e2 bb3d bd9f 9c3e
00000390: 5643 b4bd 8e93 dabe c0e3 9dbe 8796 78bd
000003a0: cff7 84be 44ef d8bd 2d4f 8d3d 9a10 06be
000003b0: 2d63 39be 010f f8bd c706 2d3d a091 0cbe
000003c0: e551 d1be 2d1e fe3e d400 043e 9c2d 0f3d
000003d0: 3beb 4dbe e3b4 dcbe 878f fabe 006f 6fbd
000003e0: f38b 08bd 671e b6be 8c2b 4f3e 545d e43d
000003f0: 8fe6 2abe 5dc8 703d c806 3f3f cc79 073d

2.bias f4 [64]
-0.28966907 -0.33123127 0.11900004 -0.03743889 -0.11539725 0.34363768 0.10036502 -0.009546558
-0.22284253 -0.42761007 0.37447238 -0.04324966 0.019188793 -0.16380224 0.1291057 0.05302981
-0.14096346 -0.22816576 0.042136364 0.06393257 0.086534865 0.057181783 0.028655222 0.03598479
0.22864722 0.009942858 -0.03308792 -0.09733417 0.24245602 0.08479382 -0.01461402 0.10524355
-0.13558131 0.049746305 -0.29017773 0.21676177 -0.11292013 -0.26897344 -0.1560709 -0.18088354
-0.056016453 -0.19433695 -0.110720746 -0.09386274 0.15580687 0.0008757871 0.0336205 0.18823002
0.031233551 0.15683986 -0.002048576 0.07715446 0.37889445 0.17835367 -0.053324375 0.038035408
0.05305421 -0.10932026 -0.23684065 -0.047896545 0.033881586 0.07233012 0.26057246 0.1280041
00000000: 814f 94be 2597 a9be 4bb6 f33d 8659 19bd
00000010: 6555 ecbd 47f1 af3e 2d8c cd3d 2b69 1cbc
00000020: d530 64be b5ef dabe d8ba bf3e 8e26 31bd
00000030: d131 9d3c c6bb 27be 4934 043e c935 593d
00000040: ba58 10be 49a4 69be 2e97 2c3d 14ef 823d
00000050: 3139 b13d 7237 6a3d 5bbe ea3c ca64 133d
00000060: 7f22 6a3e 5ee7 223c 3387 07bd 2357 c7bd
00000070: 6446 783e 62a8 ad3d a46f 6fbc ee89 d73d
00000080: d4d5 0abe c8c2 4b3d 2d92 94be ccf6 5d3e
00000090: ab42 e7bd e3b6 89be 0dd1 1fbe 8939 39be
000000a0: 8271 65bd 4400 47be 8fc1 e2bd 1c3b c0bd
000000b0: d68b 1f3e 1495 653a a6b5 093d 5fbf 403e
000000c0: 81dd ff3c a19a 203e 6741 06bb 2803 9e3d
000000d0: 74fe c13e 58a2 363e a96a 5abd 04cb 1b3d
000000e0: 5f4f 593d 4de3 dfbd 5b86 72be 2b2f 44bd
000000f0: 6bc7 0a3d d021 943d c169 853e 8213 033e
