Homework_2/hw2_code/BipedalWalker-PPO_test/dir_save/we0_critic_-160.pth (torch, 24543 bytes, 4 tensors)

0.weight f4 [64, 24]
-0.8880721 -0.6026929 1.248896 0.0046381387 -0.34990206 -0.14514537 -0.29351306 -0.1121897
0.31485412 -1.1241456 0.09790328 -0.17672762 0.08063383 -0.044331864 0.45603645 0.16051936
0.4416686 -0.03311079 0.23703712 0.11827805 0.54348755 0.25353435 0.44436455 -0.5074397
-1.366221 -1.5506744 1.8406936 0.30141574 -0.21246313 0.07227247 -0.74390006 0.12485645
0.14797926 -0.07896739 -0.22283496 0.056740064 -0.16864984 -0.3259485 -0.34948507 -0.2692828
-0.29310656 -0.83089995 -0.41747615 -0.29854223 -0.3712177 0.04804877 0.14368203 0.16994569
-0.29449174 0.13709253 0.55494565 1.4171903 0.20393652 -0.2024371 0.34941387 0.003108002
-0.40695682 -0.12605429 0.3530613 0.66275007 -0.03678133 -0.5887819 -0.17103443 0.18332703
-0.08737794 0.03511919 -0.29461095 0.052474555 -0.20416072 0.13325243 0.133115 -0.62778646
1.7685018 2.3277867 -2.753808 0.4694898 1.2174928 0.15633863 0.8182199 -0.05475446
0.002842145 1.2054663 -0.01714905 0.42930505 -0.0057565207 -0.26551923 0.046363458 -0.33187
-0.41842622 -0.26641494 -0.22387065 -0.2314972 0.10409961 -0.06947682 -0.39831427 -0.5519048
-0.24394184 -0.1414746 0.34881824 -0.7832931 0.5659193 0.2690932 0.0838124 0.19565505
-0.2576825 -1.2298009 -0.3513136 -0.16853133 -0.17381842 -0.26269737 0.20642729 -0.057362683
-0.2779891 -0.19476213 0.018170428 -0.20214553 -0.24529812 0.17723402 0.13330603 0.2822257
-0.4185559 0.27632025 0.51117885 1.1483403 0.23169571 0.12826703 0.6708058 -0.37231132
-0.4965964 -0.008720455 -0.08226856 0.6241356 0.14482674 -0.24514765 0.120563045 -0.21464036
0.13512681 0.2858428 -0.3533382 -0.32756606 0.1828962 -0.100912385 -0.4498025 -0.33416292
0.050961696 -0.59286064 -0.98861384 -0.5176839 0.12979601 0.1527146 -0.044168178 0.0070474218
0.027290147 0.26711845 -0.08228896 0.6766277 -0.08400427 0.19318777 0.27480993 -0.21586482
0.0436509 -0.3292855 0.20987877 -0.03339839 -0.22230603 -0.44459814 -0.044585768 -0.19459337
0.23038039 0.065633915 0.61791766 0.49049443 0.63736504 0.016441459 0.36912623 0.054460682
0.41796708 -0.66091675 0.072606176 -0.16961901 0.026407426 -0.050630115 -0.19157553 -0.4099441
0.030905431 -0.35690254 -0.30555102 -0.25092486 -0.10089876 -0.4645768 -0.40520972 0.05007174
-0.28687042 1.3389103 -0.47823253 -0.9081666 1.2612661 0.2628204 0.16794302 0.004366428
-0.08221645 -0.18565972 -0.1555122 -0.0049078534 -0.040074844 -0.51286167 -0.2784679 0.049302377
-0.017247114 -0.06052815 0.39359918 -0.17451005 -0.0010139407 -0.15770464 -0.19015187 -0.13627572
-0.24814144 0.6319471 0.6031001 0.4594637 -0.27111304 0.046133388 -0.14245656 0.025784925
-0.12256787 0.8303295 -0.061008383 0.8868047 0.0781744 -0.63248473 -0.14110287 0.2412452
0.088325396 0.17028606 0.12939419 -0.04674591 0.048109178 0.02455211 -0.13587476 -0.11506606
0.065730736 -0.018476272 0.5335638 1.2067214 -0.038088784 -0.16322453 0.101359695 0.21096078
-0.45041955 -0.30073375 0.040092837 -0.21637587 -0.047067888 -0.31732565 -0.5610286 -0.30572906
00000000: b158 63bf 154a 1abf d3db 9f3f 87fb 973b
00000010: 5d26 b3be fda0 14be 5847 96be b7c3 e5bd
00000020: 8f34 a13e 01e4 8fbf 8481 c83d 16f8 34be
00000030: 5923 a53d 5495 35bd 9c7d e93e 305f 243e
00000040: 6322 e23e 2e9f 07bd dcb9 723e c33b f23d
00000050: 0022 0b3f 41cf 813e c083 e33e 91e7 01bf
00000060: 54e0 aebf 807c c6bf d99b eb3f 2a53 9a3e
00000070: ef8f 59be 9703 943d 3c70 3ebf bdb4 ff3d
00000080: e087 173e a8b9 a1bd d92e 64be 4568 683d
00000090: 8bb2 2cbe b9e2 a6be b5ef b2be 6fdf 89be
000000a0: 1012 96be dcb5 54bf 6fbf d5be 87da 98be
000000b0: 3f10 bebe c9ce 443d 6221 133e 3e06 2e3e
000000c0: 9fc7 96be fc61 0c3e eb10 0e3f 7e66 b53f
000000d0: bcd4 503e ac4b 4fbe 60e6 b23e 9faf 4b3b
000000e0: a55c d0be 6014 01be 73c4 b43e fda9 293f
000000f0: 05a8 16bd 69ba 16bf a623 2fbe 15ba 3b3e
00000100: 35f3 b2bd 24d9 0f3d 3fd7 96be 8fef 563d
00000110: 820f 51be 5373 083e 4c4f 083e 9db6 20bf
00000120: 445e e23f 75fa 1440 643e 30c0 f860 f03e
00000130: ced6 9b3f 3c17 203e dc76 513f 3646 60bd
00000140: 4843 3a3b b84c 9a3f 2a7c 8cbc dfcd db3e
00000150: 32a1 bcbb 23f2 87be 9ce7 3d3d ddea a9be
00000160: f63b d6be 8a67 88be 593e 65be 9a0d 6dbe
00000170: 2d32 d53d dd49 8ebd d9ef cbbe a249 0dbf
00000180: e4cb 79be b8de 10be 4e98 b23e e685 48bf
00000190: 16e0 103f 95c6 893e d6a5 ab3d cc59 483e
000001a0: f6ee 83be 1e6a 9dbf 60df b3be 7a93 2cbe
000001b0: 75fd 31be 4580 86be ad61 533e 22f5 6abd
000001c0: 9654 8ebe b96f 47be 26da 943c 3dff 4ebe
000001d0: 6e2f 7bbe d67c 353e 6081 083e e37f 903e
000001e0: f54c d6be d979 8d3e 9edc 023f d1fc 923f
000001f0: a441 6d3e 6f58 033e eeb9 2b3f 979f bebe
00000200: e241 febe 3de0 0ebc 6b7c a8bd 5ac7 1f3f
00000210: 764d 143e fc07 7bbe c2e9 f63d afca 5bbe
00000220: af5e 0a3e fd59 923e bfe8 b4be bdb6 a7be
00000230: 2449 3b3e 27ab cebd 834c e6be 6717 abbe
00000240: 36bd 503d b7c5 17bf cc15 7dbf ef86 04bf
00000250: 3fe9 043e 3761 1c3e b1e9 34bd 0fee e63b
00000260: 968f df3c c0c3 883e 1d87 a8bd 7937 2d3f
00000270: 6e0a acbd 04d3 453e e3b3 8c3e ab0b 5dbe
00000280: 49cb 323d 1c98 a8be 76ea 563e c0cc 08bd
00000290: 31a4 63be 5ea2 e3be 919f 36bd 7c43 47be
000002a0: d6e8 6b3e 136b 863d da2f 1e3f 1622 fb3e
000002b0: 5b2a 233f 3db0 863c 1dfe bc3e 2a12 5f3d
000002c0: c8ff d53e d731 29bf 8cb2 943d 9bb0 2dbe
000002d0: 6354 d83c 8661 4fbd 602c 44be 31e4 d1be
000002e0: 632d fd3c eebb b6be 2f71 9cbe 3979 80be
000002f0: 02a4 cebd 03dd edbe a677 cfbe 0618 4d3d
00000300: aee0 92be 6a61 ab3f e5da f4be 9b7d 68bf
00000310: 2b71 a13f 6590 863e 41f9 2b3e 4114 8f3b
00000320: 1961 a8bd 951d 3ebe 973e 1fbe 0fd2 a0bb
00000330: 8525 24bd e74a 03bf 5893 8ebe 4af1 493d
00000340: d249 8dbc 5eec 77bd d585 c93e c3b2 32be
00000350: 34e6 84ba 537d 21be 2cb7 42be dd8b 0bbe
00000360: ca18 7ebe 49c7 213f c564 1a3f d33e eb3e
00000370: 54cf 8abe 5df6 3c3d 22e0 11be e83a d33c
00000380: dd04 fbbd 7990 543f ede3 79bd a205 633f
00000390: e619 a03d 85ea 21bf 457d 10be fb08 773e
000003a0: f2e3 b43d 785f 2e3e e97f 043e a478 3fbd
000003b0: 210e 453d 8221 c93c c122 0bbe c1a7 ebbd
000003c0: d69d 863d 8d5b 97bc a397 083f d975 9a3f
000003d0: fc02 1cbd 5524 27be ac95 cf3d 1a06 583e
000003e0: 649d e6be c6f9 99be 6338 243d a391 5dbe
000003f0: 42ca 40bd 8278 a2be 929f 0fbf 8588 9cbe

0.bias f4 [64]
-0.0764796 0.18075801 -0.23716116 -0.12443465 0.19314373 -0.23898952 0.20794319 -0.07627424
-0.04918789 -0.12482542 -0.31875387 -0.13026583 -0.25253505 -0.43224037 -0.14145213 -0.033404615
0.029766975 0.5482344 0.07610563 0.25222653 -0.15159869 0.16814902 -0.13700034 -0.09738058
-0.22878626 -0.23319502 -0.18919374 -0.066712126 -0.048107114 0.43807477 -0.2485199 -0.1778199
0.022251083 0.14268142 0.19437857 0.03955935 -0.19747671 0.18397173 -0.23525962 -0.38754323
-0.15089138 -0.1765792 0.2784717 0.06877502 -0.09470518 0.26820397 0.17930946 -0.12056588
0.4404305 -0.027907006 0.21512786 -0.005038571 0.41881767 -0.3418123 0.22629543 -0.312346
-0.21661459 0.32666302 0.45526215 -0.20718704 0.0084084915 0.16710916 -0.17769793 -0.28749192
00000000: 56a1 9cbd a118 393e 60da 72be 98d7 febd
00000010: 78c7 453e abb9 74be 0fef 543e ab35 9cbd
00000020: 3e79 49bd 78a4 ffbd b533 a3be 6864 05be
00000030: 464c 81be 9c4e ddbe d4d8 10be 47d3 08bd
00000040: dfd9 f33c 1759 0c3f 45dd 9b3d d623 813e
00000050: b03c 1bbe 422f 2c3e d149 0cbe 786f c7bd
00000060: f246 6abe adca 6ebe 01bc 41be 5ea0 88bd
00000070: f70b 45bd 564b e03e 007c 7ebe 6b16 36be
00000080: e747 b63c 141b 123e 2d0b 473e fc08 223d
00000090: 5637 4abe 1663 3c3e e6e7 70be 116c c6be
000000a0: 4583 1abe 2ed1 34be d893 8e3e ebd9 8c3d
000000b0: caf4 c1bd 0852 893e e69c 373e 3eeb f6bd
000000c0: 1b80 e13e 3c9d e4bc 7a4a 5c3e 991a a5bb
000000d0: 456f d63e 0602 afbe fdb9 673e d1eb 9fbe
000000e0: 37d0 5dbe 6040 a73e 1f18 e93e d728 54be
000000f0: c5c3 093c aa1e 2b3e 72f6 35be 2432 93be

2.weight f4 [64, 64]
-0.093642175 0.14172277 0.06667801 -1.185706 0.003460822 0.04139284 -0.32347468 0.019449202
-0.34292433 0.28409946 0.21657681 -0.24586561 0.21380211 0.22462296 0.013318761 -0.6764783
-0.27637812 -0.05966378 0.011748772 0.63582504 0.27275825 -0.15607247 -0.06729817 0.086215146
0.3493358 -0.6472856 -0.018359102 0.19666013 -0.34043366 -0.29952344 0.37360924 -0.60564613
-0.0830609 -0.29169974 -0.04111917 -0.02779843 -0.114651345 -0.10413798 0.6339796 -0.90780574
0.61385983 0.10115419 -0.8000582 -0.87450755 -0.06724328 0.09581033 0.015924195 -0.06670859
-0.23365313 -0.1418206 0.13313556 0.06734047 -0.41050443 -0.0444589 -0.5359891 0.005095546
-0.21861146 -0.30141377 -0.031614766 -0.28405282 0.5676799 0.17726398 -0.24267599 0.17510122
-0.6230453 0.40515855 -0.12678237 0.86423206 -0.31256104 -0.08746037 -0.13940486 -0.22621398
-0.06969941 -0.096774906 -0.30466536 -0.2671114 -0.10076484 -0.42291555 -0.23964114 -1.0969867
0.72051114 0.026566409 -0.021630172 0.13509412 -0.40932292 -0.38130963 -0.34742743 -0.04572654
-0.4021971 1.3493003 -0.54036856 0.20156777 -0.61032325 0.23993598 -0.47413126 0.7812873
0.42207456 0.53177696 -0.07015483 0.6270814 -0.16157706 0.6816914 -0.3646041 -1.0831537
-0.4640804 -0.19714136 1.2335676 -0.043679297 -0.5925196 0.26635385 0.71222574 -0.31552672
0.3239258 -0.4535732 0.6497832 0.15167576 0.3282334 -0.31382462 -0.24571042 -0.2016543
-0.48462886 0.13106544 0.3028063 -0.5049691 0.85346174 0.503658 -0.55994725 -0.5484391
-0.16540669 -0.2910624 0.048097186 1.0684102 0.49474907 -0.18845376 -0.1021642 -0.036458407
0.39797723 -0.25557375 -0.13982773 0.045630284 -1.0408587 -0.11404879 0.2677327 0.20007786
-0.0055339867 0.16973643 0.07459134 -0.39217404 0.080659375 0.1390056 0.24660212 0.5559097
-0.40989292 1.0341519 0.29088187 -0.4735395 0.11947505 0.18005301 -0.3300198 0.67489547
0.039698593 0.038938683 0.33730853 -0.49056786 0.21649492 0.09114384 -0.50614375 0.4109624
-0.4893302 -0.18044713 -0.38608494 0.9057939 0.03498181 0.23184273 0.049379967 -0.14616694
0.111518174 -0.24299075 -0.29384375 -0.14483899 1.3680801 -0.13096087 0.7917807 -0.24372596
0.22241198 0.22021277 0.0362455 0.28703588 -0.5110378 -0.34728044 -0.38767806 -0.17715219
0.26738563 -0.07356468 -0.29837295 0.8920622 0.13037728 -0.18622787 -0.46724492 -0.29387978
0.500002 -0.1872542 -0.22390418 0.11842766 -0.4812319 -0.279393 -0.030623695 0.25632402
0.015213832 0.23174642 -0.5081536 -0.26278874 0.099733144 0.25006548 0.14742438 0.6153391
-0.37786213 0.54160583 0.14755687 0.3432136 0.304598 0.22724311 0.0429954 0.37620023
0.16753088 -0.050161276 0.4840104 0.28904897 0.23586863 -0.31152952 -0.4634587 0.91150904
-0.060478143 -0.26375654 0.45701706 1.0324551 -0.19240628 0.31553218 -0.04657216 -0.16472186
0.18408702 -0.03418204 -0.23580465 0.14655568 0.5973392 0.24344349 0.24066344 -0.20353681
0.2303818 0.20979771 0.11317895 -0.19792396 -0.78350824 -0.43131587 -0.24302685 0.23724683
00000000: 78c7 bfbd c61f 113e 7b8e 883d 37c5 97bf
00000010: f5ce 623b 8a8b 293d 799e a5be ef53 9f3c
00000020: c793 afbe 7c75 913e 50c6 5d3e 32c4 7bbe
00000030: f1ee 5a3e 9003 663e ef36 5a3c af2d 2dbf
00000040: 6f81 8dbe 0262 74bd ec7d 403c 6ec5 223f
00000050: f8a6 8b3e 76d1 1fbe 9fd3 89bd 9191 b03d
00000060: 24dc b23e 82b4 25bf d465 96bc 4661 493e
00000070: 524d aebe 235b 99be b649 bf3e a00b 1bbf
00000080: d51b aabd ab59 95be 936c 28bd 88b9 e3bc
00000090: 53ce eabd 4b46 d5bd 7d4c 223f f565 68bf
000000a0: eb25 1d3f ee29 cf3d 9dd0 4cbf badf 5fbf
000000b0: d8b6 89bd 3538 c43d 7573 823c 839e 88bd
000000c0: c442 6fbe 6b39 11be b054 083e cde9 893d
000000d0: a32d d2be 891a 36bd 9536 09bf 8af8 a63b
000000e0: afdb 5fbe e852 9abe 7c7e 01bd 5f6f 91be
000000f0: 7853 113f b084 353e 0e80 78be bc4d 333e
00000100: e67f 1fbf f170 cf3e 3dd3 01be 503e 5d3f
00000110: 0008 a0be 6c1e b3bd 26c0 0ebe a3a4 67be
00000120: 90be 8ebd ec31 c6bd 19fd 9bbe d3c2 88be
00000130: cc5d cebd 6388 d8be 7d64 75be 0f6a 8cbf
00000140: 6b73 383f cca1 d93c c231 b1bc 1d56 0a3e
00000150: c692 d1be 043b c3be 02e2 b1be c14b 3bbd
00000160: c7ec cdbe dfb5 ac3f 9855 0abf c867 4e3e
00000170: 253e 1cbf c7b1 753e 55c1 f2be 7202 483f
00000180: 281a d83e 8922 083f 56ad 8fbd 6888 203f
00000190: 7574 25be 5483 2e3f 63ad babe c8a4 8abf
000001a0: f29b edbe 6ddf 49be 8be5 9d3f 10e9 32bd
000001b0: 5daf 17bf 885f 883e 6d54 363f b88c a1be
000001c0: 9ad9 a53e bf3a e8be 3158 263f e450 1b3e
000001d0: 350e a83e 9fad a0be 839b 7bbe 777e 4ebe
000001e0: 4621 f8be 0536 063e 6d09 9b3e a845 01bf
000001f0: 787c 5a3f bbef 003f b458 0fbf 8166 0cbf
00000200: 5f60 29be 2206 95be 8e01 453d aac1 883f
00000210: c04f fd3e 06fa 40be 773b d1bd 6955 15bd
00000220: acc3 cb3e 90da 82be 002f 0fbe d2e6 3a3d
00000230: dc3a 85bf 6992 e9bd 4314 893e 36e1 4c3e
00000240: 7256 b5bb 63cf 2d3e 58c3 983d 09cb c8be
00000250: be30 a53d 7c57 0e3e 4485 7c3e 1950 0e3f
00000260: 7cdd d1be 175f 843f 78ee 943e c573 f2be
00000270: 56af f43d d15f 383e 5bf8 a8be f3c5 2c3f
00000280: fe9a 223d 2b7e 1f3d b4b3 ac3e b62b fbbe
00000290: d8b0 5d3e 9fa9 ba3d a392 01bf aa69 d23e
000002a0: 7d89 fabe 22c7 38be edac c5be 1ce2 673f
000002b0: 1649 0f3d 2e68 6d3e a642 4a3d c9ac 15be
000002c0: a463 e43d 91d2 78be b072 96be ac50 14be
000002d0: 401d af3f 9b1a 06be 24b2 4a3f 4c93 79be
000002e0: f7bf 633e 757f 613e 2976 143d 5ef6 923e
000002f0: 60d3 02bf bece b1be bd7d c6be 6267 35be
00000300: c5e6 883e 14a9 96bd 57c4 98be 305e 643f
00000310: 9f81 053e 85b2 3ebe ba3a efbe 6977 96be
00000320: 2200 003f 91bf 3fbe 2347 65be 338a f23d
00000330: 0764 f6be 990c 8fbe 8bde fabc e73c 833e
00000340: 7043 793c ef4e 6d3e 5b16 02bf 3f8c 86be
00000350: e440 cc3d 9508 803e 6bf6 163e dd86 1d3f
00000360: 2577 c1be aea6 0a3f 2619 173e b1b9 af3e
00000370: 45f4 9b3e 6bb2 683e f21b 303d 519d c03e
00000380: 378d 2b3e e975 4dbd 36d0 f73e 3afe 933e
00000390: 8c87 713e cc80 9fbe 754a edbe a858 693f
000003a0: eeb7 77bd 190b 87be 24fe e93e 7d27 843f
000003b0: 2706 45be 6f8d a13e 73c2 3ebd d9ac 28be
000003c0: 4f81 3c3e 7702 0cbd c676 71be b112 163e
000003d0: 39eb 183f 4049 793e 7a70 763e f46b 50be
000003e0: 35e9 6b3e 36d5 563e 5eca e73d 94ac 4abe
000003f0: ff93 48bf 6fd5 dcbe 08dc 78be d5f0 723e

2.bias f4 [64]
-0.11720317 0.32979637 0.15806235 0.18393598 0.24104142 -0.3164958 -0.24583913 -0.26538217
-0.24522647 -0.23837446 0.21197648 -0.21269818 0.30332527 -0.16142093 0.29616404 -0.17798842
-0.2805191 0.28444776 -0.2156999 0.23533635 0.15330257 0.16530246 0.22479935 0.20502688
-0.22200869 -0.14236055 0.02707184 0.2929944 0.14621994 0.25363094 0.30113468 0.18063611
0.23359057 0.17911771 -0.1331745 0.20056476 0.23121485 -0.24766877 0.15380868 -0.17778113
0.20601578 0.115278214 -0.28116637 -0.15489928 0.2556576 -0.2065805 -0.23182334 0.17761111
-0.17099205 0.3460101 0.30036613 0.27514544 0.28291076 0.2085925 0.07956287 0.23491777
-0.26902235 -0.14290659 0.18575463 -0.24012305 -0.124985516 0.25436383 0.21500742 0.15897642
00000000: 3708 f0bd 12db a83e 19db 213e b759 3c3e
00000010: 90d3 763e bd0b a2be 41bd 7bbe 2ce0 87be
00000020: a61c 7bbe 6f18 74be 5d10 593e 8dcd 59be
00000030: 734d 9b3e 874b 25be d0a2 973e 9942 36be
00000040: 33a0 8fbe 23a3 913e 6fe0 5cbe 03fc 703e
00000050: 59fb 1c3e 0c45 293e cd31 663e 91f2 513e
00000060: 3f56 63be f7c6 11be c3c5 dd3c 5d03 963e
00000070: aeba 153e eadb 813e 532e 9a3e acf8 383e
00000080: 5e32 6f3e a26a 373e e55e 08be d960 4d3e
00000090: 96c3 6c3e e29c 7dbe 0680 1d3e 420c 36be
000000a0: cdf5 523e fc16 ec3d 0af5 8fbe eb9d 1ebe
000000b0: 8ee5 823e d789 53be 1963 6dbe b0df 353e
000000c0: 8a18 2fbe 3c28 b13e 97c9 993e dddf 8c3e
000000d0: aed9 903e 4699 553e dcf1 a23d 498e 703e
000000e0: 4cbd 89be 1b56 12be 7636 3e3e d1e2 75be
000000f0: 68f8 ffbd fa3b 823e e82a 5c3e b7ca 223e
