Homework_2/hw2_code/BipedalWalker-PPO_test/dir_save/we0_actor_240.pth (torch, 24543 bytes, 4 tensors)

0.weight f4 [64, 24]
0	0xbf4b150b	-0.79328984
1	0x3c087c6e	0.008330448
2	0xbe0b4063	-0.1359878
3	0xbefaba4a	-0.48970252
4	0xbd768e1a	-0.060194112
5	0xbef5a425	-0.47976795
6	0x3f714acf	0.94254774
7	0xbe2dc6f3	-0.16970424
8	0x3f364807	0.71203655
9	0xbec793ea	-0.38980037
10	0x3ef07acc	0.46968687
11	0x3f1da6c7	0.6158261
12	0x3ed53f9a	0.41650087
13	0xbee72ff1	-0.45153764
14	0x3e514c6d	0.2043931
15	0xbe1fc69b	-0.15603106
16	0x3e9b4a99	0.3033035
17	0x3dbb8f62	0.091582075
18	0x3deabab9	0.11461396
19	0xbcbc7c7a	-0.023008574
20	0x3def1c7f	0.11675357
21	0x3dedd350	0.1161257
22	0xbd681ed0	-0.05667001
23	0xbf0daa38	-0.5533786
24	0xbf5ca578	-0.86189985
25	0xbee53259	-0.44764975
26	0x3e79da4e	0.24399683
27	0xbfabb557	-1.3414716
28	0xbe92392f	-0.28559253
29	0xbf047cff	-0.5175323
30	0x3e3caf96	0.18426356
31	0x3e9785bd	0.29594222
32	0x3ec99810	0.39373827
33	0x3f0d29d0	0.55141926
34	0x3e22a31a	0.15882531
35	0x3f7bf06a	0.9841372
36	0x3f2c1947	0.6722607
37	0xbf6bc4be	-0.9209708
38	0x3a9b63e0	0.0011855327
39	0xbd98c32c	-0.07459101
40	0xbe87feed	-0.2656168
41	0x3deadaa4	0.11467484
42	0x3e20e7b5	0.15713389
43	0x3da02bc5	0.078208484
44	0xbe041399	-0.12898101
45	0x3dbbe4bf	0.09174489
46	0x3ef9134a	0.4864753
47	0xbe464740	-0.19363117
48	0xbe64329d	-0.22284932
49	0x3ec1018d	0.37696496
50	0x3e2a60b5	0.16638453
51	0xbf9fc0ac	-1.2480674
52	0x3e145ad5	0.14487775
53	0x3d294949	0.041329656
54	0xbf951f32	-1.1650145
55	0x3efdfec1	0.49608424
56	0x3efe88dc	0.4971379
57	0xbc84bec6	-0.01620425
58	0xbf2bb82a	-0.6707789
59	0x3f420528	0.7578912
60	0xbb4ed1a4	-0.003155806
61	0xbd3acfef	-0.045608457
62	0xbe6cc51e	-0.23122069
63	0xbed07c9c	-0.4072007
64	0x3c64273d	0.013925371
65	0xbeb5f809	-0.35540798
66	0xbded8181	-0.115969665
67	0xbedda226	-0.43287772
68	0x3eb76ae3	0.35823736
69	0xbdcecca8	-0.10097629
70	0x3eb0149e	0.3439073
71	0xbd59c6b9	-0.053168032
72	0x3ec44847	0.38336393
73	0xbf1a293b	-0.6021916
74	0xbf8a970a	-1.0827343
75	0x3f89e683	1.0773472
76	0xbed14807	-0.40875265
77	0x3e9691bb	0.2940806
78	0x3e6ef2b9	0.23334779
79	0xbda7687b	-0.08174225
80	0x3f10b9b9	0.5653339
81	0x3e9c0f5c	0.30480468
82	0xbcf0efe8	-0.029411271
83	0xbf2d8a35	-0.6778901
84	0xbe983621	-0.29728797
85	0x3ebd3744	0.36956227
86	0x3e2a4c1a	0.16630593
87	0x3ed0d356	0.40786237
88	0x3d7c7d5f	0.061643
89	0xbef802d0	-0.48439646
90	0xbdf80315	-0.12109963
91	0x3c76e94d	0.015070272
92	0xbe6d0fd6	-0.23150572
93	0x3e00a007	0.12561046
94	0xbe2d770c	-0.16939944
95	0xbc77ba8c	-0.01512016
96	0xbeef014d	-0.4668068
97	0x3f777357	0.9666037
98	0x3eb3f7f4	0.3515011
99	0x3c6066c7	0.013696379
100	0xbe307d65	-0.17235334
101	0x3f106c42	0.5641519
102	0x3d8de74f	0.06928884
103	0x3d74bd76	0.059750997
104	0x3f469b46	0.7758068
105	0x3f1fc571	0.62410647
106	0xbeeee61d	-0.46659938
107	0x3eeb4493	0.45950755
108	0x3f88b18a	1.0679181
109	0x3d9b79c5	0.07591585
110	0xbeb60d3e	-0.35556978
111	0xbe754810	-0.23953271
112	0x3b895a6d	0.004191688
113	0xbe169073	-0.1470354
114	0xbeb01b19	-0.34395674
115	0xbebfd40e	-0.37466472
116	0xbef83652	-0.48478943
117	0xbebfd6f0	-0.37468672
118	0x3eb69caa	0.356664
119	0xbcbd7e1c	-0.023131423
120	0x3d37bdff	0.04485893
121	0xbf398ab7	-0.7247729
122	0x3fab2433	1.3370422
123	0xbefc5a53	-0.49287662
124	0x3f15d606	0.585297
125	0xbee12ae8	-0.43978047
126	0xbf4b1238	-0.79324675
127	0x3ea5d9f8	0.3239286
128	0xbeb72932	-0.35773617
129	0xbf2a0d2c	-0.6642635
130	0x3ea0c70e	0.31401867
131	0x3e6cc71f	0.23122834
132	0x3ea1b0f6	0.31580323
133	0x3f1856af	0.5950727
134	0xbeafb142	-0.34314924
135	0xbe6551c8	-0.22394478
136	0xbe5bb786	-0.21456727
137	0x3d8e29d9	0.069415756
138	0xbe0c0d06	-0.13676843
139	0xbee480cf	-0.44629523
140	0x3e80bfee	0.2514643
141	0xbe2d44d8	-0.16920793
142	0x3df41878	0.119187295
143	0x3d8e1201	0.06937028
144	0x3b1c2e5e	0.0023831348
145	0xbf8886ed	-1.0666176
146	0xbec50b4a	-0.38485175
147	0x3ec5c9cd	0.38630524
148	0x3da37796	0.079817936
149	0xbf6d1a2c	-0.9261806
150	0xbe963bd5	-0.29342523
151	0x3e25b84b	0.16183583
152	0xbeb2a154	-0.3488871
153	0x3e2ee686	0.17080125
154	0xbe89ca50	-0.26912165
155	0x3ee14927	0.44001123
156	0xbe5fc38a	-0.21851936
157	0xbecb3232	-0.39686733
158	0x3e4bb819	0.19894446
159	0xbefe9e51	-0.4973016
160	0xbdfdd7e7	-0.12394696
161	0xbd2a54be	-0.041584723
162	0xbc3c4a66	-0.011492347
163	0xbe32c315	-0.1745723
164	0xbebb9153	-0.3663431
165	0xbe0d30f7	-0.1378821
166	0xbe5c8153	-0.21533708
167	0x3f3dd492	0.7415248
168	0xbd8f0c63	-0.069847845
169	0x3f081fb5	0.5317338
170	0x3e988e3c	0.29796016
171	0xbf7b5347	-0.98173946
172	0x3e4353fa	0.19075003
173	0x3a859c4e	0.0010193677
174	0x3ef5b4e7	0.4798958
175	0xbef45732	-0.47722775
176	0xbd567786	-0.05236008
177	0xbdf3761c	-0.11887762
178	0xbeb3ad5a	-0.35093194
179	0x3d92dc0c	0.07170877
180	0x3f9715c7	1.1803521
181	0x3e333ee9	0.17504467
182	0xbedcfe62	-0.4316283
183	0xbdb7a75f	-0.089674704
184	0xbeb009bb	-0.34382424
185	0xbd5cf04e	-0.05394011
186	0xbc8b4224	-0.016999312
187	0xbcda8e45	-0.026679168
188	0xbe2a54f1	-0.16633965
189	0xbeee8466	-0.46585387
190	0xbea44059	-0.32080343
191	0xbe7addb2	-0.24498633
192	0xbf5ba2bc	-0.8579519
193	0xbff924b2	-1.9464324
194	0x3e7b3407	0.24531566
195	0xc01e68a8	-2.4751377
196	0x3ea2f60d	0.31828347
197	0x3b8aec10	0.0042395666
198	0x3eb61da8	0.355695
199	0xbe67aea0	-0.22625208
200	0xbdc62fc6	-0.09677081
201	0xbe927a0c	-0.2860874
202	0x3d8ce984	0.06880477
203	0xbf821733	-1.016333
204	0x3ec201e4	0.37892067
205	0xbe37e26f	-0.17957471
206	0x3de409a1	0.11134649
207	0x3c93b12e	0.018028822
208	0xbd7ed5df	-0.062215682
209	0xbef70037	-0.4824235
210	0xbe67d0d2	-0.22638252
211	0x3d873af2	0.0660304
212	0xbeace01a	-0.33764726
213	0xbedbb0ef	-0.42908427
214	0xbe650e62	-0.22368768
215	0x3d77124e	0.06032019
216	0xbf1c1c28	-0.60980463
217	0xbf6b6d3f	-0.9196357
218	0x3ec08191	0.3759885
219	0x3efdc4fc	0.4956435
220	0x3ea93cb1	0.33054116
221	0xbec13ec8	-0.3774321
222	0xbf3695b7	-0.71322197
223	0x3f0a6e8b	0.54074925
224	0x3ec97b45	0.3935186
225	0xbf484821	-0.7823506
226	0xbea30c98	-0.31845546
227	0x3fbcad05	1.4740301
228	0x3f11b0cf	0.56910414
229	0xbe735ae7	-0.23765145
230	0xbe75a2f3	-0.23987941
231	0xbe178dc0	-0.14800167
232	0xbe2d74cb	-0.16939084
233	0xbdd7b01a	-0.105316356
234	0xbeed666e	-0.4636721
235	0x3e28025a	0.16407147
236	0xbe7ab98f	-0.24484847
237	0xbe95e12e	-0.2927336
238	0xbe1af8ba	-0.15133944
239	0xbe12299d	-0.14273687
240	0xbbf3934b	-0.00743333
241	0x3fcf9ff6	1.6220691
242	0x3f0f55a4	0.5599005
243	0xbefae2a4	-0.49001038
244	0x3e0104f2	0.12599543
245	0x3d14b22b	0.036302727
246	0x3ed0775e	0.4071607
247	0x3e4b0b07	0.19828425
248	0xbc8e964c	-0.017405652
249	0x3ddb17be	0.10697888
250	0xbe94309f	-0.28943345
251	0x3f47dd9c	0.78072524
252	0xbe9cc004	-0.30615246
253	0xbe19f744	-0.1503573
254	0xbe88a2a4	-0.26686585
255	0xbea39fbc	-0.31957805

0.bias f4 [64]
0	0xbd5fc5dd	-0.054632057
1	0x3d3ee44f	0.04660445
2	0xbc940d79	-0.01807283
3	0x3c8b3253	0.01699177
4	0xbd3060f7	-0.043061223
5	0x3d2dc8c3	0.04242779
6	0x3e2c9abb	0.168559
7	0xbe156627	-0.1458975
8	0x3e42ae1f	0.19011734
9	0xbdd20202	-0.10254289
10	0xbe0893b6	-0.13337597
11	0xbdcaaf60	-0.098967314
12	0x3d0eaf38	0.03483507
13	0x3e247eaf	0.16063951
14	0x3d3d25e9	0.046178732
15	0x3dacda1f	0.08440041
16	0xbe4a9bcc	-0.19785994
17	0xbd387042	-0.045028932
18	0x3e7338a9	0.23752083
19	0x3e114844	0.14187723
20	0xbe331dc6	-0.17491826
21	0xbd09d1ad	-0.033647228
22	0xbe5196bd	-0.20467658
23	0xbcf08e78	-0.02936481
24	0xbe7e87ff	-0.24856566
25	0x3df0fc45	0.117668666
26	0xbe53ab5f	-0.20670842
27	0xbccb86af	-0.024844496
28	0xbe43c786	-0.19119081
29	0x3cf80f3f	0.030280707
30	0x3de37be7	0.11107617
31	0xbe0c54cd	-0.13704224
32	0x3d806a86	0.06270318
33	0x3db66bda	0.0890729
34	0x3b4e19c4	0.0031448463
35	0x3d69266a	0.0569214
36	0x3c872228	0.01649578
37	0xbd2f3d03	-0.042782795
38	0xbe7f8c85	-0.24955948
39	0x3dc1623b	0.09442564
40	0xbe2d233a	-0.16907969
41	0x3db20f54	0.0869433
42	0x3e843859	0.2582424
43	0x3ddc3dba	0.10753961
44	0xbdbcad47	-0.092127375
45	0x3e8ece7b	0.27891907
46	0xbd9577d9	-0.0729825
47	0x3e5c54fc	0.21516794
48	0xbdcdd283	-0.100499175
49	0x3e0dd72b	0.13851611
50	0x3d31fb79	0.043452714
51	0xbdec4f78	-0.11538595
52	0x3d1ccdf4	0.03828235
53	0x3d332f1f	0.04374611
54	0xbe1d4203	-0.15357213
55	0x3dfae737	0.12251132
56	0x3d572e3d	0.05253433
57	0x3e8deeb4	0.2772118
58	0x3ecdc009	0.40185574
59	0x3df4f461	0.11960674
60	0x3e652ba7	0.22379933
61	0x3e7d8a98	0.247599
62	0x3e12835e	0.14307925
63	0x3dd1f40e	0.10251628

2.weight f4 [64, 64]
0	0x3f0fd320	0.56181526
1	0x3ea7aceb	0.32749113
2	0x3d85ea55	0.06538836
3	0xbe09de7d	-0.13463779
4	0xbe8f7e2b	-0.28025946
5	0x3f5886ec	0.84580874
6	0x3eca0cc2	0.39462858
7	0x3de80e20	0.11330819
8	0x3ec98de5	0.3936607
9	0x3e9b59cd	0.3034195
10	0xbda64acd	-0.08119736
11	0x3e02b2cf	0.12763523
12	0xbec644a3	-0.3872424
13	0x3c9500e0	0.018188894
14	0xbe467b72	-0.19383028
15	0xbdd101e1	-0.102054365
16	0x3e5160ac	0.20447034
17	0x3fa3c9a8	1.2795916
18	0xbde137a4	-0.10996941
19	0xbe023d85	-0.1271878
20	0xbe86fa6b	-0.2636293
21	0x3d6371a9	0.055528317
22	0x3f3b8ce1	0.7326184
23	0xbdaae109	-0.08343703
24	0x3e26a67e	0.16274449
25	0xba304392	-0.0006723936
26	0xbe886223	-0.26637372
27	0x3ef17efa	0.47167188
28	0xbf20b72d	-0.62779504
29	0xbefa5571	-0.48893312
30	0x3ef67a5f	0.48140237
31	0x3e968afd	0.29402915
32	0xbf394c1d	-0.72381765
33	0x3da9fbc2	0.08299972
34	0xbd8ab158	-0.06772107
35	0xbe3f600b	-0.18688981
36	0xbf739014	-0.9514172
37	0xbdae01b6	-0.0849642
38	0xbd6ca6f2	-0.0577764
39	0x3d390656	0.045172058
40	0xbe2656d0	-0.16244054
41	0xbe1940a3	-0.14966063
42	0x3eaa6111	0.3327718
43	0x3f296024	0.66162324
44	0x3e867fae	0.26269287
45	0x3ea8e189	0.3298457
46	0xbc5e2ca7	-0.013560451
47	0xbdbe45b1	-0.09290636
48	0xbe95cbe4	-0.2925712
49	0xbf2103e4	-0.6289656
50	0xbe99919c	-0.29993904
51	0xbed15ece	-0.40892643
52	0x3e869d96	0.26292104
53	0x3e5ef2f0	0.21772361
54	0xbe432e64	-0.19060665
55	0xbed57f8f	-0.41698882
56	0x3bf46dd8	0.0074593835
57	0xbeea53e9	-0.45767143
58	0xbf0342c4	-0.5127375
59	0xbdaf3005	-0.08554081
60	0xbeaf8365	-0.34279934
61	0x3de1e065	0.11029128
62	0x3c02430d	0.007950556
63	0x3b2abfa8	0.0026054177
64	0x3e921833	0.28534088
65	0x3ea60fb0	0.32433844
66	0x3f01150d	0.50422746
67	0x3e4efb2d	0.20213003
68	0x3e6bb663	0.23018794
69	0xbc4342e5	-0.011917804
70	0xbeadd979	-0.3395498
71	0x3f3ed059	0.74536663
72	0x3e988517	0.2978904
73	0xbdd7f3be	-0.10544537
74	0x3e7369bd	0.23770805
75	0xbd51cfa3	-0.05122341
76	0xbe07e5ad	-0.13271208
77	0xbdd5b735	-0.104353346
78	0x3e0964c9	0.13417353
79	0x3d3b87d5	0.045783836
80	0xbe3a646f	-0.18202375
81	0x3ef8366a	0.48479015
82	0xbf2f2161	-0.6841031
83	0x3e97182a	0.29510623
84	0xbc08183f	-0.008306562
85	0xbe98d5cd	-0.29850617
86	0x3f735c80	0.9506302
87	0x3eae71bc	0.34071147
88	0x3dbf443d	0.09339187
89	0x3d0995d2	0.033590145
90	0xbc3a917c	-0.011387225
91	0xbe3b2f29	-0.18279709
92	0xbf1d381e	-0.61413753
93	0xbd42bcc9	-0.04754332
94	0x3eda8b34	0.4268433
95	0x3e117524	0.14204842
96	0xbeb7f09b	-0.35925755
97	0xbdd13072	-0.10214318
98	0xbd2afebf	-0.04174685
99	0xbf87f2e2	-1.0620997
100	0xbc0565b0	-0.00814192
101	0x3eb5aa1e	0.35481352
102	0x3d7f9180	0.06239462
103	0xbe7e5442	-0.2483683
104	0x3e872a1a	0.26399308
105	0xbdb6de1e	-0.08929084
106	0x3d8db2c9	0.06918866
107	0x3f05bc96	0.52240884
108	0xbef3f3f1	-0.4764705
109	0x3df62423	0.12018611
110	0x3cc1645d	0.023607427
111	0x3e33e454	0.17567569
112	0xbe8fb129	-0.2806485
113	0xbeb6ba95	-0.35689226
114	0x3e4073f0	0.18794227
115	0xbe0c7a05	-0.13718422
116	0x3e76720c	0.24066943
117	0xbded45f2	-0.11585607
118	0x3f0474a2	0.5174047
119	0x3e0fca1c	0.14041942
120	0xbdae9fa2	-0.08526541
121	0xbea12f63	-0.31481466
122	0xbfb75a38	-1.4324408
123	0xbe288b58	-0.16459405
124	0x3dd2bb3b	0.10289618
125	0xbe127059	-0.1430067
126	0xbeba4d8a	-0.36387283
127	0xbe02ce6e	-0.12774059
128	0x3dbcf698	0.092267215
129	0x3ea72099	0.32642058
130	0x3ecc8792	0.39947182
131	0xbed73967	-0.42035982
132	0x3d918b98	0.071067035
133	0x3efef331	0.49794915
134	0xbe628a91	-0.22123171
135	0x3e5d1d89	0.21593298
136	0x3f314fd5	0.6926244
137	0x3edecac5	0.43514076
138	0x3c8898e3	0.016674465
139	0xbe95b1dc	-0.29237258
140	0x3e8a1728	0.26970792
141	0x3eee5fc6	0.46557444
142	0x3e57f077	0.21087824
143	0x3ec680c7	0.38770124
144	0xbf07560b	-0.52865666
145	0x3f8ae9b2	1.0852568
146	0x3e65da22	0.22446492
147	0xbeb7c7cc	-0.3589462
148	0xbedd7d0c	-0.43259466
149	0xbe8e45d1	-0.2778764
150	0xbe6857ca	-0.22689739
151	0xbddd58c4	-0.10807946
152	0x3c98cc0b	0.018651983
153	0x3ea83aa4	0.3285724
154	0x3f04067d	0.515724
155	0xbe415df6	-0.188835
156	0x3eeb6000	0.4597168
157	0x3d18af0b	0.03727631
158	0x3dd09816	0.10185258
159	0x3d7d845b	0.061893802
160	0x3e869f6e	0.2629351
161	0x3e0d29ac	0.13785428
162	0xbf5ff006	-0.8747562
163	0x3f226c84	0.6344683
164	0xbf4fd4da	-0.8118416
165	0xbf2c3586	-0.6726917
166	0x3ea78a57	0.32722732
167	0x3d4f6e8e	0.050642543
168	0xbe78183f	-0.24227999
169	0xbca4fc3e	-0.02013981
170	0xbe11b1df	-0.14228009
171	0xbe8ae3f1	-0.2712703
172	0x3ea3a908	0.31964898
173	0x3f122f2a	0.57103217
174	0x3d50faef	0.05102056
175	0xbe6eba61	-0.23313285
176	0xba0b3c79	-0.00053114403
177	0xbd6b0d1d	-0.057385553
178	0x3e26b260	0.16278982
179	0xbdc85223	-0.09781291
180	0x3e65dd1b	0.22447626
181	0xbdb6299d	-0.08894656
182	0xbe4146ac	-0.18874615
183	0xbc7f6086	-0.015586978
184	0xbee96c63	-0.45590505
185	0x3ea85af5	0.32881895
186	0xbe406be7	-0.18791161
187	0x3d29cecc	0.041456982
188	0xbda52cad	-0.08065162
189	0xbeb0fd1c	-0.34568107
190	0x3f207320	0.62675667
191	0x3e5f1876	0.21786675
192	0x3ea816f1	0.32830003
193	0xbe9edc43	-0.3102742
194	0xbf3888b7	-0.7208361
195	0xbe848606	-0.25883502
196	0x3e71be95	0.23607858
197	0xbebb57b1	-0.3659034
198	0xbe7e5b98	-0.24839628
199	0xbe30a76e	-0.1725137
200	0x3f07f179	0.53102833
201	0xbf2771e7	-0.65408176
202	0xbe04556d	-0.12923212
203	0x3e97dade	0.2965917
204	0xbe97e372	-0.29665715
205	0xbe686921	-0.22696353
206	0xbeb07d09	-0.34470394
207	0xbd7f5cf4	-0.062344506
208	0x3ec0deaf	0.37669894
209	0xbebaced2	-0.36485916
210	0xbb1b26cd	-0.002367425
211	0x3dd580c7	0.10424953
212	0x3cef8641	0.029238822
213	0x3f0be38d	0.5464409
214	0xbd94654c	-0.07245883
215	0x3e1eb3d0	0.1549828
216	0xbf0fae6a	-0.5612551
217	0x3ed40eeb	0.41417632
218	0xbe2c6b95	-0.16837914
219	0x3e4e3e2c	0.20140904
220	0xbe51cd8e	-0.20488569
221	0xbd90d399	-0.07071609
222	0xbf0a6ae6	-0.54069364
223	0x3e1ac8e2	0.15115693
224	0xbceeded4	-0.029158987
225	0xbe5cf1af	-0.2157657
226	0x3e418713	0.18899183
227	0x3e81a88d	0.25323907
228	0x3d5f9123	0.054581773
229	0xbe1e26d0	-0.15444493
230	0xbeb25407	-0.34829733
231	0xbce4772d	-0.027888859
232	0xbe322d6e	-0.17400143
233	0xbe3d2560	-0.18471289
234	0xbcaf3972	-0.021389697
235	0xbdae2220	-0.085026026
236	0xbe8045cb	-0.25053248
237	0xbe9e9511	-0.30973104
238	0x3d5c9bba	0.05385945
239	0xbe79df36	-0.24401554
240	0xbed90db0	-0.42393255
241	0x3f34234c	0.7036636
242	0x3e4bdb73	0.19907932
243	0x3e86de88	0.26341653
244	0xbe341f4b	-0.17590062
245	0xbf03f445	-0.515446
246	0xbf01291e	-0.50453365
247	0x3e43bbc7	0.191146
248	0xbd235a2b	-0.039880913
249	0xbf0c5776	-0.54820955
250	0x3ec4d40d	0.38443032
251	0x3e56f5b3	0.20992164
252	0xbd67b53b	-0.05656932
253	0x3d66c9cc	0.056344792
254	0x3f092b20	0.5358143
255	0xbe230909	-0.15921415

2.bias f4 [64]
0	0xbee770cb	-0.45203242
1	0xbeb51f38	-0.3537538
2	0x3da0c96d	0.07850919
3	0xbd7fe216	-0.06247147
4	0xbe0a0470	-0.13478255
5	0x3ef2230a	0.47292358
6	0x3dc73a4b	0.097279154
7	0xbc829b53	-0.015943205
8	0xbe7537bd	-0.23947044
9	0xbf07525a	-0.52860034
10	0x3ed60773	0.41802558
11	0xbd8ad5a1	-0.06779028
12	0xbd29828e	-0.041384272
13	0xbe626cf0	-0.22111869
14	0x3e2d4625	0.1692129
15	0x3d9ddc1b	0.077079974
16	0xbe873e1c	-0.26414573
17	0xbe9ba014	-0.30395567
18	0x3da04e6f	0.0782746
19	0x3d1e9f3d	0.03872608
20	0x3db6bf79	0.08923239
21	0x3c4c5e16	0.012473604
22	0xbcb5503f	-0.02213299
23	0x3de821c4	0.11334565
24	0x3d78764a	0.060659684
25	0xbdd1ffe4	-0.102538854
26	0xbdb00e5c	-0.08596489
27	0xbdd0b17a	-0.10190101
28	0x3e82a7b2	0.25518566
29	0x3e19b9d9	0.15012302
30	0xbcea520d	-0.028603578
31	0x3e31fdc2	0.17381957
32	0xbd6cb371	-0.057788316
33	0x3e2fc23b	0.17163937
34	0xbea76644	-0.3269521
35	0x3e73b751	0.23800398
36	0xbe14dae8	-0.14536631
37	0xbe7f2af7	-0.24918734
38	0xbe8a3964	-0.2699691
39	0xbe519a93	-0.20469122
40	0x3d0c228d	0.034212638
41	0xbeb67025	-0.35632434
42	0xbe60f736	-0.21969303
43	0xbe341f14	-0.1758998
44	0x3e0a7332	0.13520506
45	0x3db97c31	0.09056891
46	0x3d59f1b4	0.05320902
47	0x3ec3cb94	0.38241255
48	0x3e18de4d	0.14928551
49	0xbd04d92e	-0.03243368
50	0xbe0b2af4	-0.13590604
51	0x3cdf15de	0.027232107
52	0x3e8e5460	0.27798748
53	0x3e2756a1	0.1634164
54	0x3dbb98bd	0.09159992
55	0x3e1b4337	0.15162359
56	0x3c0a8806	0.008455282
57	0xbd7fa6a1	-0.06241477
58	0xbe77a737	-0.24184881
59	0xbd50340d	-0.05083089
60	0x3de929ed	0.1138495
61	0x3e1fa5c5	0.1559058
62	0x3e938042	0.2880879
63	0x3de54342	0.11194469
