Homework_2/hw2_code/BipedalWalker-PPO_test/dir_save/we0_critic_linear_150.pth (torch, 1255 bytes, 1 tensors)

weight f4 [1, 64]
1.9481052 -2.3535948 -2.045822 -2.20554 -2.401305 2.2117512 1.8982602 2.4429977
1.9288296 1.8366501 -1.721072 2.4911535 -2.094329 1.972635 -1.9965615 1.6984974
1.9297581 -1.7139908 2.3341951 -2.501681 -2.0489185 -1.9475266 -1.9954758 -1.7710562
1.9870818 2.228746 -1.9355665 -2.3439143 -1.7395921 -1.9108235 -2.4059856 -2.172176
-2.18572 -1.7866287 2.0384352 -1.7286181 -2.0668845 1.9048522 -2.225129 1.9021242
-1.9468606 -1.8695217 1.9639446 2.6174707 -1.9526447 1.9365451 2.5166285 -2.2603278
1.7615081 -1.990709 -1.8161471 -2.2006743 -1.7535003 -2.097647 -1.8595476 -2.1481807
1.824748 1.8505363 -2.5088677 2.1521683 1.896581 -2.0177495 -2.4597158 -1.9615495
00000000: 835b f93f 4ca1 16c0 bfee 02c0 9127 0dc0
00000010: fbae 19c0 558d 0d40 31fa f23f 135a 1c40
00000020: e3e3 f63f 5a17 eb3f 164c dcbf 0f6f 1f40
00000030: 7d09 06c0 4e7f fc3f 548f ffbf 5d68 d93f
00000040: 5002 f73f 0d64 dbbf 7463 1540 8b1b 20c0
00000050: 7b21 03c0 8d48 f9bf c06b ffbf f8b1 e2bf
00000060: b258 fe3f c6a3 0e40 a5c0 f7bf b102 16c0
00000070: f4aa debf dd95 f4bf abfb 19c0 ee04 0bc0
00000080: d6e2 0bc0 40b0 e4bf b975 0240 5c43 ddbf
00000090: d647 04c0 32d2 f33f 8368 0ec0 ce78 f33f
000000a0: ba32 f9bf 7d4c efbf 8962 fb3f a484 2740
000000b0: 43f0 f9bf b6e0 f73f 7110 2140 36a9 10c0
000000c0: 1979 e13f 8dcf febf 8277 e8bf d9d7 0cc0
000000d0: b372 e0bf d93f 06c0 a805 eebf cb7b 09c0
000000e0: 5891 e93f 60de ec3f 4a91 20c0 20bd 0940
000000f0: 2bc3 f23f cf22 01c0 fc6b 1dc0 0e14 fbbf
