Homework_2/hw2_code/BipedalWalker-PPO_test/dir_save/we0_critic_240.pth (torch, 24543 bytes, 4 tensors)

0.weight f4 [64, 24]
00000000: f1af b6bf 8d30 87c0 48e5 093e 5fac 04bf
00000010: c5f1 13bf 6056 7fbd 8a69 41bd 6bee 09be
00000020: 8987 dfbd 8de4 e0bf 7593 003e 7303 2b3e
00000030: 714e 97bd c544 0d3e 54d2 443e b779 f6bd
00000040: 1194 223e bf82 95be d411 44bb 0b52 0cbe
00000050: 81f4 a83e bf6e 633e 449d ff3e 399f acbe
00000060: 6924 4fc0 4d86 32c0 b38d f63f 0f1c 02bc
00000070: 946a 33bf bfb5 e2bd e70d dabf 2cd9 03bd
00000080: ebc3 6f3e 924d 983e c26a 59be f727 99bd
00000090: 37ad 15bd 016a adbd 3aa7 e63d 7573 bd3d
000000a0: 1781 9bbd 68f4 4cbf ef70 18bf 3a1a 23bf
000000b0: 1243 4dbf 34e6 cdbe 689d 2f3e 2cbb 923e
000000c0: b3fb bebe ec82 0540 36f3 823f 06cf d23f
000000d0: 2fca c03e a85f e23d 92de b53c 0625 333e
000000e0: b7d5 993d 8c2c 2abf 570e b8bb 0752 a93f
000000f0: 4c4a afbd 2ac4 87be d933 2dbf 13bf 57be
00000100: c2cf aebe afff 46bd 08bb 41be 79be a23e
00000110: ab3e 483e 78f7 3a3f 17cc 083f d48a 21bf
00000120: 0d24 1d40 c673 2f40 6021 18c0 080c b240
00000130: f87e ab3f 46d3 013e 6b76 1c3e 7796 0fbd
00000140: 310c debc b7fb 7c3f 0aa3 22bd d132 f13e
00000150: c274 a0bc 2122 ddbc d3d2 bf3e 9590 e03c
00000160: 9a62 1bbd e373 e73d b08d 243e 0e58 473e
00000170: f2c2 113f bebf a33e 2f5d 0ebf 1245 a8bf
00000180: 38c5 5e3f 40a8 88bf 25b1 543f d6e5 5ac0
00000190: 13aa ed3e 207d 893c 08da d23e d200 47bd
000001a0: 6f4a ae3d 6e4c 6bc0 3c36 2e3d 0a45 4dbf
000001b0: ff04 87bd 1e10 a33e 0689 df3a 8a4c 99be
000001c0: 22aa 12bf cf78 0ebf 9aab ccbe 0974 27bf
000001d0: f8f4 38bf a70d 93be cb94 c6bd 8992 f33d
000001e0: ecc3 09bf e95a 2f3f e20d 923e 0e1f 583f
000001f0: 70bc a03e 121e 483f 7fd3 74be df18 a0bf
00000200: d78a 56bf 5018 b0bd 108e 9abd 5fdb 113f
00000210: 931d d63c 78d7 7ebe 64db 69be dac0 12bf
00000220: a726 4cbe a814 933c 42f2 05bf 05ef d2be
00000230: b3f8 283e 0d2b 7ebd df84 b7be 29bf 41be
00000240: e393 2b3f 729a f1bf 86de 8bbe c9d2 953b
00000250: 93b2 8a3d 1d73 883c 978b 183e 57cf 42bc
00000260: c0fc d2bc 2ef4 7e3f 7dad 58be 2742 823f
00000270: 024d f4bd f9cc b1be 7a8f 953f b3e5 093f
00000280: 8e88 283f cbce 0a3e 00be 033f 8f90 f43d
00000290: daaa 73be 2de0 4bbf f228 14bf c26d 27be
000002a0: 3f83 b23f c465 72be ebb7 543f 5f31 e83f
000002b0: 986a a93f 862e 1ebe f7e1 943e 559e 613c
000002c0: 39f7 69bd 502a efbf c208 8a3e ea7b 37bf
000002d0: 6af1 e23b 69bb c73e 9f25 babe e95e 17bf
000002e0: 39f6 f5bd 926b d9be fe31 84be c902 05be
000002f0: b78e 9b3d 377d e7be 98a3 47be e4fc 163f
00000300: c4e7 52be c62a 1840 6ec2 a5bf 1322 d9bf
00000310: e50e 943f aa87 b83d 1cc7 de3e e8ac b13c
00000320: ae95 99bd f2a2 06be a85a 1e3e ee8c 233f
00000330: 9919 96bd 4b89 debe 3533 c43c 1e23 8d3e
00000340: 45d8 293e c351 e53d 448d 123f df70 7a3c
00000350: a87d 333e d24e e4bd 2c68 99be 5f36 f83d
00000360: 982e a9bf 6d0f e13f b650 04be 50a7 e73e
00000370: 80d9 92be 2b38 4b3e a5bb 87be a0f1 813e
00000380: 84b8 b2bd fa6c 533f a4b5 16be e7fb 0440
00000390: 2ed1 bdbd b229 a7be 6ae4 10bf 2941 dcbd
000003a0: 060f 1bbe ff17 7b3d f67b 263e 164d c73d
000003b0: 16d5 8c3e c311 bc3e ffef 06be 9b15 77be
000003c0: d2b7 203e 03a2 7abf fdfc 5f3f 7c38 a23f
000003d0: 24af ac3d a173 04bf 1526 0dbf 2a39 b2bc
000003e0: 7cf9 523e fe41 a7bf 0ffa 6a3e e28b 63bf
000003f0: f944 323e 0625 4bbe e3e6 80bf 44aa 37bf
-1.4272443 -4.2246766 0.1346637 -0.5182552 -0.57790786 -0.062338233 -0.04721979 -0.13469855
-0.10914523 -1.7569748 0.1255625 0.16700535 -0.073880084 0.13795765 0.19220859 -0.12034934
0.15876795 -0.29201314 -0.0029917853 -0.13703172 0.32999042 0.22210215 0.49924672 -0.33715227
-3.2365973 -2.789447 1.9261993 -0.00794126 -0.700845 -0.110698216 -1.7035493 -0.032189533
0.2341458 0.2974668 -0.21232131 -0.07478326 -0.036542144 -0.08467484 0.11262365 0.09250537
-0.07592981 -0.80060434 -0.59547323 -0.63711894 -0.80180466 -0.40214694 0.1714989 0.28658426
-0.37301406 2.0861158 1.0230472 1.6469429 0.37654254 0.11053401 0.022200856 0.17494592
0.07511466 -0.66474223 -0.005616944 1.3228158 -0.08559093 -0.2651685 -0.6765724 -0.21068983
-0.34142882 -0.048583683 -0.18919003 0.31785944 0.19555156 0.7303386 0.53436416 -0.6310246
2.4553254 2.7414412 -2.377037 5.5639687 1.3398123 0.1267825 0.15279548 -0.035055604
-0.027105423 0.98821586 -0.039706267 0.47109082 -0.019586924 -0.026993813 0.37465534 0.027412692
-0.03793583 0.113014005 0.16069674 0.19467184 0.5693809 0.31982225 -0.55610937 -1.3146079
0.8701968 -1.0676346 0.830828 -3.420278 0.4641882 0.016783297 0.4118197 -0.048584767
0.08510291 -3.67654 0.04253219 -0.8018347 -0.0659275 0.31848234 0.0017054386 -0.29941207
-0.5729085 -0.5565309 -0.39974672 -0.6541143 -0.7224879 -0.28721353 -0.09696349 0.11893184
-0.5381458 0.6849809 0.28526217 0.84422386 0.31393766 0.78170884 -0.23908804 -1.250759
-0.838056 -0.08598387 -0.075466275 0.5697536 0.026137149 -0.24886882 -0.22837597 -0.5732552
-0.1993662 0.017954186 -0.5232278 -0.41197982 0.16501121 -0.062052775 -0.3584356 -0.18920578
0.6702253 -1.8875258 -0.2731821 0.0045722467 0.067723416 0.016656453 0.14897 -0.011890254
-0.025755286 0.9959134 -0.2115993 1.0176438 -0.119287506 -0.34726694 1.168441 0.5386612
0.65833366 0.13555448 0.5146179 0.11941635 -0.23795643 -0.7963894 -0.5787498 -0.16350463
1.3946303 -0.23671633 0.83093137 1.8140067 1.3235655 -0.15447435 0.29078647 0.013770659
-0.057120536 -1.8684788 0.26959807 -0.7167345 0.0069257515 0.3901017 -0.36356828 -0.59129196
-0.12009854 -0.42464882 -0.2581939 -0.12989344 0.0759558 -0.4521272 -0.19496 0.5897963
-0.20596224 2.3776107 -1.294996 -1.6963524 1.1567045 0.09010251 0.43511283 0.021688893
-0.07499252 -0.13148096 0.1546427 0.63886917 -0.07329101 -0.4346412 0.023950199 0.27565855
0.16586407 0.111972354 0.57246804 0.0152857 0.17528403 -0.11147846 -0.2996229 0.121197455
-1.3217344 1.7582833 -0.12921414 0.45244837 -0.28681564 0.19845645 -0.2651035 0.25379658
-0.087266 0.8258816 -0.14717728 2.077875 -0.092684135 -0.32648998 -0.5659853 -0.10754616
-0.1514245 0.06130218 0.16258225 0.097315 0.27506322 0.367323 -0.13177489 -0.24129336
0.15695122 -0.9790346 0.87495404 1.2673488 0.08431843 -0.51738936 -0.55136234 -0.021755774
0.20602983 -1.3067014 0.22946952 -0.8888532 0.17409123 -0.19838342 -1.0070461 -0.7174418

0.bias f4 [64]
00000000: 0a06 193d 9e3d a03e df16 c4be 60fb 55bf
00000010: 43a3 2b3d 4041 19be cec6 fe3e 154f 023f
00000020: 22b2 c83e a9a8 8ebe a984 9ebe a763 bbbe
00000030: abd7 adbe a5b9 1bbf 1143 0fbf 512d 0d3f
00000040: e1cc 04bd d352 cf3e 5aff 46be 8cce 4abe
00000050: 8988 c5be 70c1 6b3f 302a 0bbf eef0 41bf
00000060: f8c4 8abe 452a 5bbf 8879 07bf 96d9 39bd
00000070: 8808 053f 0032 efbd 17c0 84be 5717 6abe
00000080: 9c25 92bc 0f99 38bd be1d 8ebe 0a5c 38bf
00000090: cfac 00bf b4a8 bf3e 8060 dabd fe6a e4be
000000a0: f397 783d f0c2 4c3e 3e2c 0c3e 5847 073f
000000b0: b199 c63d dbe2 b13e 7763 38be 087c a13e
000000c0: 549c 2e3f dd21 6d3d 03b1 ffbd c464 b7bd
000000d0: 9489 5c3f 2707 89bd a737 773f c5f0 72be
000000e0: c574 c63d 3f5e ae3e 661c bf3e 5a9d e3bd
000000f0: 2fd2 32bf e4ec 04bd 1ff0 ce3e b292 d9bd
0.037359275 0.3129701 -0.382987 -0.8358669 0.041903745 -0.14966297 0.4976105 0.5090192
0.39198405 -0.27863052 -0.30960587 -0.36599466 -0.33953604 -0.60830146 -0.5596171 0.5514727
-0.03242195 0.40492877 -0.19433346 -0.19805354 -0.3858073 0.9209204 -0.5436125 -0.75758255
-0.271034 -0.85611373 -0.52919817 -0.04537352 0.5196614 -0.116794586 -0.25927803 -0.22860466
-0.0178402 -0.045067843 -0.27757066 -0.7201544 -0.50263685 0.37433398 -0.10662937 -0.4461288
0.060691785 0.19996238 0.13688752 0.52843237 0.09697283 0.3474339 -0.18006693 0.3153994
0.6820729 0.057893623 -0.12484934 -0.089547664 0.8614743 -0.06690817 0.96569294 -0.23724659
0.09690241 0.3405628 0.37326354 -0.11113997 -0.69851965 -0.03245248 0.40417573 -0.10623683

2.weight f4 [64, 64]
00000000: 167c 84be f843 c1bc a9d7 833e 8c2c 91bf
00000010: 966e ea3d 0846 083e 107c 57bf f64f 67be
00000020: f804 3fbf 132b ca3d 902d f83e b171 51bc
00000030: 789e f83e f723 053e 7e72 423e 95c1 a0bf
00000040: 06ec 91be ac96 69be d553 a83e b6d1 89bc
00000050: ac3d 2f3e 2c89 75be 275b 3ebe eb4c bc3e
00000060: 2e71 973f d517 5cbe a242 33be 62c8 33bd
00000070: 63ff 12bf 6fa5 37bf d152 2fbe 33f9 ebbd
00000080: 1dcf 173c d06c a13d f5d8 c2bc 7b10 b13d
00000090: 0980 7c3e c30c 0e3e 8e77 573f 4768 a9bf
000000a0: 9af8 a23e b87b 7b3d 3329 67bf af2e 6bbf
000000b0: 19f9 07bf 7155 bbbe 8005 953e 85aa e73b
000000c0: 6b7f 15bf f804 5abe 66a3 183e 3a2b 1e3f
000000d0: 9287 4ebf a0ae 60be fb90 6fbf b53f aa3d
000000e0: ea45 08bf 5304 43bf ae38 a3be 8f0c 82be
000000f0: e761 853f 8fdd af3e 6a23 97bf 9f4b 8ebe
00000100: ced3 a5be be51 9d3f bd44 13bf 9b13 0e40
00000110: bfd2 283f 2321 2cbf 66ac 483f fbf1 a7be
00000120: 9412 1a3f 8031 73bf 7759 62bf 3daa 08bf
00000130: fe95 15bf 2d30 69bf f2bb abbe fa61 a3bf
00000140: 8db2 843f 4ed1 213f 1ac0 223e 98e0 9dbe
00000150: afaf b9be 46d4 dabe 53e5 04bf afc2 273f
00000160: f8a5 a7bf 0c1f ef3f 0ea4 c2bf b8f0 b5bf
00000170: 962c c9be fd52 0c3f d235 eebe d91c 4b3f
00000180: be49 533f 121d a43f ca9a ed3e db0e 2e3f
00000190: 54eb 123e ea47 623f 7a89 77bf 257d b0bf
000001a0: 70ae 87bf d16c 9abf ed4e 1c40 8e86 243f
000001b0: 0c3d 68bf 2453 ed3e 3010 993f f2f7 a9bf
000001c0: adb6 503f aad1 4fbf f01d 0a40 6c91 953e
000001d0: 9cee 683f 00f2 44bf 4f33 59be 486b 41bf
000001e0: ab08 a5be 72fa a63e 913f 713f 875b 6abf
000001f0: e72e a23f c4b8 f2bd 0a99 43bf a590 5abf
00000200: c7ac a3be 5516 0ebf 5c2d 9fbe d2ba 903f
00000210: 6111 aa3e 0141 33be 88f6 26bd f205 a2be
00000220: 2d9a bb3e 262f b5bd 0e66 33bf 8726 2c3e
00000230: 3e08 88bf fdc2 57be 9c87 ed3e 8d72 f93e
00000240: cd90 b3bd 8847 bd3d b578 553e 9ebd ebbe
00000250: 2853 e7be f1f7 273e 57c4 a23e 6835 ad3e
00000260: 920f 02bf 16c8 5c3f a32b b73e 7dec eebe
00000270: a321 963e da8c eb3e ee15 bf3a f4f3 813e
00000280: e4f8 753b fe35 c3be 4303 7d3e c2ce 85be
00000290: e7ab 3c3d 7efa 2ebe 7c8f 9cbe 5c64 7a3e
000002a0: bea7 0abf 32b9 7bbe 9897 2dbf 7e0d 1d3f
000002b0: 2e4c acbc fbe9 0a3f 3e68 143e 137a a7be
000002c0: 85d5 e43e c511 b4be 5dd4 6fbe 983a 723d
000002d0: 3ee2 e03f 551f cbbe beec 833f a277 73be
000002e0: 98c4 b2bc 3871 083f 5581 0c3f 0817 053d
000002f0: 6fb9 71bf 4485 eebe c0f8 febc 4918 7fbe
00000300: cbbb e6bd c174 30be 58bc 1dbf 7867 923f
00000310: 0c89 8ebe 8bc1 a0be e451 0fbf f57a f1be
00000320: ca85 4d3e 33b1 063d 0f07 d6be 793f 033e
00000330: 4538 48be d1f3 8bbe cae0 95be 999a 013f
00000340: b2a9 8e3e 7f39 683e 4db8 c3bc 24a5 2dbf
00000350: 901f aabe f60d 433f bc72 fe3d 4296 053f
00000360: 6909 41bf 908e 933d 022d ee3e 1ea3 c83e
00000370: 11e7 623f cc7a 3abe b1d9 c5bd 4773 b63e
00000380: b1df 5d3d 6076 c2be b628 743e 8f18 253e
00000390: 6388 913c acb8 4dbe 7928 54be 8306 253f
000003a0: 49d0 ad3d 8e2f 9abd 48d2 f23e bedb 873f
000003b0: 1b1f 483f a8e7 323f b4b5 1fbe bead 0dbe
000003c0: 6cda 103f 8174 563c a162 aabe 3ac8 653e
000003d0: c198 7c3f ddc5 c5bd 58bb a53e 9557 ecbe
000003e0: 1f87 043f 8283 3d3f e7dd d83e e903 61be
000003f0: f5ae bfbf 9192 31be 7c85 39be 275b 0d3e
-0.2587592 -0.02359198 0.25750473 -1.134172 0.11446874 0.13307965 -0.8417368 -0.22589096
-0.74616957 0.09871497 0.4847226 -0.012783454 0.48558402 0.13002001 0.18988988 -1.2559077
-0.28500384 -0.22811383 0.3287646 -0.01682363 0.1711337 -0.23978108 -0.1858946 0.36777434
1.1831415 -0.21493466 -0.17505887 -0.04389227 -0.5742094 -0.71736807 -0.17121436 -0.1152214
0.009265688 0.078820825 -0.023785094 0.086457215 0.24658217 0.13872056 0.841668 -1.3234948
0.31830293 0.061397284 -0.9029724 -0.9186811 -0.5311447 -0.36588624 0.2910576 0.007069888
-0.5839755 -0.21290958 0.14906082 0.6178471 -0.80675614 -0.21941614 -0.935806 0.083129324
-0.5323168 -0.76178473 -0.3187918 -0.25400206 1.0420502 0.34348723 -1.1807683 -0.2779207
-0.32388157 1.2290571 -0.5752676 2.2199466 0.65946573 -0.6723806 0.7838806 -0.32801804
0.601846 -0.94997406 -0.8841776 -0.53384763 -0.58431995 -0.91089135 -0.33541828 -1.2764275
1.0366989 0.6321 0.15893593 -0.30835414 -0.36266848 -0.42740077 -0.5191242 0.6553144
-1.3097525 1.868135 -1.5206316 -1.4214087 -0.3929183 0.5481413 -0.46525437 0.79340893
0.82534397 1.2821372 0.46407157 0.6799142 0.14347583 0.8839098 -0.9669415 -1.3788191
-1.0600109 -1.2064458 2.4423172 0.64267814 -0.9071815 0.46352494 1.1958065 -1.3278792
0.8152874 -0.81179297 2.1580772 0.2921251 0.9098909 -0.7693176 -0.21210979 -0.75554323
-0.32233176 0.3261295 0.9423762 -0.9154591 1.2670563 -0.118516475 -0.76405394 -0.8537696
-0.31967756 -0.55502826 -0.31089294 1.1307013 0.33216384 -0.17505266 -0.040762454 -0.3164516
0.36641064 -0.088468835 -0.700776 0.16811572 -1.0627515 -0.21070476 0.46392524 0.48720208
-0.08767853 0.09242159 0.20846827 -0.46043104 -0.4518063 0.16403176 0.3179042 0.33829808
-0.5080501 0.86242807 0.3577548 -0.466648 0.29322538 0.460059 0.0014578679 0.25381434
0.0037532384 -0.3812713 0.24708275 -0.26134306 0.046062376 -0.17087743 -0.3057822 0.24452347
-0.54162204 -0.24582365 -0.6780944 0.6134871 -0.021032419 0.54263276 0.1449289 -0.32710323
0.44694152 -0.35169807 -0.23420854 0.05913791 1.7569044 -0.39672342 1.0306623 -0.23776105
-0.021822259 0.5329776 0.54884845 0.032492667 -0.94423574 -0.4658605 -0.031124473 -0.24911608
-0.112662874 -0.17232038 -0.61615515 1.1437826 -0.27838933 -0.31397662 -0.5598433 -0.4716412
0.20070568 0.032883834 -0.4180226 0.12817182 -0.19552715 -0.27334455 -0.29273063 0.5062652
0.27863842 0.22678183 -0.023891592 -0.6783011 -0.33227205 0.7619318 0.124242276 0.521824
-0.75404984 0.07204926 0.46518713 0.3918695 0.8863383 -0.18210906 -0.09660662 0.35634825
0.054168407 -0.37980938 0.23843655 0.1612265 0.01776523 -0.20089978 -0.20718564 0.6446306
0.08486993 -0.075286016 0.47426057 1.0613935 0.78172463 0.6988473 -0.15596658 -0.13835809
0.56583285 0.0130893 -0.33278373 0.22439662 0.98670584 -0.0965688 0.32369494 -0.4616057
0.5176868 0.7402879 0.42356798 -0.21974148 -1.4975268 -0.17341067 -0.18117326 0.13804303

2.bias f4 [64]
00000000: 7e84 ecbe 5ee2 413f 9ff5 063f d565 193f
00000010: 2714 2a3f ee85 c4be 4c2c 2cbe eb84 86be
00000020: 21cc e2be 42d4 b4be 09d5 113f 434b 31bf
00000030: 8742 133f 38ca b1be 1e62 4f3f 4d11 15bf
00000040: 70de 23bf 4328 ff3e e8fe 34bf 8606 413f
00000050: f2f4 8b3e 99d3 5f3f c99b 163f 4f15 243f
00000060: 2e20 26bf 4cea 0dbf b8dd 47bd e9cb fa3e
00000070: 51ca 803e f538 233f 32ea 4c3f c672 f03e
00000080: 4075 353f 3a2f debb db0b 2fbf 906b 233f
00000090: c494 2f3f e3b6 c2be 8e46 1c3f b8b8 21bf
000000a0: 1d50 113f b298 253f cd94 23bf c694 b4be
000000b0: 3326 183f 47c4 88bf e8be 28bf 716d 2d3f
000000c0: e6ff 17bf e6b9 943f be59 cb3e 2db1 453f
000000d0: d826 e83e 5567 d83e 7975 123f 53b8 df3e
000000e0: 3830 54bf 73a0 a4be b150 323f 5b83 9dbe
000000f0: 5c58 24bf 918c 763f 564f 3b3f 19fb 023f
-0.46194834 0.75736034 0.5271854 0.5992101 0.66437 -0.3838343 -0.16813773 -0.26273283
-0.44296363 -0.3531819 0.5696569 -0.69255465 0.5752339 -0.34724593 0.8100909 -0.58229524
-0.6401129 0.49835405 -0.70701456 0.7540058 0.27335316 0.8743225 0.5883146 0.64095014
-0.6489285 -0.55435634 -0.04879543 0.48983696 0.25154355 0.63758785 0.80044854 0.46962565
0.70882034 -0.006780532 -0.68377465 0.63836 0.68586373 -0.38030156 0.6104516 -0.63172483
0.5676287 0.6468612 -0.63898927 -0.35269755 0.5943329 -1.0684899 -0.659163 0.6774512
-0.59374845 1.1619232 0.39716905 0.77223474 0.45342135 0.42266336 0.572105 0.43695316
-0.82886076 -0.32153663 0.69654375 -0.3076428 -0.64197326 0.9630824 0.7316793 0.51164395
