Homework_2/hw2_code/BipedalWalker-PPO_test/dir_save/we0_critic_linear_final.pth (torch, 1255 bytes, 1 tensors)

weight f4 [1, 64]
2.0506165 -2.7823172 -2.1436825 -2.311876 -2.824417 2.4350424 2.2151744 2.8763382
2.13306 1.9356871 -1.9205307 2.90237 -2.1535132 2.2119906 -2.2836103 1.812943
2.0441968 -2.3301332 2.6457691 -2.9380515 -2.0785534 -2.1505215 -2.1099284 -1.8854947
2.1015377 2.405489 -2.3357115 -2.5090272 -1.4195774 -2.0252514 -2.7599075 -2.1733863
-2.4302537 -1.9686213 2.1528907 -1.8430656 -2.257394 1.9443016 -2.5652924 2.0165849
-2.1484833 -1.9839752 2.0783885 3.2560852 -2.0670981 1.9802437 2.4912453 -2.6805596
1.8818566 -2.2177289 -2.264292 -2.379172 -1.8113977 -2.2666364 -1.973998 -2.554599
1.9391966 1.9229298 -2.9192305 2.5359316 2.0110414 -2.131312 -2.8003616 -2.2414255
00000000: 4d3d 0340 7c11 32c0 1832 09c0 c7f5 13c0
00000010: 40c3 34c0 bcd7 1b40 6bc5 0d40 ed15 3840
00000020: 0e84 0840 98c4 f73f f3d3 f5bf 6ec0 3940
00000030: 29d3 09c0 4191 0d40 ac26 12c0 840e e83f
00000040: 1fd4 0240 e720 15c0 4854 2940 0909 3cc0
00000050: 0507 05c0 25a2 09c0 1109 07c0 e457 f1bf
00000060: 987f 0640 88f3 1940 4c7c 15c0 e793 20c0
00000070: b6b4 b5bf b89d 01c0 53a2 30c0 c318 0bc0
00000080: 4789 1bc0 c8fb fbbf f6c8 0940 93e9 ebbf
00000090: 2579 10c0 e0de f83f c02d 24c0 ba0f 0140
000000a0: c080 09c0 e6f2 fdbf 5104 0540 b363 5040
000000b0: 564b 04c0 a078 fd3f 9070 1f40 4a8e 2bc0
000000c0: ade0 f03f 45ef 0dc0 29ea 10c0 5b44 18c0
000000d0: e1db e7bf 9210 11c0 f7ab fcbf 8d7e 23c0
000000e0: 9837 f83f 9022 f63f acd4 3ac0 b44c 2240
000000f0: e7b4 0040 6a67 08c0 2039 33c0 8473 0fc0
