Homework_2/hw2_code/BipedalWalker-PPO_test/dir_save/we0_critic_linear_120.pth (torch, 1255 bytes, 1 tensors)

weight f4 [1, 64]
0	0x3ff125b7	1.8839635
1	0xc00bb0ee	-2.182674
2	0xbffff847	-1.9997643
3	0xc00aca49	-2.1685965
4	0xc00d3ba7	-2.206766
5	0x4009b6bf	2.151779
6	0x3ff06671	1.8781263
7	0x400b639a	2.1779542
8	0x3ff03def	1.8768901
9	0x3fe44669	1.7833987
10	0xbfd4dae7	-1.6629304
11	0x4012559a	2.2864747
12	0xc0050b22	-2.0788045
13	0x3feeb879	1.8650047
14	0xc004c669	-2.07461
15	0x3fd37432	1.6519835
16	0x3ff10e6b	1.8832525
17	0xbfff01f3	-1.992247
18	0x40110022	2.265633
19	0xc01205c7	-2.2816026
20	0xbfeec2f8	-1.865325
21	0xbfec2b27	-1.8450669
22	0xbff977fa	-1.9489739
23	0xbfdcbf47	-1.7245873
24	0x3ff864d9	1.9405776
25	0x40000b85	2.000703
26	0xbff9a9fe	-1.9505002
27	0xc00ed6fc	-2.2318716
28	0xbfde7709	-1.7380077
29	0xbfeea204	-1.8643193
30	0xc00de7d0	-2.2172737
31	0xbffe0f42	-1.9848406
32	0xc002db7c	-2.0446463
33	0xbfe68f10	-1.8012409
34	0x3ffef73d	1.9919201
35	0xbfd74f88	-1.6821146
36	0xc0006922	-2.0064168
37	0x3fedde6a	1.85835
38	0xc0019b44	-2.0251017
39	0x3fed84bf	1.8556136
40	0xbfe82725	-1.8136946
41	0xbfe9589b	-1.8230165
42	0x3ff56e7a	1.917434
43	0x401fc048	2.496111
44	0xbff3fc20	-1.9061317
45	0x3ff6ca36	1.928046
46	0x40169914	2.3530931
47	0xc0041d9f	-2.064308
48	0x3fdb8533	1.7150024
49	0xbffb5c3c	-1.9637523
50	0xbfdaf54f	-1.7106112
51	0xc005ef7a	-2.0927415
52	0xbfe60713	-1.7970909
53	0xbff37141	-1.9018937
54	0xbfe81190	-1.813036
55	0xc00051c4	-2.0049906
56	0x3fe39e42	1.7782671
57	0x3ffc3b4e	1.9705598
58	0xc0150c45	-2.3288739
59	0x4001d4eb	2.0286205
60	0x3feccf23	1.8500713
61	0xbffcb155	-1.9741617
62	0xc0119ece	-2.2753177
63	0xbff5bdbd	-1.9198529
