Homework_2/hw2_code/BipedalWalker-PPO_test/dir_save/we0_critic_linear_210.pth (torch, 1255 bytes, 1 tensors)

weight f4 [1, 64]
0	0x4001340b	2.0188015
1	0xc027746e	-2.6164813
2	0xc0075376	-2.114469
3	0xc0116d94	-2.272313
4	0xc02a1836	-2.6577277
5	0x4011e480	2.2795715
6	0x4001c864	2.0278559
7	0x402f4f20	2.7392044
8	0x40013b90	2.0192604
9	0x3ff2b0aa	1.8960164
10	0xbfeff9a6	-1.8748062
11	0x4030602f	2.7558706
12	0xc0082588	-2.1272907
13	0x400b9025	2.180673
14	0xc00aafb4	-2.166974
15	0x3fe232fa	1.7671807
16	0x3fffccf6	1.9984424
17	0xc0143823	-2.3159263
18	0x401b47bd	2.4262536
19	0xc032333b	-2.7843769
20	0xc001444c	-2.0197935
21	0xc0096b3e	-2.1471705
22	0xc0041b42	-2.0641637
23	0xbfeb7c87	-1.8397378
24	0x400391c4	2.0557718
25	0x4018535f	2.3800886
26	0xc00c46ae	-2.191814
27	0xc01fb0f8	-2.4951763
28	0xbfd92cf9	-1.696685
29	0xbffd6053	-1.9795021
30	0xc025f41c	-2.5930243
31	0xc00776bb	-2.1166217
32	0xc017ac02	-2.3698735
33	0xbff46693	-1.9093803
34	0x4006db31	2.1071284
35	0xbfe60e02	-1.7973025
36	0xc00be30f	-2.1857336
37	0x3ffc9cc8	1.9735346
38	0xc01968f3	-2.3970306
39	0x3ffc4397	1.9708127
40	0xbffe9dd9	-1.9891921
41	0xbff81759	-1.9382125
42	0x400216a2	2.0326314
43	0x4036098b	2.8443325
44	0xc0015d75	-2.0213292
45	0x3ffd9cf3	1.9813522
46	0x401e63dc	2.474845
47	0xc020c9fa	-2.5123277
48	0x3feb05ac	1.8361106
49	0xc009b975	-2.1519444
50	0xc00a93f3	-2.16528
51	0xc0172079	-2.361357
52	0xbfdb58b9	-1.7136451
53	0xc00e84df	-2.2268598
54	0xbff6d05c	-1.9282336
55	0xc01a9bfe	-2.415771
56	0x3ff25c02	1.8934329
57	0x3fedef38	1.8588629
58	0xc030bf4b	-2.7616756
59	0x401bc6c7	2.4340074
60	0x3ffb8df7	1.9652699
61	0xc006832f	-2.1017568
62	0xc02b2dae	-2.674663
63	0xc0094f39	-2.1454604
