Homework_2/hw2_code/BipedalWalker-PPO_test/dir_save/we0_actor_40.pth (torch, 24543 bytes, 4 tensors)

0.weight f4 [64, 24]
00000000: d0fe 19be 9389 e53e aba1 dbbe 7c9a 71be
00000010: 6a20 83bd a0bb edbe 9353 1f3f f38f 47bd
00000020: 436d af3e e3c1 8dbe 1983 a33e 9a40 553e
00000030: 9641 7b3e 4e0e 96be 3bdb 303e 4fee 42be
00000040: 450a 893e 5661 6d3d 3a4f ab3d a41b 62bd
00000050: 9de7 af3d 3003 953d ac8d 8dbd 8aff 15bf
00000060: 77e5 07bf 1f83 b53d dbbd 143d e657 67bf
00000070: f0c7 6cbe 35b7 2bbd 71ad 2f3c 0062 e23e
00000080: 4a8e 0f3e 1cd5 ef3e 3170 813d c940 d23e
00000090: d623 0e3f 1aed 24bf 20c5 a5bc 3d1c c4bd
000000a0: 6029 92be 926d bf3d d70b 073e 218f 523d
000000b0: df36 19be abf8 8c3d 78ae fd3e 46dd 13be
000000c0: fc0f 2fbe 82e3 a03e 375b b53d ec0c 13bf
000000d0: f5e6 273e 5219 183e 2dd9 1bbf 1b40 bb3e
000000e0: 30f8 163d a43b 3ebd f413 d3be 5c76 ae3e
000000f0: 52a0 e63d 232b ed3c c6ba 77be 5cfd d2be
00000100: 748b 483c f0c4 b4be 92d3 efbd 93fb dfbe
00000110: 356c b53e 1029 cabd 7c49 b73e cb6d 483d
00000120: 6ced 2b3e fc7f 41bf 733c 1bbf b2aa 4d3f
00000130: 3e82 85be d101 033f 0319 78bd 099e c43c
00000140: bf57 b83e b02d 2f3e 1e7e c93d a273 1cbf
00000150: e834 62be 3005 ce3e 8d8d 1a3e 8c2a cb3e
00000160: 1fe5 5c3d 1a4b fcbe 7ae2 01be 4530 553c
00000170: 29b5 70be e33c 073e f256 16be b0ac dcbc
00000180: 8dd0 c4be 13c1 4b3f 4859 e13d 1e50 1d3e
00000190: a177 42be 0117 763e df06 a73d a3c9 99bd
000001a0: 3670 0b3f f2fd e93e 48de aabe 29c8 733e
000001b0: d448 3f3f 4186 9bbd 915d 9fbe 872a 4bbe
000001c0: 027b 343d 9e4e ddbd dde8 9cbe 0ba9 adbe
000001d0: 10db e0be e5cd a0be a1d2 ce3e ce88 6a3d
000001e0: 8106 87bd d891 55be a502 1d3f 9f33 fdbd
000001f0: 41e3 c63e a83a 84be 9b8d 08bf 1841 913e
00000200: fa9c e5be 363f bfbe 7c2a 0d3f 94d2 8f3e
00000210: d534 e03d 9a42 ea3e 5ed6 c2be e0a9 84be
00000220: eb33 7ebe 4c8f 233d 26a7 24be d69c f0be
00000230: 97b7 5b3e eb40 68be b334 2a3d 3f37 0c3d
00000240: 98f8 563e 7ee7 20bf 4b87 abbe 32b0 ca3e
00000250: 9541 56bc 7f69 02bf 8438 81be 9b08 683e
00000260: d0b0 b5be 1a7a 5b3e 31f0 29be a1ef a83e
00000270: bc98 cebd 7ebb a8bd 3a87 dd3d cb2d 14bf
00000280: 6632 47be 3a0d d9bd 2ae0 8fbd 3654 66be
00000290: b1ca d3be ea6a 37be 6eaf 95be 7177 203f
000002a0: 6ce8 0dbd a91c c93e 270b 2f3e c798 3ebf
000002b0: c354 553e a9b8 adbd a5dc 9d3e 8e72 9dbe
000002c0: fb92 3cbe a595 81bd 14db f3be 40f7 213e
000002d0: 244e 873f 4c69 303e a2e5 b4be 97d8 24bc
000002e0: 958c 85be 9731 083d 6752 993d ebd0 8c3d
000002f0: 06ad 78bd feb9 b4be 6104 54be 01c4 45be
00000300: 3b1f 1cbf 652f cdbf 0916 8f3e b778 31bf
00000310: 9697 4d3e ac67 e83d 9735 9b3e a875 06bd
00000320: 4340 bdbd eb5f 1ebe 4167 29bd 3f95 2abf
00000330: 5b68 ba3e 26bb 98be 4d36 573e e277 023e
00000340: 7ab8 793d ab3a b5be 4324 c2bd c4ad 443e
00000350: 845f 66be 36c2 b2be 0384 78be 2e8a 80bc
00000360: 1422 d4be f3b1 d5be 3bec 6a3e 0dbe f33e
00000370: e27a b33e c6e8 91be 31bc e3be 9618 073f
00000380: 5624 0dbe 3c1f dbbe 48ce 23be 5ba6 843f
00000390: c064 6d3e 05b2 b83d 0f1e 1bbe f96e 5fbd
000003a0: 904c 8ebd ea25 6b3b 7fe3 b4be 9f85 8e3e
000003b0: f6b5 05be 91b7 3fbe c016 58bd b7f0 3abd
000003c0: c747 d33d 4753 b13f ab39 9e3e 5693 a1be
000003d0: db53 193e 08b3 253e a6c1 d03e e3ca f2bc
000003e0: c4cd 1d3d 2b11 143e 1bb9 2fbe dd31 153f
000003f0: b796 65be a4db d5bd f126 7fbe 1e63 9cbe
-0.1503861 0.44831523 -0.4289678 -0.23594087 -0.06402667 -0.4643221 0.622369 -0.048721265
0.34263048 -0.27686986 0.31935957 0.20825425 0.24536738 -0.2930779 0.1727113 -0.1903622
0.26765648 0.057954155 0.08364721 -0.05520214 0.085890986 0.072759986 -0.069117874 -0.58593047
-0.5308451 0.088629 0.036313873 -0.903685 -0.23123145 -0.041922767 0.010722504 0.44215393
0.14019123 0.46842277 0.06320227 0.41065052 0.5552343 -0.6442429 -0.020235598 -0.095756985
-0.28547192 0.09347071 0.1318811 0.05140603 -0.14962338 0.06883367 0.49547172 -0.14439878
-0.17095941 0.31423575 0.088552885 -0.5744159 0.16396697 0.14853409 -0.6087826 0.36572346
0.036857784 -0.046443596 -0.4122616 0.34074676 0.112610474 0.028951233 -0.24192342 -0.41208923
0.0122402795 -0.353065 -0.11710276 -0.43746623 0.35434118 -0.09871113 0.35798252 0.04893283
0.16789788 -0.75585914 -0.60639113 0.80338585 -0.2607593 0.51174647 -0.060570728 0.024001138
0.36004445 0.17107272 0.09838508 -0.6111394 -0.22090495 0.40238333 0.1509306 0.39680898
0.053929444 -0.49276048 -0.1268405 0.013011997 -0.23506607 0.1320682 -0.14681605 -0.026937813
-0.38440362 0.7959148 0.11003357 0.15362594 -0.18990947 0.24032213 0.081556074 -0.07509162
0.54468095 0.45701557 -0.33372712 0.23806824 0.747205 -0.07593966 -0.31126073 -0.19840442
0.044062622 -0.10806011 -0.3064641 -0.33918032 -0.4391713 -0.31407085 0.40395072 0.057259373
-0.065930374 -0.20856416 0.6133216 -0.123633616 0.38845256 -0.25826 -0.5334107 0.28369975
-0.44846326 -0.37352914 0.5514295 0.28090346 0.10947577 0.45753938 -0.38054174 -0.25910854
-0.24824493 0.03993158 -0.16079387 -0.46994656 0.21456753 -0.22681014 0.041554164 0.034232374
0.20993268 -0.6285323 -0.33501658 0.3958755 -0.013077159 -0.50942224 -0.2523843 0.22659533
-0.3548646 0.21433297 -0.16595532 0.32995322 -0.100877255 -0.08238886 0.10816808 -0.57882375
-0.19452819 -0.10598226 -0.07025178 -0.22493061 -0.4136558 -0.17911878 -0.29235405 0.62682253
-0.034645483 0.39279678 0.17094098 -0.7445187 0.20833115 -0.08482487 0.308324 -0.3075146
-0.18415444 -0.063273706 -0.4762808 0.15816975 1.0570722 0.17227668 -0.35331446 -0.010061405
-0.26083818 0.033250418 0.0748642 0.068757854 -0.060711883 -0.3529815 -0.20704795 -0.19313051
-0.60985154 -1.6030089 0.279465 -0.6932482 0.20077357 0.11347899 0.30314323 -0.03282705
-0.092407726 -0.15466277 -0.041358236 -0.6663398 0.36407742 -0.29830283 0.21016808 0.12741044
0.060966946 -0.35396323 -0.094795726 0.19206911 -0.22497374 -0.34913796 -0.24269108 -0.01569089
-0.4143225 -0.41737327 0.22941677 0.47605935 0.3505469 -0.28497905 -0.44479516 0.5277189
-0.13783392 -0.42797267 -0.15996659 1.0363268 0.23182964 0.090183295 -0.15148185 -0.05454919
-0.06948197 0.0035880753 -0.35329816 0.2783632 -0.13057694 -0.18722369 -0.05275607 -0.04563972
0.10316425 1.3853539 0.30903372 -0.3155772 0.14973395 0.16181576 0.40772742 -0.02963776
0.03852631 0.14459674 -0.17160456 0.5827921 -0.22420774 -0.10442284 -0.24917199 -0.3054437

0.bias f4 [64]
00000000: 1588 b6bd 946b bd3d ed25 a43d 1051 263c
00000010: d643 103d 274e 843b 6dbb 653d 6913 d2bd
00000020: c59e ea3d 5093 05bc 31ed b4bd c629 90bc
00000030: 9b8f 913b 2f99 b83d 3359 31bd 86f1 3d3d
00000040: c5f5 9fbd af95 59bd 877d e03d ed27 bd3d
00000050: cd59 f8bd 07fa b2bc 4715 1ebe fc0e 18bd
00000060: 1e29 3bbe 9c34 b73d ea34 07be 5794 47bd
00000070: 718a 1ebe 4ec9 37bc 5bd5 f93b 7da8 07be
00000080: 2f63 0ebc ffbc 8dbc c64a ab3c 86b2 8f3d
00000090: 4b1a 90bd fd7e 863b c355 54be bfdb 943d
000000a0: c903 20be 67e7 da3d 55af c93d 6a1d 32bb
000000b0: 6efa a4bd 8112 353e 8063 d2bd 0063 e23d
000000c0: f39e 9ebd 9b33 fd3d 5ad5 713d bc75 4ebe
000000d0: 69e8 b9bc 6da4 4c3d 133f 41bc bec6 e13d
000000e0: 400b ef3d 7da5 163e 7056 a83e 4f76 ba3d
000000f0: 2980 c53d f99f 493e 42cb 363d b0a2 ebbc
-0.08912674 0.092490345 0.08015046 0.010151163 0.035220943 0.004037637 0.056086946 -0.102576084
0.11456064 -0.008152798 -0.08834303 -0.017598044 0.004442168 0.090135925 -0.043297958 0.046372913
-0.07810549 -0.053121265 0.109614424 0.09236131 -0.12126503 -0.021847738 -0.15437804 -0.037123665
-0.18277404 0.08945581 -0.13203779 -0.048725452 -0.15482499 -0.011217428 0.007624311 -0.13247867
-0.008690639 -0.017302034 0.020909678 0.070164725 -0.07036265 0.0041044937 -0.2073584 0.07268476
-0.15626444 0.10688668 0.09847895 -0.0027178177 -0.08055578 0.1768284 -0.10272884 0.11054039
-0.07745161 0.123633586 0.05904136 -0.201621 -0.02269383 0.049961496 -0.011794823 0.11024235
0.11672068 0.14711566 0.32878447 0.09104597 0.09643585 0.19689931 0.044627436 -0.028764099

2.weight f4 [64, 64]
00000000: ee5b 483e 4871 a43d 6ecc 303e 36ee 74be
00000010: 60aa 5abe 35de 793f 2c4c 363e b340 83be
00000020: 4b63 753e 547b 983e 79cd 2cbe 2207 643d
00000030: 8330 cfbe 98b6 27bd 94e7 123c 182c 0f3f
00000040: 2d64 023e 663c 193f 3f26 3dbe f20d 81be
00000050: 16fe 08bf cdb2 ab3e 788b ee3e fd76 da3e
00000060: 3598 2dbd 96cb 6c3e 5670 74bc c2cd 8a3e
00000070: 2d66 4dbc cbfd 1bbe 0363 b23d 659e 22be
00000080: 8df2 31be afb0 3c3c c9ec b4be 831c 583e
00000090: b009 efbe 2f34 41be 92aa 5e3d 0cc4 a53e
000000a0: e294 12be fc3a 06bf ed36 c33c f0e5 3f3f
000000b0: 56fe ae3d c69f 673d 490b 373d 15ae 98bd
000000c0: 00f9 01be da6f 23bf 190d c7bc b751 76bd
000000d0: bb0f 59be 7778 2b3e 3962 943c 9347 00be
000000e0: 27a1 ad3c 1a13 07be b5fa 82bd 83fb c13e
000000f0: b86f ebbe 20e4 db39 3aab 81bd 4660 03be
00000100: 450e a23d 65bd 923e 3024 873e a30f c43d
00000110: 0e07 423c 8063 693e 0edd 94be fd27 063e
00000120: 899b 273d 1a3e 53bc 40c6 3f3e bf0c eb3d
00000130: 4363 97be 276b b2bd 5b43 f93d 544f 143e
00000140: 9bda 17bd 2dea a23e 8c18 0bbf 1570 013d
00000150: 8b79 c73d 2d3f 09be 6aa5 2f3f 63e2 983e
00000160: 0d19 413e 2f14 20bb a860 f0bd 4055 1dbe
00000170: df12 b6be 79f6 5cbe de92 363e 77c4 a73d
00000180: 0ed4 1cbe 10d5 adbe 160a d53c 6181 2ebf
00000190: 1cde 75bd a503 ab3e 479b c93c 31d6 47be
000001a0: 9d83 9d3d d4be 1fbe 5a61 1dbe 3c3f af3e
000001b0: 2f2e d1be bdb8 47be 2af8 153d e95a e73c
000001c0: 2c6f 37be fb8b 97be a94f bd3e d09f c63d
000001d0: c660 163e b437 0bbe f072 633e f1ce 8c3d
000001e0: 0db4 873b f613 f2be 7a85 5bbf 774c 33be
000001f0: 5c28 f3bd 61cb 5ebd 31f4 3dbe 1188 83bd
00000200: e16a a63c ddd4 4b3e 7bda 733e 8482 6bbe
00000210: 7947 d6bd 03e5 5c3e 92cd 44bd ce6d b03d
00000220: 14fc 933e bdd3 513e a9a6 533e 0bca 0abe
00000230: 8192 783e fccd 7f3e af26 b23d 2fa7 a03e
00000240: 4438 29be 97b1 d23e ab91 7f3e 66c2 123e
00000250: 7101 0ebe a95b a9ba 9342 02be ccea a9bd
00000260: 64eb 85bd 788f 7d3e 647e 6e3e c777 9b3d
00000270: 5f5f a03e 4e3b 3a3c bce8 d8bb a82d a33d
00000280: 71c6 e13d f0df f83c 8557 b1be 3fea 9f3e
00000290: 5344 18bf fe62 80be 1a8f 463e 6a0a 57bd
000002a0: 2158 93bd fecc 213d ea9b c4bd 9163 0cbe
000002b0: 8fca 773e 520f 833e f469 d83d fc86 01be
000002c0: 037a 533d 9f01 23be 4c0f fb3d 6624 1bbe
000002d0: 7118 a03e e509 4fbd 0896 29be 11b0 18be
000002e0: 2a40 16be 0cf1 cf3d fcee a2bc 6a88 a8bd
000002f0: 3f3a 3d3d 1f22 80bd 6e80 053e 9fc8 e33d
00000300: 80b3 fe3d 437d 90be 115c 68be b3ec 943c
00000310: 9d81 933e f5d4 3bbe e5c3 99bd 59eb bdbd
00000320: f39e 803e 0eb0 9fbe 0016 053d 3dc7 cdbd
00000330: 2aac 9d3d 3321 edbd 625b 49bd 7ae4 58be
00000340: 86ca f43d 31e9 c5bc e8e1 c13c 6d18 eebb
00000350: 7650 e53d 3cd5 c43e e690 533d 4c4d 1abe
00000360: 5879 a1bd b5e7 ac3d dea0 d7bd a40e e83d
00000370: 831c 1dbe e803 d33d f068 38be a418 673e
00000380: 641e 69be e62a 9ebd 12c6 b73c 2919 113e
00000390: c959 b3bd 8ace c5be 843b 2ebe 2734 2abe
000003a0: 1a2c e1bd e655 113d 68aa 2dbc c889 03bd
000003b0: 7e28 10be b499 f5bc 7ab1 d23d 80db 203d
000003c0: 2234 93be 3723 5c3d f7bb ad3d 54f4 a83b
000003d0: 63e8 50be 244a bbbd dc60 35be 86db a4bd
000003e0: ae40 bb3c f384 27be fec5 0e3e 0a50 763e
000003f0: df24 87be ff80 fc3d ba88 ee3e 13c6 4b3c
0.19566318 0.08029419 0.17265484 -0.23918995 -0.21354055 0.97604686 0.17802495 -0.256353
0.23963659 0.29781592 -0.16875257 0.055670865 -0.404667 -0.04094562 0.008966345 0.55926657
0.12733527 0.59857786 -0.18471621 -0.25205952 -0.53512704 0.33534852 0.4659078 0.42668906
-0.042381484 0.23124537 -0.014919361 0.27110106 -0.012536568 -0.15233533 0.08710291 -0.15880735
-0.17377682 0.011516734 -0.35336903 0.21104626 -0.46687078 -0.18867563 0.054361887 0.32376134
-0.14314607 -0.52433753 0.023829902 0.7496023 0.085446045 0.056548856 0.044688497 -0.074550785
-0.12692642 -0.63842547 -0.024298238 -0.060136523 -0.21197407 0.16745172 0.018113242 -0.12527303
0.021195007 -0.1319088 -0.06395475 0.378872 -0.45983672 0.000419409 -0.06331487 -0.12829694
0.07912878 0.28660122 0.26394796 0.09573295 0.011842502 0.22791862 -0.290749 0.13101192
0.040919814 -0.012893224 0.1872797 0.114770405 -0.29567918 -0.08711844 0.1217105 0.14483386
-0.037073713 0.31819287 -0.5433433 0.03160103 0.09739979 -0.13403006 0.68611777 0.2986022
0.18857212 -0.0024426093 -0.11737186 -0.15364552 -0.35561273 -0.21578397 0.17829463 0.081917696
-0.15315267 -0.33951616 0.026005786 -0.68166167 -0.060026273 0.33401218 0.024610175 -0.19515301
0.07691119 -0.15600139 -0.15369168 0.34227931 -0.40855548 -0.19504066 0.03661362 0.028241592
-0.17913502 -0.29598984 0.36974838 0.096984506 0.14685354 -0.13595468 0.22211814 0.068754084
0.004141337 -0.47280854 -0.85750544 -0.17509638 -0.11872932 -0.054393176 -0.18550183 -0.06422437
0.020314636 0.1990542 0.23813812 -0.22999007 -0.10462851 0.21571736 -0.04804761 0.086146936
0.28903258 0.20490928 0.20669045 -0.13553636 0.24274637 0.2498092 0.086987846 0.3137755
-0.1652537 0.41151115 0.24957912 0.1433197 -0.13867737 -0.0012920994 -0.12720709 -0.08296737
-0.06539038 0.2476176 0.23290402 0.07591205 0.31322762 0.011366678 -0.006619541 0.079676926
0.11024178 0.03038022 -0.34637085 0.31233403 -0.59479254 -0.25075525 0.19390526 -0.052500166
-0.07194544 0.039502136 -0.09600051 -0.13709857 0.24198364 0.25597626 0.10567084 -0.12649149
0.05163003 -0.15918587 0.12258777 -0.15150604 0.31268647 -0.050546546 -0.16561139 -0.14910914
-0.14672914 0.10153398 -0.019889347 -0.08229144 0.046198126 -0.06256508 0.13037273 0.1112225
0.12436581 -0.28220567 -0.2269137 0.018179273 0.28809825 -0.18342955 -0.07508067 -0.09273405
0.2512127 -0.31189007 0.032491684 -0.10047767 0.07698853 -0.11578598 -0.049159415 -0.21180907
0.11952691 -0.024159046 0.02366729 -0.0072660954 0.11196987 0.38443935 0.051651858 -0.15068549
-0.078844726 0.08442632 -0.1052873 0.113309175 -0.15342908 0.103034794 -0.1800878 0.22567993
-0.227655 -0.07723026 0.022433314 0.14169754 -0.087573595 -0.3863414 -0.17014891 -0.16621457
-0.1099474 0.03548231 -0.01059971 -0.03211382 -0.14077947 -0.029980518 0.10287757 0.03927183
-0.28750712 0.05374452 0.08483117 0.0051560793 -0.20401148 -0.091450006 -0.1771273 -0.08049683
0.02285799 -0.1635931 0.13942716 0.2405397 -0.26395318 0.123292916 0.4658869 0.012437361

2.bias f4 [64]
00000000: c8a3 e7bd 6c14 89be 6645 74bc ad7f 5dbd
00000010: 09e4 d6bb 1c39 d93d 93a7 bf3d a5cb a1ba
00000020: 1406 04be d26c 12be 6f57 663e ece2 94bc
00000030: e6df 92bd 4cd7 43be 738c ec3d b827 183e
00000040: 4843 17be 13ed 37be 8a23 a8bc 4307 7cbc
00000050: 5ab5 f83d 19e8 0e3e 13a6 95bd 0f0e 8c3d
00000060: 8333 0c3e d024 b9bd 45cd 7dbd f542 febc
00000070: 88a8 983d b335 cd3c be04 173d 76a0 863d
00000080: 9764 243d 5867 803c c44f 48be 71be 583b
00000090: e361 c7bd 4bda 3dbe 434d 38bd ee6b 05bd
000000a0: e44d e23b c5df 3dbe 9910 07bd 0edf 10bd
000000b0: b614 023e cee6 1bbb bd40 343d 211f 453d
000000c0: b07b 2d3d 1099 083e 8335 19bd 080d 933d
000000d0: 9e52 983e 70f2 81bb 87bf dbbc 6e27 1b3e
000000e0: 52be f83d 0cd7 87bd 4c01 1bbe 3af6 293d
000000f0: 45fa b1bd 5df4 103c 50e3 f33d 4e69 dc3d
-0.11310536 -0.26773393 -0.014909124 -0.05407684 -0.0065579456 0.10606596 0.09358134 -0.0012344016
-0.12892944 -0.14299324 0.22494291 -0.018174611 -0.071716115 -0.19125098 0.11550226 0.14858902
-0.1477176 -0.1796153 -0.020524759 -0.015382591 0.12143965 0.13955726 -0.07307067 0.06838619
0.13691525 -0.090402246 -0.06196334 -0.031037787 0.0745402 0.02505002 0.036869757 0.06573574
0.040134992 0.015674278 -0.19561678 0.0033072496 -0.09735467 -0.18540303 -0.044995558 -0.032573633
0.006906258 -0.18542393 -0.032974813 -0.03536897 0.12703213 -0.0023788693 0.04400705 0.04812539
0.042354286 0.13339639 -0.03740455 0.0718022 0.29750532 -0.0039656684 -0.026824726 0.1515176
0.12145676 -0.06632814 -0.15137213 0.041494586 -0.08690313 0.008847323 0.11908591 0.10762273
