Homework_2/hw2_code/BipedalWalker-PPO_test/dir_save/we0_critic_180.pth (torch, 24543 bytes, 4 tensors)

0.weight f4 [64, 24]
00000000: b878 83bf 432e 67c0 b953 d03e 4122 45be
00000010: ee25 68be f54b 0bbe 8416 85be 8b78 7cbd
00000020: 4200 14be 0091 edbf 388f 123d 53e5 7fbd
00000030: 8aef dabd 616d ab3e 633b c53e c355 803d
00000040: 5b55 a73e 3f72 0fbe a77d 093e b569 16bc
00000050: c1a3 e23e a14d a33e f151 1c3f daea 10be
00000060: f2d1 42c0 ae52 4bc0 f908 f33f 1924 f6bd
00000070: 6dc0 02bf 1bb6 0dbe 5d4f b1bf 17b2 e4bc
00000080: 4ed7 9b3e 691a 0d3f f808 68be fe12 0cbe
00000090: 54fe e1bd cb8c 62be 215e 743d d2d9 663d
000000a0: f2e2 adbd 7f85 45bf 3fc5 03bf fb51 02bf
000000b0: 0293 20bf 6324 44be 7b15 643e 0962 983e
000000c0: 8260 73be 880d 1340 a513 8c3f 37fd dd3f
000000d0: 08ed a83e 4dfa 1f3e 7853 90be c594 293e
000000e0: c39f 2f3c a490 55bf 6946 7bbc 7c2c b53f
000000f0: 14ad 4f3c 099c cebe 5c6c 2abf 584a 5abe
00000100: ce41 bebe d628 e8bd 9886 9bbe b39d 1f3e
00000110: fa7e c9bc 0716 e53e 0b47 d13e 822b 2cbf
00000120: 017d 0a40 165d 3a40 ce48 24c0 5d89 9740
00000130: 12c5 a83f a823 343e c8bc d43e 06e8 3f3c
00000140: 6c3c cf3b 407f 893f 7103 233b 00af 383f
00000150: 6ad9 5ebd 50b5 e0bd fe33 b83e 89d6 81ba
00000160: 8aad 9dbd 9878 753d 6668 b53d 6024 d53d
00000170: 0260 f03e e5c6 673e 801a 1bbf c672 a2bf
00000180: 62b5 c93e 9da2 83bf 9184 b23f 65b8 2dc0
00000190: bfcc 3b3f 5d21 0c3e facd 803e d85b 833d
000001a0: e787 aa3e 266f 4dc0 1e04 d4bd 833d 89bf
000001b0: 8b8d 073e 58b4 06be 97bc 8f3e 9bd2 26bc
000001c0: 31fe 8abe b717 79be 6bd3 9dbd 122d a3be
000001d0: df01 b6be 7335 e93d a74b 7f3e d40e d83e
000001e0: 97c8 99bd 16ad 4c3f 4ff8 103f 5f10 f23e
000001f0: 933f 813e 3c2c 003f 73ad 31bd d0da 70bf
00000200: 0e43 20bf a551 c7be 0836 0e3e 651c 2d3f
00000210: 6d13 873e 7bb7 06bf 9690 51be 8ce8 0abf
00000220: 3882 2cbe 7133 333d 06d3 03bf eae1 d9be
00000230: 8217 e13d 3bc1 3fbe 7131 d1be 7480 4ebe
00000240: 25b9 433f 1a43 09c0 b0ff 8abe 57a2 f8be
00000250: 8dda 433d 7529 183c 8cd6 0d3e 3eaf 1bbc
00000260: 87b3 90bc 2714 653f 8248 04be be70 6d3f
00000270: a014 12be c310 92be ac63 863f 3b72 dd3e
00000280: bf73 123f 79e9 973d 1df9 f93e 3180 0c3e
00000290: 370f 2abe 0288 28bf 945f 03bf 4c5b ffbd
000002a0: 49d7 683f 2dac b1be 2325 1e3f 9550 d93f
000002b0: 89ed 963f 8e26 47be 9e62 45bd da6b ad3d
000002c0: ea38 26bd 9646 b8bf dbd3 8e3e c3f7 1ebf
000002d0: 462a 443d a84b bb3d d4c7 bebe 4841 1ebf
000002e0: 3c1d 2bbe 3756 ffbe 8e10 bcbe 33fa 8abe
000002f0: 6af5 f2bd 846e 28bf 961e a7be 5139 f53e
00000300: df12 f53c 7b3d 0440 2663 8fbf 3e90 eebf
00000310: baf4 8b3f dfa8 223e acf1 ab3e f4c9 a53d
00000320: 3ad2 06be 7311 15bd c11f b33d c94b 2f3f
00000330: 1313 07bd 7a98 88be 4eb1 8dbc 3048 813e
00000340: ad6a 203e 48b2 e33d a1b8 143f e42f 073d
00000350: c40a 503e 055a 3ebd dace b1be be5e 173c
00000360: f218 6fbf f7f8 ae3f dace 213e f642 e43e
00000370: 109a 87be 8fc6 333e c587 cfbe efd0 203e
00000380: 17f0 1d3d 45c8 0b3f e878 11be 897c 0240
00000390: ec6c 35be 71b9 8fbe 9886 16bf 8ab6 0cbe
000003a0: 2a54 4ebe 271d 2cbc c068 7c3d 7c8b 11bd
000003b0: 786b bf3d 8889 033e 4c79 41be 4286 8cbe
000003c0: 7989 a83d 43a5 febe 3f62 393f d6b5 c53f
000003d0: 78b9 063e 0d9b b9be 6652 0bbe aa4d 65be
000003e0: 6e20 cfbc bc72 91bf 116f da3e 23e2 3abf
000003f0: 696f 923d f86e fcbe a6f5 6fbf 080c 27bf
-1.0271215 -3.6121986 0.40688875 -0.19251348 -0.22670719 -0.13603194 -0.2599374 -0.061638396
-0.14453223 -1.8559875 0.035781115 -0.06247456 -0.1069022 0.33481887 0.3852187 0.06266358
0.3268231 -0.14008425 0.13426839 -0.009180476 0.4426556 0.31895164 0.6106253 -0.14152089
-3.044064 -3.1769214 1.8987113 -0.12018604 -0.5107487 -0.13838999 -1.3852345 -0.027916951
0.30437702 0.55118424 -0.22659671 -0.1367912 -0.11034837 -0.22124021 0.05966008 0.056360073
-0.08490552 -0.77156824 -0.5147285 -0.5090634 -0.62724316 -0.19154505 0.22273819 0.29762295
-0.23767284 2.297701 1.0943495 1.73429 0.3299334 0.15622826 -0.28188682 0.16560657
0.0107192425 -0.8342383 -0.015336611 1.41542 0.012675542 -0.4035342 -0.66571593 -0.21317422
-0.3715958 -0.11335914 -0.30376124 0.15587501 -0.02459668 0.44743368 0.40874514 -0.6725389
2.1638796 2.9119315 -2.5669436 4.735518 1.3185141 0.17591727 0.4155028 0.011713034
0.0063243415 1.0741959 0.0024873877 0.7214203 -0.05440656 -0.109720826 0.35977167 -0.0009905855
-0.076991156 0.05992946 0.08857803 0.104073286 0.46948248 0.22634466 -0.6058731 -1.2691276
0.39396197 -1.0284001 1.3946706 -2.7143795 0.7335929 0.13684602 0.25157148 0.06414002
0.3330681 -3.209909 -0.10352348 -1.0721897 0.13237588 -0.13154733 0.2807357 -0.010182048
-0.27147058 -0.24325453 -0.077063404 -0.31870323 -0.35548303 0.11387148 0.24931203 0.42198813
-0.075089626 0.7995161 0.5662889 0.47278115 0.25243816 0.50067496 -0.043378305 -0.9408388
-0.6260232 -0.38929477 0.13887799 0.6762145 0.26382008 -0.5262372 -0.20465311 -0.5426109
-0.1684655 0.04375023 -0.5149387 -0.4255517 0.10990812 -0.18726055 -0.40858033 -0.20166188
0.76454383 -2.1447206 -0.271482 -0.48561355 0.04781585 0.009287228 0.13851374 -0.00950223
-0.01766373 0.89483875 -0.12918285 0.92750156 -0.1426568 -0.28528413 1.0499167 0.43251213
0.57207865 0.07417578 0.4882287 0.13720776 -0.16607367 -0.6583253 -0.51317716 -0.12468585
0.909535 -0.34701672 0.61775416 1.6977717 1.179124 -0.19448301 -0.04818975 0.08467837
-0.04058162 -1.4396541 0.27896008 -0.62096804 0.047891878 0.0914529 -0.37261832 -0.6181836
-0.16710371 -0.49870464 -0.3673138 -0.27144012 -0.11863215 -0.65793633 -0.32640523 0.4789529
0.029916225 2.0662525 -1.1202133 -1.8637769 1.093406 0.15884732 0.33582819 0.0809516
-0.13166133 -0.036393594 0.08746291 0.68475014 -0.032977175 -0.2667883 -0.01729646 0.25250387
0.15665694 0.11117989 0.5809422 0.033004656 0.20316607 -0.046472568 -0.34728128 0.009238897
-0.9339744 1.3669728 0.15801564 0.44582337 -0.26484728 0.17556213 -0.4053327 0.15704702
0.038559046 0.5460246 -0.14206278 2.038851 -0.17717332 -0.28071168 -0.58799124 -0.13741508
-0.20149294 -0.010504997 0.061623335 -0.035533413 0.0934667 0.12845433 -0.18893927 -0.2744618
0.08229346 -0.4973546 0.72415537 1.5446117 0.13156688 -0.36251107 -0.13605651 -0.22392908
-0.025284018 -1.1363139 0.42662862 -0.7300131 0.07150156 -0.49303412 -0.93734205 -0.65252733

0.bias f4 [64]
00000000: c86b 6f3e 0ac9 a53e 6b52 d5be a0e8 4abf
00000010: d430 b03e ae4b 22be af51 063f 7ba4 c83e
00000020: 9f2f 8a3e 188b 9fbe 6645 83be a7d1 7cbe
00000030: f70c 89be 1865 e1be 8739 efbe 9c7e e53e
00000040: ecb3 5fbd 0ae0 aa3e 2017 d4bd 4d36 1cbe
00000050: abf6 c6be a2c9 4e3f e7a6 e3be 6cf2 35bf
00000060: e1db d4be 4426 4cbf 97fa f9be 7c74 a6bd
00000070: 4a49 ee3e 7c6d 0abd 14eb babd b321 d5be
00000080: 3f9c b4bd 7f94 88be 4780 60be 5145 2abf
00000090: 68cd d9be 39e9 9e3e e561 9dbe 718b b9be
000000a0: e1fc 4d3e 9ee5 e83d e693 883e ab01 e03e
000000b0: 670b 843d a091 423e a95d 7ebe 8cde 703e
000000c0: 1f3d 0e3f 1acc 663e 7c2c afbd bf58 8cbe
000000d0: 6a98 313f 3b90 1d3d a413 693f 7128 d0be
000000e0: bff9 733e 285b 0c3e 7fb4 803e f912 20be
000000f0: fce5 0ebf 544a 01be 4463 cf3e bede 51be
0.23380959 0.32379943 -0.41664442 -0.7926121 0.34412253 -0.15849182 0.5246839 0.3918799
0.26989457 -0.31160808 -0.25638884 -0.24689351 -0.26767704 -0.4402244 -0.46723577 0.44823158
-0.054614946 0.33374053 -0.10355973 -0.15255089 -0.38860068 0.8077642 -0.44463274 -0.7107303
-0.41574004 -0.7974589 -0.48823997 -0.081276864 0.4654029 -0.03379582 -0.09126869 -0.41627273
-0.08818864 -0.26675794 -0.21923934 -0.6651202 -0.42539525 0.3103731 -0.3073875 -0.36239198
0.20115997 0.11371921 0.26675338 0.43751273 0.06447487 0.19000864 -0.24840416 0.23522395
0.55562013 0.22538796 -0.085534066 -0.27411458 0.6937319 0.038467627 0.91045594 -0.40655854
0.2382574 0.13706648 0.25137708 -0.15632237 -0.5581968 -0.1262601 0.4050542 -0.20495126

2.weight f4 [64, 64]
00000000: e64a 8fbd 298c f6bd 8143 a63e da30 9fbf
00000010: f113 553d af03 603e cd0f 69bf 1c2b 0abe
00000020: e8d0 1bbf dfc6 983e fd0a d23e 63eb 16bd
00000030: f3d8 f43e 0b14 f53e ec9b 51bd b518 87bf
00000040: 23cc aabe 0c2b 68be bb95 053e c20d c03e
00000050: 614b 703e b569 13be be3b 1cbe 1cae 8e3e
00000060: 7596 873f 1781 91be 4e6b 7bbc 2953 5d3d
00000070: 306c e6be 8dc8 3bbf a707 c13d 2bd6 41bd
00000080: ff59 843e 96c5 0dbd 2b2d 0f3d 433b babc
00000090: 895d 663e 473a d83d 2b4b 593f 0008 a4bf
000000a0: 6f74 e43e d414 fabc 59e2 73bf ac57 71bf
000000b0: f162 fcbe 88c4 bdbe d23b ad3e 8083 b8bd
000000c0: 7aa9 e3be 3a3d a7be b060 673e 9e5b f83e
000000d0: b2ad 4ebf 2064 97be a3fc 5dbf cc42 25bd
000000e0: 2ec3 b9be e1cb 3dbf bc21 5ebe cd0f 8dbe
000000f0: 3410 5e3f 0d31 993e 6b8b 8dbf a033 98be
00000100: b906 d1be 989f a63f f60d 57bf 9944 ff3f
00000110: 9b88 c13e 41b4 19bf ebd0 b33e b6d3 c4be
00000120: aabc ca3e eb45 47bf 4206 40bf 203c 97be
00000130: 2931 02bf dc72 4cbf 2384 9cbc bb04 98bf
00000140: dbda 863f c2a5 003f abaa 6f3e 1952 2fbe
00000150: 64cf 45be 775b eebe 7760 0abf d036 173f
00000160: ebf4 81bf 5c5c e73f 528d b7bf cdfe 8bbf
00000170: 93a8 c5be a27d ad3e b671 e8be aad0 673f
00000180: d75b 583f 2eeb 563f 4765 d43e eed6 403f
00000190: 66e3 1e3e ad0a 503f c7cd 5cbf fd06 adbf
000001a0: 41cf 74bf 724b 95bf 8574 0e40 759a e43e
000001b0: 5c82 6abf e5bc 1a3f 0f81 933f 0285 99bf
000001c0: 2d0c 343f 86b8 30bf 58fa f73f bda8 b13e
000001d0: f654 343f a8bb 3abf 2810 17be 19e4 1cbf
000001e0: 834a c8be 7bcd 2d3e aea2 643f 318c 67bf
000001f0: d0d1 943f 064e 7b3c 238c 0dbf 6526 21bf
00000200: d43f 1fbd ef4c 0fbe 9620 48be 7103 8c3f
00000210: 232b 063f 75db ddbe be4c 853d 441d e8bd
00000220: b48a fd3e c523 37be 2d36 d6be 130c 643e
00000230: dc0c 8cbf bd76 bfbe 85d8 c43e df78 033f
00000240: ecfe 443d 571e f83e 24de b23b 7059 d6be
00000250: fe90 2dbe 10a4 c13d d6db 1d3e b35c ac3e
00000260: bd05 07bf de74 4c3f 49ed 9b3e baaa 03bf
00000270: 8038 ed3e a4fb b63e fd1d ccbe b4fb c33e
00000280: 9eeb 003e d46d c5bd 3b0e 7c3e 92d5 9abe
00000290: ab9f 63be b7d9 153b fcc9 0abf 8084 d63e
000002a0: 3c29 cabe 0517 88be 4f45 50be eb23 8e3f
000002b0: 9e27 55be 0a55 f43e 4ba8 9a3e 604c b7be
000002c0: 908e e93e 1390 43be 9306 9fbd 459d b7be
000002d0: 9bb6 c93f 7e30 bfbe 4966 893f 3247 f7be
000002e0: 868a b43d cd76 cb3e 6b4f b93e 5bb2 c93d
000002f0: d038 7abf 30c5 f0be eb20 71be f530 ddbe
00000300: 5248 aebe b8ec 04bd 701b f7be 302a b53f
00000310: 9099 4cbe eeb0 5abe 4ccc 16bf 3b57 6dbe
00000320: 1b48 e53d 8323 70bd ef10 47be ad07 943d
00000330: baeb 70be 3a98 adbe 68d2 06bc 9534 343e
00000340: ed2c e03e a5d3 683e 0c7d 123d a67a 34bf
00000350: df1a 90be 9d4c f93e f167 233e b0f2 5c3f
00000360: 5066 61bf dd01 a73e 1e0b d33e eea3 143e
00000370: 90cc 1b3f 9d10 d8bd fc34 36be 00ec ca3e
00000380: 584f cdbc 11e2 36be 030a efbc 3321 ad3e
00000390: 45bb 9a3e b9e2 cebd b52e bebe c97d 133f
000003a0: edce 96be 0ca9 f3bc 9986 253f a75e a13f
000003b0: 5080 783f f437 373f fce8 f6be 6204 063e
000003c0: 3847 933e a498 6c3e 34b3 0fbf 1277 8c3e
000003d0: 1795 5b3f bee5 6c3e 9e91 873d 005a 06be
000003e0: 16b1 f63e 7cc2 3b3f 1bb1 fd3d 5501 babd
000003f0: b4f5 8dbf d7c1 1d3d 1637 9fbe 05da ba3e
-0.069967076 -0.12038452 0.32473376 -1.2436783 0.05202097 0.21876405 -0.91039735 -0.13493007
-0.6086564 0.29839227 0.41024008 -0.036845576 0.4782177 0.47866854 -0.05117409 -1.0554415
-0.3335887 -0.22672671 0.13045399 0.37510496 0.23466255 -0.14395793 -0.15257165 0.2786721
1.0592791 -0.284188 -0.015345408 0.054034386 -0.45004416 -0.7335289 0.09425288 -0.047323387
0.25849912 -0.03461226 0.034955185 -0.022733336 0.22496618 0.105579905 0.8488032 -1.2814941
0.44620082 -0.03052751 -0.95267254 -0.942744 -0.49294236 -0.37064004 0.33834702 -0.09009457
-0.44465238 -0.326639 0.22595477 0.48507398 -0.8073379 -0.29568577 -0.8671362 -0.040346906
-0.36281723 -0.7413922 -0.21692556 -0.27551118 0.86743474 0.29920235 -1.1058172 -0.29726887
-0.4082544 1.3017454 -0.8400568 1.9942809 0.37799534 -0.6004067 0.3512033 -0.38442773
0.39597064 -0.7784106 -0.7500955 -0.2953806 -0.5085626 -0.7986276 -0.019105976 -1.1876444
1.0535539 0.50252926 0.23404948 -0.17121162 -0.19317394 -0.46554157 -0.54053444 0.5906801
-1.0152868 1.8075061 -1.4340003 -1.0937134 -0.38605174 0.33884913 -0.45399255 0.9055277
0.84515136 0.83952606 0.41483518 0.75327957 0.15516433 0.8126629 -0.8625149 -1.3517758
-0.95628744 -1.1663649 2.2258618 0.4464909 -0.9160516 0.6044448 1.152376 -1.1993716
0.7033108 -0.6903156 1.9373274 0.3469905 0.7044214 -0.7294259 -0.14752257 -0.6128555
-0.39119348 0.16972916 0.8931073 -0.9044829 1.162653 0.015338426 -0.55291957 -0.6294921
-0.03887923 -0.13994192 -0.1954368 1.093855 0.5240957 -0.43331495 0.06508778 -0.11333707
0.49519885 -0.17884739 -0.41838208 0.22270231 -1.0941424 -0.37395278 0.3844644 0.5135631
0.048094675 0.48460647 0.00545861 -0.4186511 -0.16949841 0.094551206 0.15415892 0.33664474
-0.5274313 0.79865825 0.30454472 -0.51432383 0.4633217 0.35738862 -0.3986663 0.38277972
0.12589881 -0.09640089 0.24614803 -0.30241066 -0.22228877 0.0022865364 -0.54214454 0.41897964
-0.39484584 -0.26580063 -0.20338939 1.1104711 -0.20815894 0.4772113 0.30206522 -0.35800457
0.4561658 -0.19097929 -0.07764926 -0.35862175 1.5758852 -0.37341684 1.073434 -0.48296505
0.08815484 0.39739075 0.36193404 0.09848472 -0.9774294 -0.47025442 -0.23547713 -0.43201414
-0.3403955 -0.032452315 -0.4826312 1.41535 -0.19980454 -0.21356556 -0.5890548 -0.23177807
0.11195394 -0.058627617 -0.19440053 0.072280265 -0.23527423 -0.33905202 -0.008228876 0.17598183
0.43784276 0.22736986 0.035763785 -0.70499647 -0.281455 0.48691264 0.15957619 0.8630781
-0.8804674 0.3261861 0.4121942 0.14515659 0.6085901 -0.10550044 -0.1779365 0.3963318
-0.025062248 -0.17859675 -0.029179579 0.33814391 0.30221 -0.10101838 -0.3714501 0.5761381
-0.29454747 -0.029743694 0.64658505 1.2607011 0.9707079 0.7156975 -0.48224628 0.1308761
0.28765273 0.23105103 -0.5613282 0.27434593 0.8577437 0.23134515 0.06619571 -0.1312027
0.4818198 0.73343635 0.12387296 -0.09082285 -1.1090608 0.03851494 -0.31096715 0.3649446

2.bias f4 [64]
00000000: 8231 b4be 7d46 2c3f cab4 fb3e 2395 9f3e
00000010: 0d06 063f 4ead 8bbe 3b28 edbc c8c5 5bbe
00000020: b5b7 bebe 0eaa 89be 0ee1 e53e 93f3 02bf
00000030: e36e d33e 4688 d9be 0afe 343f c057 04bf
00000040: 2ae6 18bf 4768 d13e b0fd 00bf 3f78 123f
00000050: 696f 7f3d 8ffb 033f 5d94 153f 5bf6 1c3f
00000060: fcaf 1bbf 63e6 e7be 7af4 223d 5c4e 1b3f
00000070: ba19 313e 9fef 173f 5264 243f 293f c63e
00000080: 0969 0f3f 2588 25bd adb5 26bf 086c 143f
00000090: a540 1c3f e188 0cbf eb4c fd3e a353 1abf
000000a0: 21e4 f93e 732a 143f 9b19 0fbf d2ae afbe
000000b0: 5335 113f 7e62 43bf 9275 02bf feed f53e
000000c0: 60b4 e6be 750d 673f 57bf 543e dd82 293f
000000d0: 1956 a73e d1b7 023f 3349 033f 3c32 cc3e
000000e0: 4210 45bf baca 8abe ede2 0c3f e8af 22bf
000000f0: 8853 1bbf 5786 273f 4125 153f 1431 cb3e
-0.3519402 0.67295057 0.4916137 0.3116847 0.5235298 -0.27280658 -0.028949847 -0.21462166
-0.37249532 -0.26887554 0.44898266 -0.51152915 0.41295537 -0.4248678 0.7070013 -0.51696396
-0.597262 0.4089987 -0.50387096 0.5721473 0.06236211 0.5155572 0.5842951 0.6131341
-0.60815406 -0.4529296 0.039783932 0.6066644 0.1729497 0.5935001 0.64215577 0.38720062
0.56019646 -0.04041304 -0.65120965 0.5797734 0.6103614 -0.5489636 0.49472746 -0.6028387
0.4880686 0.5787727 -0.55898446 -0.34313065 0.5672199 -0.7632216 -0.5096065 0.48033136
-0.4505949 0.9025491 0.20776115 0.66215307 0.32682875 0.5106173 0.5128357 0.39882076
-0.7697793 -0.27107793 0.5503376 -0.6354966 -0.60674334 0.6543936 0.5825997 0.3968588
