Homework_2/hw2_code/BipedalWalker-PPO_test/dir_save/we0_critic_linear_180.pth (torch, 1255 bytes, 1 tensors)

weight f4 [1, 64]
00000000: f762 fb3f bdaf 21c0 fdf5 03c0 5557 0fc0
00000010: 4de7 24c0 0d4c 0e40 632b fc3f 8614 2440
00000020: 2cd4 fa3f d0b7 ec3f 2e42 e9bf ef59 2a40
00000030: 4366 09c0 dab5 0240 36ee 04c0 f677 db3f
00000040: fa11 f93f 6c5f 03c0 c985 1b40 e8de 2bc0
00000050: 91b0 03c0 96ad 07c0 b5bd 00c0 90c1 e4bf
00000060: 4934 0040 f0d6 1640 8c18 04c0 e97e 1ac0
00000070: 4903 ddbf 59a5 f6bf 948d 21c0 5cec 0bc0
00000080: 4a49 16c0 6688 edbf a37d 0340 f852 dfbf
00000090: c07e 09c0 d6e1 f53f d26f 16c0 9488 f53f
000000a0: 726c 01c0 4f5c f1bf 2072 fd3f 86bf 3540
000000b0: e6ff fbbf 7b09 0040 bf14 2140 f787 1bc0
000000c0: 9e50 e43f 37d3 06c0 c486 fcbf 7e25 13c0
000000d0: 5bbe e0bf eb6d 0ac0 5615 f0bf e97c 10c0
000000e0: 13a1 eb3f a726 e93f 20e8 2ac0 361b 1140
000000f0: ebd2 f43f 74eb 04c0 d937 27c0 3ff1 05c0
1.9639577 -2.5263512 -2.061889 -2.2397053 -2.5766175 2.2233918 1.970074 2.5637527
1.9596 1.8493595 -1.8223321 2.661739 -2.1468666 2.0423493 -2.0770392 1.7145984
1.9458611 -2.052699 2.4300406 -2.68548 -2.0576518 -2.1199698 -2.0115788 -1.787157
2.0031912 2.3568687 -2.0639982 -2.413996 -1.7266628 -1.926921 -2.5242662 -2.1863012
-2.3482232 -1.855725 2.0545433 -1.7447195 -2.1483612 1.9209545 -2.350575 1.9182305
-2.022244 -1.8856295 1.9800453 2.8398147 -1.9687469 2.0005786 2.5168912 -2.4301736
1.7837102 -2.1066415 -1.9728627 -2.2991633 -1.7558092 -2.1629589 -1.8756511 -2.257624
1.8408531 1.8214921 -2.6704178 2.2672858 1.9126867 -2.076871 -2.6127837 -2.0928495
