Homework_2/hw2_code/BipedalWalker-PPO_test/dir_save/we0_actor_210.pth (torch, 24543 bytes, 4 tensors)

0.weight f4 [64, 24]
00000000: ed61 31bf 58d9 af3d 5d57 66be 8d5b cfbe
00000010: df5f 92bd adc5 08bf 6a5f 5d3f 4f23 89bd
00000020: f49e 343f 5b53 d1be f771 b73e b243 0f3f
00000030: a67c bc3e 3d74 c2be 7fba 563e a250 1abe
00000040: 98dc 9d3e b9b1 c03d ee60 ed3d 255b c7bc
00000050: 9870 ee3d 6457 ef3d c567 4cbd 7697 0cbf
00000060: 28b5 62bf d170 e9be 1c39 1b3e b078 94bf
00000070: 953b 99be 357b c9be dee3 ee3d 591e 9c3e
00000080: 0130 c03e 5e97 273f ce2c 293e f0ba 693f
00000090: 5b0a 213f ba8b 5fbf d526 57bb f887 a4bd
000000a0: 234b 8bbe 2faf d83d 7569 153e c6a1 883d
000000b0: 4b19 0dbe e097 b33d b59b fc3e 524e 41be
000000c0: 72dc 55be e620 943e 67b2 593e b940 8dbf
000000d0: 6f05 043e 7408 f43d 47c8 84bf 9080 083f
000000e0: 1d53 d73e abe6 0a3e dfaa 2fbf f19b 263f
000000f0: cf70 d23b 9443 cd3d 733b 68be 33ec cdbe
00000100: 7fda a23c f5fb b1be 2ded dcbd 5558 d9be
00000110: 1114 bc3e 418e babd 9c49 bc3e f9e6 0dbd
00000120: 9ae4 be3e f599 1dbf 97de 82bf 8e05 383f
00000130: 2d5a b8be 6b44 c33e 2999 813e 6c55 dd39
00000140: 4436 f03e 4b97 903e c7f8 9dbd bc86 14bf
00000150: 4874 a2be 2e03 c23e cc97 353e 8db6 d63e
00000160: 4811 953d 1bdf f2be c506 e6bd 3753 b23c
00000170: c952 6bbe 8593 023e 0b49 2ebe ba89 b4bc
00000180: c4d0 acbe 42d4 6a3f a532 a33e fb2e 4f3e
00000190: 6f78 22be e611 123f e371 9b3c d60f 77bb
000001a0: e7fd 403f dc56 0f3f 686d c9be 1d8c b23e
000001b0: 7ffb 853f 1f9c 7e3c 5b92 aabe 0744 61be
000001c0: d01b a63c 1d10 0abe 9c68 abbe 33fa bbbe
000001d0: 9592 f3be ec68 b7be ddda c53e 6170 1f3c
000001e0: 03b0 d3bd 90b6 48bf f1e2 9d3f bac3 6ebe
000001f0: c761 013f 0e16 d2be 1136 38bf b95e cc3e
00000200: 866c babe dcad 15bf a311 d73e d307 8c3e
00000210: 23dd 0c3e dc4c 223f cf69 cbbe 69dd 8dbe
00000220: 4eb3 87be cbf8 b73c 3a23 39be 6f4d fabe
00000230: 788a 553e 0712 5dbe a205 693d f0f2 043d
00000240: 1e3f 9abd fae4 92bf 0a27 c6be 5911 c43e
00000250: ef41 813d ebef 38bf 4789 97be c20e 793e
00000260: 648c 9cbe 03e7 173e 23d6 3ebe 9987 d43e
00000270: 52d2 36be b3f5 bfbe 47ab 333e 5cf3 04bf
00000280: 4d01 13be a9e4 6fbd 87f6 c6bc 7345 3abe
00000290: df1e bcbe 612f 08be 0b1a 62be b0e7 353f
000002a0: fb43 f8bb 10ad c43e 04f4 6a3e a64e 39bf
000002b0: cb34 333e 445a 4c3c 7396 be3e aa5a 04bf
000002c0: 3200 bebd e77f 49be 90f6 bcbe 5342 243e
000002d0: c4ac 8b3f 2e52 203e b88c d9be 068b aabd
000002e0: 8e65 adbe 76e7 4ebd ff72 7cbc d794 e2bc
000002f0: 6656 2abe b164 ecbe 2bba a0be 7580 7dbe
00000300: ca87 46bf 50b4 f6bf 16f7 393e 540c fbbf
00000310: d9a8 843e 3e12 803c 0cd4 9f3e 1469 3ebe
00000320: ac8c 64bd 0c7e 86be d8fe ae3d 16f3 70bf
00000330: b2f4 b63e 1b90 7dbe 442e cb3d c521 ed3b
00000340: f4f0 90bd b200 fbbe 6a0e 70be f39f 5f3d
00000350: d329 b4be 1d1a e8be b877 88be 2f8a d53c
00000360: ca0f 32bf 60eb 7bbf 49e0 c23e a6f1 f93e
00000370: 172e b33e e3ad b1be aaa1 10bf 406b 093f
00000380: 5b97 b83e 2310 1cbf ef30 cebe 4506 a73f
00000390: dc7f 213f 4880 c0bd aaed 61be 37bc 01be
000003a0: c6e5 14be 33eb 9fbd ab2d dfbe 649e 453e
000003b0: 8614 5bbe d65a 85be 721f dfbd 8ddc dfbd
000003c0: dcc7 5abb 56f0 c73f 4f34 043f e5cd c0be
000003d0: 4569 fd3d f791 c83c 9642 d03e 813f 1d3e
000003e0: cb83 9b3c 2f70 103e 2525 79be 5e28 3c3f
000003f0: fae2 84be b54a 1cbe 490a 80be 39d7 9abe
-0.6929005 0.08586377 -0.22494264 -0.40499535 -0.07147192 -0.5342663 0.86473715 -0.06696188
0.70555043 -0.40883908 0.35829136 0.5596267 0.3681385 -0.37979308 0.2096958 -0.15069821
0.30832362 0.09408898 0.115907535 -0.024335453 0.11642569 0.1168659 -0.04990365 -0.5491861
-0.8855767 -0.45593885 0.15158504 -1.1599331 -0.2992827 -0.39351812 0.11664556 0.30491903
0.37536624 0.65465343 0.16520998 0.9130087 0.62906426 -0.8732258 -0.0032829542 -0.080337465
-0.27205762 0.105802886 0.1459101 0.06671481 -0.1377918 0.08769202 0.49337545 -0.18877533
-0.20884874 0.2893135 0.21259461 -1.1035377 0.12892698 0.11915675 -1.037362 0.5332117
0.42055598 0.13564555 -0.68620104 0.650817 0.0064221392 0.10022655 -0.22678928 -0.40219268
0.019879578 -0.3476254 -0.10787425 -0.42450204 0.3673406 -0.09109164 0.3677491 -0.0346441
0.37283784 -0.61563045 -1.0224179 0.71883476 -0.360063 0.38138136 0.25312164 0.0004221605
0.469164 0.28240427 -0.07713466 -0.5801809 -0.3172934 0.3789305 0.17733687 0.4193615
0.07278687 -0.4743584 -0.1123176 0.021768196 -0.22980799 0.12751587 -0.17020051 -0.02203833
-0.33753026 0.9173013 0.31874576 0.20232765 -0.15866254 0.5705856 0.018975204 -0.0037698648
0.75387424 0.5599191 -0.39341283 0.34872523 1.0467376 0.015540152 -0.33314785 -0.21998607
0.020276934 -0.13482709 -0.33478248 -0.36714324 -0.4757277 -0.35822237 0.38643542 0.009731383
-0.10336306 -0.7840357 1.2334882 -0.23316851 0.5053982 -0.4103245 -0.719575 0.39916018
-0.36410922 -0.58468413 0.42005643 0.2734972 0.13756232 0.6339853 -0.39729163 -0.27707985
-0.26503986 0.0224575 -0.18079844 -0.48887202 0.20853603 -0.21588908 0.056890137 0.032458246
-0.0753157 -1.1476128 -0.3870166 0.38294485 0.06311404 -0.72241086 -0.29596922 0.24322036
-0.3057586 0.14834218 -0.18636374 0.41509703 -0.17853668 -0.3749214 0.17545806 -0.51933837
-0.14355965 -0.058567677 -0.024287475 -0.18190555 -0.36742303 -0.13299324 -0.22080247 0.7105665
-0.0075764633 0.38413286 0.22944647 -0.72385633 0.17500608 0.012472693 0.3722416 -0.5170084
-0.09277381 -0.19677697 -0.36906862 0.16040926 1.0912099 0.15656349 -0.42490172 -0.08327298
-0.33866543 -0.050513707 -0.015408277 -0.027658863 -0.16634521 -0.4617057 -0.31392035 -0.24756034
-0.7755095 -1.9273777 0.18160662 -1.9613137 0.2591007 0.015633699 0.31216466 -0.18594772
-0.055798218 -0.2626804 0.08544701 -0.9412092 0.35733563 -0.24762003 0.09920934 0.0072366917
-0.07077208 -0.49023968 -0.23442999 0.0545959 -0.3518816 -0.45332423 -0.26653838 0.026066868
-0.6955534 -0.9840603 0.3806174 0.48817176 0.349961 -0.34702978 -0.5649668 0.53679276
0.36052975 -0.6096212 -0.40271708 1.3048788 0.6308572 -0.09399468 -0.22063318 -0.12669455
-0.14540777 -0.078085326 -0.4358953 0.19298702 -0.21394548 -0.26045865 -0.108946696 -0.109307386
-0.0033383286 1.562022 0.51642317 -0.37657085 0.12373594 0.024483664 0.406758 0.15356256
0.018983742 0.14105295 -0.24330576 0.73499095 -0.2595442 -0.15262873 -0.25007847 -0.30242327

0.bias f4 [64]
00000000: 42a5 4fbd 2427 513d 5875 4bb9 1f20 2a3c
00000010: b341 27bc 21e4 ae3b bf19 0b3e cff0 17be
00000020: f359 1f3e 4dc3 8ebd bbfa ddbd e37d 96bd
00000030: 8c9c 9c3c bba4 f53d d88e b13c 8e5a 5c3d
00000040: 44c9 41be 1e34 1dbd dd19 533e 998f 213e
00000050: 3797 3ebe bd00 59bd c46f 4fbe 49aa c9bb
00000060: 7627 71be e5ab 123e e10a 3abe 414a 6ebd
00000070: 16fc 2ebe 87a2 aabb 6e1b 243d 88bb 22be
00000080: 7d3e 943d 3b28 9d3d 0b87 4fbb 7556 283d
00000090: 36dc 8e3c 93b2 05bd a2bf 85be a1ec a53d
000000a0: 96e5 47be be66 af3d b05a 693e cac2 e83d
000000b0: 0cef bdbd 494f 6e3e acc7 09bd d1b5 323e
000000c0: 7b4e c2bd 40f6 223e 490b 2c3d a33e 07be
000000d0: 6602 653d 8d89 d43d e804 03be 0490 0f3e
000000e0: a4c4 623d c9e2 843e 39f2 c13e 7c70 043e
000000f0: 0325 683e 3340 953e 7747 0b3e 9e33 f93c
-0.05069471 0.051062718 -0.00019403303 0.010383635 -0.010208535 0.0053372537 0.1358404 -0.14837955
0.15561657 -0.069708444 -0.10838839 -0.0734823 0.019117616 0.119943105 0.021674559 0.053797297
-0.18924433 -0.03837978 0.20615335 0.15777434 -0.18612371 -0.05297922 -0.20257479 -0.006154333
-0.2355021 0.14323385 -0.18168212 -0.058176283 -0.1708835 -0.005207363 0.04006522 -0.1589185
0.07238481 0.07673689 -0.0031666185 0.041098077 0.01743899 -0.032641005 -0.26122767 0.08101774
-0.19521174 0.085645184 0.22788501 0.11365278 -0.0927411 0.23272432 -0.033637688 0.1745217
-0.09487625 0.1591425 0.04200295 -0.13207488 0.05591049 0.10377798 -0.1279484 0.14019781
0.055363312 0.25954273 0.37880114 0.12933534 0.22670369 0.29150543 0.1360148 0.03042012

2.weight f4 [64, 64]
00000000: e167 023f 21fb 803e b182 963d eb42 b9bd
00000010: 7492 39be b012 523f 2564 973e 1678 a33d
00000020: fef1 cf3e 1d93 953e 28f2 33bd b0f5 373d
00000030: 5e69 0ebf 7024 b4bd 0b13 a7bd 6da1 303e
00000040: 41a5 363e 3728 8c3f 5733 94be 2abf 3bbe
00000050: 2f9a a5be c6f8 b23d c522 503f d4ed ab3d
00000060: b2a6 bfbb 2f77 ae3d 7d66 3cbe 95ee cc3e
00000070: 7a49 16bf 01ec a4be e29d f13e 9f98 803e
00000080: 4ea1 1fbf 0a6f 2b3e 5d5b 37be 0fbc 06be
00000090: 68d8 46bf d7c8 693c 0913 e3bd 14c6 583e
000000a0: 65a4 f8bd 9924 92be 0c5d cf3e c6f7 633f
000000b0: 7778 cb3d 32ca 8b3e 5310 ab3d 259d 8b3b
000000c0: 3aa6 a6be 78c8 3fbf 10e7 6bbe 831c c7be
000000d0: e8e8 b73d 77af 833e 121b 4b3c 6cbf 2abe
000000e0: 2a18 33bb 997e d2be 5607 cabe b269 1b3d
000000f0: ae81 b1be 87b7 c23c c001 d0bd 9620 80bd
00000100: 51b2 813e 12db c93e 8eec ff3e a587 0c3e
00000110: c316 ad3d 31b1 ccbc 0f02 5fbe 0faf 183f
00000120: 0539 4e3e 47b8 8cbd f3ec 9b3e f8b7 d73d
00000130: 01ff bcbc dc09 cfbd bb99 e83d 6281 a23d
00000140: e6a5 c4bd 9eb4 dc3e 6b5c 19bf 99db c73e
00000150: aaaf f9bc 7cc0 55be 3a28 5b3f 214a be3e
00000160: 8a59 243e b3c9 803b 8430 9bbd e8d3 9cbd
00000170: 3ec7 17bf f8aa c8bd a79c 8e3e e9b0 fc3d
00000180: 4c44 83be ab99 8dbd 93ec 963d 8df3 8abf
00000190: 494b 9cbb d81a e53e ce69 413d e4b8 8bbe
000001a0: 929e 9e3e 0348 eabc df73 d93d 01c3 ed3e
000001b0: 05a7 e2be d123 1b3e 67c4 413c 4c23 153e
000001c0: e2f4 1fbe 2aa4 c2be 0de6 f33d d27c c3bd
000001d0: f036 873e bc6d e2bd 7a14 073f 2875 d73c
000001e0: 1137 fa3c 3e96 7cbe 5bd1 b2bf 8dcb 0cbe
000001f0: 991f 093e 3497 6abd 15d4 c3be c366 2ebe
00000200: a0bb 883d 9b9c 793e 631f b03e 2d42 c9be
00000210: 0b13 bd3d ce90 f03e 7475 6cbe 4b3d 393e
00000220: 30d8 183f 029e c53e 01dd 1a3b 0bdb 55be
00000230: 4544 353e b47a f73e d8b7 5b3e 0612 dd3e
00000240: 5cca ecbe d574 693f d5f6 9c3e 2ee8 78be
00000250: cc22 cdbe 6ab2 67be 72a1 74be 5d16 d0bd
00000260: 3430 f9bd e8cd 913e 2c0b d73e 415e 15be
00000270: ab04 f73e bb8f 8bbc 3a7e 103d 3516 8c3d
00000280: 51c7 823e cd68 da3c 1952 52bf 08f0 263f
00000290: 3e5a 4cbf ee85 24bf c8cd a13e a017 703d
000002a0: 68d8 a1be 0422 c13c 3870 82be 2769 80be
000002b0: 0c49 853e 2260 f13e 205e 9f3b 5374 89be
000002c0: 6ba3 a93b d8de 9cbc 6485 1b3e 09e2 b7bd
000002d0: 3a8e 573e 56d7 29be b5d2 4ebe f73a ab3d
000002e0: e341 cabe 4038 e93d beda 16be 2283 e03d
000002f0: 2288 66bd 542e 95be 1c11 ff3e 20bb 5d3e
00000300: 5a45 ce3e f387 b4be fcab 56bf e5ad b5be
00000310: 5f1c ea3d f74e a4be 1e05 86be 98f1 34be
00000320: 7bbd 013f ade7 1cbf 216b a3be fdf6 423e
00000330: aec5 c2bd a362 36be 1414 83be 79eb 86be
00000340: 972d af3e ceba 96bd 283f acbb 3b06 f63d
00000350: 395d 513c 0d8b 1e3f dc9d 53bd e286 8f3d
00000360: 0b7a b3be 3689 a73e feea 20be 1b30 aa3d
00000370: ca48 7dbe 039e 96bd 7663 ddbe 6814 823e
00000380: 4148 a6bd bb6a bdbd bb09 6d3e 04a2 573e
00000390: 50ee a3bc b5ce a6be 7e4e d4be 87c7 01bb
000003a0: cb4d 9cbe 7480 58be 88fb 423d 163a c8bd
000003b0: 68ef 44be 1ee2 50be e671 b23d cad4 56be
000003c0: 1188 d2be a75b 183f d59c 913e beec e93d
000003d0: 71dd 40be 9b6a 10bf c99d 22bf af8c ffbc
000003e0: 3ed8 80bd cd87 cabe 9824 863e e8b8 103e
000003f0: 072e e3bc f32a 9d3c 8596 573f d7eb 7dbd
0.50939757 0.25191596 0.07349146 -0.09045967 -0.18122274 0.82059765 0.29568592 0.07981889
0.40614313 0.292138 -0.04393211 0.04491204 -0.5562953 -0.087960124 -0.08157929 0.17249079
0.17836477 1.0949773 -0.2894542 -0.18334642 -0.32344195 0.08738856 0.81303054 0.083949715
-0.005848729 0.08518826 -0.18398471 0.40025774 -0.58705866 -0.32211307 0.47190768 0.2511644
-0.62355506 0.16741577 -0.17905946 -0.13157676 -0.7767396 0.014269075 -0.11087615 0.21169311
-0.12140731 -0.28543547 0.40500677 0.8904995 0.09935086 0.273027 0.08352723 0.0042606764
-0.32548696 -0.74915266 -0.23037362 -0.3888894 0.0897997 0.25719807 0.012396591 -0.16674584
-0.0027327635 -0.4111221 -0.39458722 0.037942596 -0.3466925 0.023769153 -0.10156584 -0.06256215
0.25331357 0.3942495 0.49985164 0.1372362 0.08451607 -0.024986835 -0.21778129 0.5964212
0.20138939 -0.068710856 0.30454215 0.10533136 -0.023070814 -0.101093024 0.11357447 0.07934834
-0.09601955 0.4310655 -0.59906644 0.39034727 -0.030479271 -0.20874208 0.85608256 0.3716593
0.16049781 0.0039302944 -0.07577613 -0.076576054 -0.59288394 -0.09798235 0.2785389 0.123384304
-0.25638044 -0.069140755 0.07369342 -1.0855576 -0.004769717 0.44747043 0.047220044 -0.27289498
0.30980355 -0.028598791 0.10617804 0.4643784 -0.4426805 0.15150382 0.011826611 0.14564246
-0.15620759 -0.38015872 0.11909113 -0.09545292 0.264091 -0.110560864 0.5276562 0.026300982
0.030543836 -0.24666688 -1.397014 -0.13749523 0.1339096 -0.057273105 -0.38247743 -0.17031388
0.06676412 0.24376146 0.34398946 -0.393083 0.09232148 0.46985477 -0.2309168 0.18089788
0.59704876 0.38597113 0.0023630264 -0.2088434 0.17701824 0.48335803 0.2145685 0.43177813
-0.46248138 0.91193897 0.30657068 -0.2430732 -0.4006561 -0.22626653 -0.23889711 -0.101605155
-0.12167397 0.28477407 0.4200071 -0.14586736 0.4824575 -0.01703631 0.03527663 0.06840173
0.2554269 0.026661301 -0.8215652 0.6521001 -0.798252 -0.6426686 0.3160231 0.05861628
-0.31610417 0.02357579 -0.2547624 -0.25080225 0.26032293 0.47143656 0.0048635155 -0.2684656
0.0051769516 -0.019149229 0.15187603 -0.0897866 0.21050349 -0.1658605 -0.20197566 0.08360856
-0.39503393 0.11387682 -0.14731881 0.109625116 -0.05628217 -0.29136908 0.4981774 0.21653414
0.40287286 -0.3525997 -0.8385618 -0.35484233 0.114311926 -0.32091495 -0.2617578 -0.17670286
0.5067975 -0.6129101 -0.3191767 0.19039531 -0.09510361 -0.17811064 -0.25601256 -0.26351526
0.3421447 -0.07359849 -0.0052565522 0.12012907 0.012778574 0.61930925 -0.05166422 0.07008149
-0.3505405 0.3272187 -0.15714642 0.08309957 -0.24734798 -0.07354357 -0.43239945 0.25406194
-0.0811925 -0.09248873 0.23148243 0.21057898 -0.020011097 -0.3257958 -0.41466135 -0.0019802765
-0.305281 -0.21142751 0.04760316 -0.09776704 -0.19231951 -0.20398757 0.08713131 -0.2097961
-0.41119435 0.5951485 0.28439966 0.11422108 -0.18834473 -0.5641267 -0.6352201 -0.031195013
-0.06291245 -0.39556733 0.26199794 0.14133036 -0.027731908 0.019185519 0.8421405 -0.061992493

2.bias f4 [64]
00000000: 9600 e1be 2d73 afbe 30f6 b03d a252 e33c
00000010: 1761 39be 0261 b63e 1c96 ff3d 461d 81bd
00000020: 4fd4 6dbe 1132 dbbe 0761 e53e abad 3ebd
00000030: b58b 603b 1ce0 42be fffe 3e3e 8cef 9f3d
00000040: b2af 84be 3889 7cbe 4261 4f3d bc33 c33d
00000050: 39f2 f83d ade6 7d3c ea77 d8bc 2516 343d
00000060: b05b 063e 2acb 55bb c470 75bd 41b5 b2bd
00000070: e9b9 8a3e 3be7 163d 8baf 01bc 2b92 fc3d
00000080: f391 02be fdf7 9b3d e834 a5be 012c 433e
00000090: 4013 15be ca25 6abe 0cea 58be 7b29 19be
000000a0: 8f4a 49bc 2222 80be 261a 35be 29f5 a4bd
000000b0: 21d4 e43d 7d5b 573d 0009 583d 7768 a23e
000000c0: 83c6 003e f7da 873d 75cd 4dbd af86 173d
000000d0: d595 a83e 60b0 593e d615 703d 0e34 a33d
000000e0: 0670 593d 868e babd 3521 5bbe 3629 cbbd
000000f0: 833a a33d e8d5 113e e15b 8f3e a1e4 9d3d
-0.4394576 -0.3426756 0.086407065 0.027749363 -0.18103443 0.35620886 0.12479803 -0.063044116
-0.2322552 -0.42811635 0.44800588 -0.04655234 0.003426296 -0.19030803 0.18651961 0.07809362
-0.25915295 -0.2466172 0.05062986 0.09531352 0.12155575 0.015496892 -0.026424367 0.04396643
0.13120914 -0.0032622316 -0.059921995 -0.08725978 0.27094963 0.036841612 -0.007915388 0.12332567
-0.12750988 0.076156594 -0.32266927 0.19059755 -0.14558125 -0.22865978 -0.21183032 -0.1495723
-0.012285843 -0.2502604 -0.17685756 -0.08054573 0.11173273 0.052577484 0.052742958 0.31720325
0.12575726 0.06633561 -0.050244767 0.03699368 0.32926813 0.21258688 0.058614574 0.07968913
0.05308535 -0.091092154 -0.21399386 -0.0991997 0.079701446 0.14241755 0.27999786 0.07709623
