Homework_2/hw2_code/BipedalWalker-PPO_test/dir_save/we0_critic_linear_-100.pth (torch, 1255 bytes, 1 tensors)

weight f4 [1, 64]
0	0x3fdd220b	1.7276014
1	0xbff4bc7e	-1.9120023
2	0xbfe67bc0	-1.8006516
3	0xbffed827	-1.9909714
4	0xbff3ab38	-1.9036627
5	0x3ff337c5	1.9001395
6	0x3fe49e38	1.7860785
7	0x3fc32da6	1.5248306
8	0x3fdc495c	1.7209888
9	0x3fd20777	1.6408528
10	0xbfbca41e	-1.4737585
11	0x3ff7900e	1.9340837
12	0xbff89ffa	-1.9423821
13	0x3fd27af5	1.6443774
14	0xbfeef395	-1.8668085
15	0x3fba20bb	1.4541239
16	0x3fd70532	1.679846
17	0xbfbdcdec	-1.4828467
18	0x3ff9e5f7	1.9523305
19	0xbff5e720	-1.9211159
20	0xbfce416a	-1.6113713
21	0xbfd1c761	-1.6388971
22	0xbfdff32b	-1.7496084
23	0xbfc937aa	-1.5720112
24	0x3fdf042c	1.7423148
25	0x3fe1d0d2	1.7641852
26	0xbfdb589d	-1.7136418
27	0xbff0b6ab	-1.8805746
28	0xbfd5dc28	-1.6707811
29	0xbfd4d673	-1.6627945
30	0xbff5a3e6	-1.9190643
31	0xbff34364	-1.9004941
32	0xbfedd991	-1.8582021
33	0xbfdadff0	-1.709959
34	0x3fe559cb	1.7918028
35	0xbfbdec89	-1.483781
36	0xbfe9d07e	-1.8266752
37	0x3fd4547e	1.6588285
38	0xbfcf7f29	-1.6210681
39	0x3fd46823	1.659428
40	0xbfe7ee21	-1.8119546
41	0xbfd02682	-1.6261752
42	0x3fdc31cd	1.7202698
43	0x3fe55ef1	1.7919599
44	0xbfdaab7d	-1.7083584
45	0x3fe62c70	1.7982311
46	0x4004b525	2.0735562
47	0xbfe533e9	-1.7906467
48	0x3fc24e47	1.5180138
49	0xbff10f81	-1.8832856
50	0xbfd1a801	-1.6379396
51	0xbfeaadf8	-1.8334341
52	0xbfec5d49	-1.8465968
53	0xbff0bc69	-1.8807498
54	0xbfcea76e	-1.6144845
55	0xbff4325b	-1.9077867
56	0x3fce9861	1.6140252
57	0x3fe463d6	1.7842968
58	0xc0012d22	-2.0183797
59	0x3fd71d30	1.6805782
60	0x3fd389df	1.652645
61	0xbff3a75b	-1.9035448
62	0xbffe5fd3	-1.9872993
63	0xbfd9b082	-1.7006991
