Homework_2/hw2_code/BipedalWalker-PPO_test/dir_save/we0_actor_120.pth (torch, 24543 bytes, 4 tensors)

0.weight f4 [64, 24]
-0.2589492 0.48342565 -0.3571883 -0.44582638 -0.08595531 -0.6048987 0.6403034 -0.1225056
0.40219107 -0.3068934 0.32314554 0.21311912 0.2532062 -0.27409813 0.16967933 -0.19147833
0.26885355 0.0605168 0.086548604 -0.049440566 0.09310238 0.080320045 -0.07114682 -0.5941241
-0.5288296 0.11317892 0.041168086 -1.2261506 -0.28467232 -0.20735554 -0.008727673 0.33696043
0.17262122 0.49253592 0.09039144 0.43098885 0.6032231 -0.7071105 -0.04501578 -0.12257928
-0.31338447 0.064010136 0.09977022 0.018507507 -0.1870144 0.030871708 0.45697218 -0.19122504
-0.20024061 0.36022392 0.071000166 -0.5531362 0.1930709 0.23302196 -0.66566736 0.2508088
0.13674845 -0.0092660235 -0.45515028 0.5111253 0.013738339 0.06693321 -0.21839747 -0.3918671
0.029958723 -0.3365429 -0.099539064 -0.4190718 0.37081915 -0.08802004 0.36222118 0.03738742
0.1550438 -0.7343558 -0.65085214 0.7039829 -0.29679316 0.4779726 0.0014560322 0.107231624
0.3544519 0.3248835 0.065916516 -0.61041033 -0.23868252 0.4032641 0.14695236 0.39213708
0.048739735 -0.49788716 -0.13401861 0.0025619138 -0.2442798 0.12695983 -0.14959428 -0.041793026
-0.28402293 0.8787704 0.15847196 0.0372297 -0.16493626 0.4252709 0.07029504 -0.08405434
0.4510031 0.49269858 -0.3726528 0.21203305 0.8945557 -0.0035265684 -0.28366476 -0.17505898
0.06374965 -0.08992186 -0.29083252 -0.3249429 -0.43120188 -0.30955237 0.41561446 0.06141074
-0.108413905 -0.46477014 0.72674805 -0.0187458 0.43399897 -0.31851324 -0.52768785 0.38696963
-0.41951162 -0.4133926 0.58520436 0.3116988 0.16004904 0.42538217 -0.3762827 -0.25320265
-0.24061434 0.04770504 -0.15366696 -0.4630599 0.22674392 -0.21357398 0.032876026 0.034595463
0.1533554 -0.72668743 -0.32873344 0.7347969 0.0072727967 -0.46808785 -0.19583365 0.19443521
-0.21085662 0.2414009 -0.17809536 0.24028425 -0.12050238 -0.105607845 0.11614966 -0.5714753
-0.1886844 -0.101235166 -0.06582537 -0.2217743 -0.40967754 -0.17293128 -0.27459916 0.6584084
-0.02703678 0.32696557 0.19100392 -0.7816145 0.16212302 -0.017783575 0.3108357 -0.31080395
-0.16274548 -0.13531123 -0.44888896 0.1461138 1.0552214 0.17247213 -0.37671074 -0.035390817
-0.28781742 0.0051206457 0.042541157 0.029691761 -0.1117967 -0.41523114 -0.27282384 -0.21693176
-0.6258325 -1.6926211 0.2756206 -0.9212538 0.19206366 0.092456035 0.24353242 -0.118815415
-0.020115355 -0.15130258 -0.06438468 -0.82778525 0.40144035 -0.31068963 0.18930838 0.10553619
0.037683524 -0.37837806 -0.12117872 0.1648001 -0.25056204 -0.36696053 -0.24939159 0.0019913008
-0.601362 -0.5724867 0.2910604 0.74171066 0.40734273 -0.33448106 -0.33171055 0.4829757
0.075194255 -0.47126833 -0.12044584 1.097266 0.313034 0.07003459 -0.13818642 -0.041327
-0.055705905 0.018347926 -0.33698925 0.29611656 -0.11261702 -0.16963044 -0.037991334 -0.018774176
0.10184786 1.4590899 0.36197618 -0.52411664 0.16279726 0.10886814 0.46440035 -0.0074670534
0.03338904 0.090182215 -0.15630223 0.6015927 -0.23336786 -0.061305705 -0.24926671 -0.30538785
00000000: fd94 84be 9183 f73e 63e1 b6be 5b43 e4be
00000010: 5609 b0bd a4da 1abf ecea 233f 37e4 fabd
00000020: fdeb cd3e 2221 9dbe 5573 a53e e63b 5a3e
00000030: 3ea4 813e 9756 8cbe 6bc0 2d3e e512 44be
00000040: 2ca7 893e 77e0 773d 6540 b13d 3182 4abd
00000050: 76ac be3d d67e a43d 6db5 91bd 8418 18bf
00000060: 6061 07bf 59ca e73d de9f 283d 81f2 9cbf
00000070: 92c0 91be 0355 54be 84fe 0ebc 1486 ac3e
00000080: 9ec3 303e ab2d fc3e 261f b93d 92aa dc3e
00000090: d46c 1a3f 3205 35bf 7762 38bd d80a fbbd
000000a0: ee73 a0be bf17 833d 5454 cc3d 0e9d 973c
000000b0: b480 3fbe aae6 fc3c 42f8 e93e 7fd0 43be
000000c0: e00b 4dbe 456f b83e 8968 913d 569a 0dbf
000000d0: 61b4 453e 4f9d 6e3e 2d69 2abf 036a 803e
000000e0: c907 0c3e 85d0 17bc 7509 e9be 1cd9 023f
000000f0: c516 613c 4714 893d 96a3 5fbe cea2 c8be
00000100: ff6b f53c 5a4f acbe 23db cbbd 9490 d6be
00000110: 02dc bd3e da43 b4bd 0e75 b93e 8d23 193d
00000120: cdc3 1e3e befe 3bbf 3f9e 26bf 3938 343f
00000130: 46f5 97be d3b8 f43e 55d8 be3a 419c db3d
00000140: b87a b53e 2157 a63e 3dff 863d da43 1cbf
00000150: 3169 74be a278 ce3e ae7a 163e 31c6 c83e
00000160: 51a3 473d 11eb febe 2d3c 09be c8e5 273b
00000170: 7c24 7abe c201 023e 3e2f 19be 2a2f 2bbd
00000180: 746b 91be 19f7 603f 7946 223e 2b7e 183d
00000190: 0de5 28be 1bbd d93e d9f6 8f3d af24 acbd
000001a0: e1e9 e63e fd42 fc3e 59cc bebe 311f 593e
000001b0: 9a01 653f 001e 67bb 823c 91be a942 33be
000001c0: 2d8f 823d f428 b8bd 00e8 94be ea5e a6be
000001d0: 7ec6 dcbe a67d 9ebe 6bcb d43e d489 7b3d
000001e0: 1c08 debd 5af6 edbe 290c 3a3f cb90 99bc
000001f0: 1d35 de3e 2b14 a3be 8d16 07bf e220 c63e
00000200: 3aca d6be 32a8 d3be f4cf 153f fc96 9f3e
00000210: e5e3 233e b1cb d93e 20a8 c0be c7a3 81be
00000220: 9b63 76be 5c66 433d df5a 1dbe 3016 edbe
00000230: 8f2f 683e 23b3 5abe 03a9 063d f9b3 0d3d
00000240: 3309 1d3e 3008 3abf c04f a8be a61b 3c3f
00000250: a450 ee3b 36a9 efbe 9e88 48be 061a 473e
00000260: ccea 57be cc31 773e a15e 36be 130d 763e
00000270: f4c9 f6bd ed48 d8bd dfdf ed3d 354c 12bf
00000280: 7c36 41be 6254 cfbd 74cf 86bd cd18 63be
00000290: 41c1 d1be e614 31be 4398 8cbe 748d 283f
000002a0: 3d7c ddbc 0868 a73e 8896 433e e317 48bf
000002b0: 9403 263e dcae 91bc db25 9f3e b221 9fbe
000002c0: c0a6 26be 078f 0abe c6d4 e5be db9e 153e
000002d0: 7f11 873f 899c 303e 3be0 c0be f6f5 10bd
000002e0: ce5c 93be 17cb a73b a33f 2e3d 233c f33c
000002f0: abf5 e4bd 2d99 d4be 91af 8bbe 5c23 5ebe
00000300: 8f36 20bf cfa7 d8bf 251e 8d3e 4ad7 6bbf
00000310: 56ac 443e 9759 bd3d 9060 793e 7f55 f3bd
00000320: f5c8 a4bc 10ef 1abe 1ddc 83bd bce9 53bf
00000330: 9789 cd3e b612 9fbe 0eda 413e 5c23 d83d
00000340: 0a5a 1a3d c5ba c1be 8c2c f8bd 5bc1 283e
00000350: ab49 80be 40e2 bbbe 8260 7fbe 7c80 023b
00000360: dcf2 19bf 7d8e 12bf de05 953e c0e0 3d3f
00000370: 3a8f d03e 1a41 abbe f7d5 a9be 9748 f73e
00000380: 72ff 993d 154a f1be 4fac f6bd 3673 8c3f
00000390: fe45 a03e 4c6e 8f3d be80 0dbe 8046 29bd
000003a0: e02b 64bd 644e 963c db89 acbe 979c 973e
000003b0: c1a3 e6bd 9ab3 2dbe cd9c 1bbd 4dcc 99bc
000003c0: 9c95 d03d 75c3 ba3f f154 b93e 822c 06bf
000003d0: 53b4 263e 42f6 de3d e2c5 ed3e 2fae f4bb
000003e0: f2c2 083d 74b1 b83d b10d 20be fb01 1a3f
000003f0: fcf7 6ebe b11b 7bbd c63f 7fbe cc5b 9cbe

0.bias f4 [64]
-0.096867435 0.046974648 0.070250854 -0.0058347704 0.040399347 0.0058000223 0.08667972 -0.122235246
0.13288742 0.02037997 -0.09370514 -0.042229217 0.02243555 0.09651107 -0.06278079 0.05554562
-0.13580641 -0.06563673 0.15792279 0.099007964 -0.1627257 -0.013716098 -0.187661 -0.018657178
-0.21681707 0.07542463 -0.12586953 -0.06056362 -0.1790997 -0.02264808 -0.027390176 -0.14861512
-0.029245863 0.031145915 0.030280953 0.08488026 -0.03157982 -0.02002014 -0.2330419 0.073514886
-0.18303534 0.11358706 0.17416483 0.0455357 -0.09711737 0.17505905 -0.09876038 0.10400647
-0.05930506 0.14671654 0.085174344 -0.16479063 -0.009889939 0.041117467 0.04807632 0.0953326
0.10213905 0.16908723 0.36367032 0.11511121 0.10595372 0.20287499 0.08824808 -0.0374702
00000000: 6f62 c6bd 7d68 403d aedf 8f3d 9a31 bfbb
00000010: c979 253d 1d0e be3b 2385 b13d 7956 fabd
00000020: a413 083e e5f3 a63c 7be8 bfbd 8bf8 2cbd
00000030: c2ca b73c 99a7 c53d 3793 80bd ce83 633d
00000040: d610 0bbe 8d6c 86bd 83b6 213e b0c4 ca3d
00000050: 91a1 26be 7cb9 60bc 352a 40be f0d6 98bc
00000060: 4b05 5ebe 3a78 9a3d f1e3 00be 8f11 78bd
00000070: e965 37be 7788 b9bc 5d61 e0bc 902e 18be
00000080: 0595 efbc b825 ff3c c30f f83c b4d5 ad3d
00000090: d759 01bd 4701 a4bc 89a2 6ebe f98e 963d
000000a0: 9e6d 3bbe 55a0 e83d 4458 323e a483 3a3d
000000b0: 79e5 c6bd ae42 333e e242 cabd 5801 d53d
000000c0: dde9 72bd dc3c 163e e36f ae3d e0be 28be
000000d0: 6909 22bc ca6a 283d adeb 443d bd3d c33d
000000e0: 472e d13d 3425 2d3e ff32 ba3e 6dbf eb3d
000000f0: 44fe d83d 76be 4f3e 69bb b43d 5a7a 19bd

2.weight f4 [64, 64]
0.12568632 0.016907183 0.2814369 -0.08530989 -0.2938808 0.94935673 0.19967304 -0.32316804
0.08598282 0.33802426 -0.20796527 0.058606196 -0.36533424 -0.09603614 -0.0067276624 0.58527523
0.045215677 0.58761764 -0.17685668 -0.42958885 -0.4923966 0.28250903 0.5354703 0.28231898
0.0055756164 0.16215497 -0.06017821 0.33361405 -0.10706114 -0.1561962 0.21145461 -0.20271714
-0.1960979 -0.0074513415 -0.42540482 0.15267715 -0.48198056 -0.21437216 0.14486542 0.28761494
-0.12063085 -0.6088241 0.036687545 0.7364518 0.04012184 0.10813625 0.07452609 -0.016509993
-0.14261115 -0.7551477 -0.09794679 -0.13211064 -0.22664925 0.23240663 0.07323797 -0.15709485
0.10300702 -0.11217243 -0.075612545 0.33900592 -0.58886254 -0.020579267 -0.10393773 0.0019964857
0.10039071 0.2852776 0.39261836 0.057365064 0.051655713 0.13341352 -0.23034659 0.24216224
0.08448009 -0.05519706 0.22170967 0.094164796 -0.1620029 -0.14027426 0.14718576 0.1769493
-0.13097584 0.4310363 -0.606914 0.021958532 -0.011886504 -0.19272543 0.8014974 0.3867335
0.25785917 -0.028845781 -0.043412816 -0.11993969 -0.5241676 -0.14440869 0.21125561 0.070179105
-0.11323868 -0.24038027 -0.071083434 -0.8160176 -0.053997193 0.32769766 -0.027620068 -0.2546199
0.17730889 -0.12583724 -0.017790375 0.33613852 -0.44965664 0.048740417 0.07375376 0.12380432
-0.22815341 -0.40845117 0.26902616 0.04795632 0.15941815 -0.09222933 0.32698014 -0.02871823
0.016392004 -0.38237092 -0.97509027 -0.1546404 -0.08149407 -0.06751067 -0.21602103 -0.15049428
0.089066476 0.23216006 0.1988387 -0.3926742 -0.08981086 0.23948471 -0.07742846 0.15470588
0.39385375 0.24778003 0.21786211 -0.15815733 0.22483364 0.31844276 0.093822554 0.32060623
-0.16448188 0.42547184 0.28844512 0.15903491 -0.19406945 0.045766942 -0.31637314 -0.028246121
-0.08841554 0.3047721 0.38799712 -0.012288411 0.4082401 0.049076743 -0.042495873 0.13095807
0.1854682 0.09605415 -0.30083874 0.4060387 -0.68628573 -0.2752939 0.1871035 0.02772105
-0.069694705 0.07011039 -0.16167985 -0.22228907 0.32820868 0.23616184 0.09124228 -0.1984159
0.12641774 -0.0013579492 0.2155791 -0.085759245 0.31004596 -0.12905884 -0.24132596 -0.14038482
-0.28614002 0.1443399 -0.05524071 -0.017524121 0.09505307 -0.10403064 0.19167386 0.03467475
0.15650459 -0.2569629 -0.27677986 0.006902126 0.2483136 -0.119838394 -0.07905422 -0.12840612
0.33731398 -0.27554956 -0.045066256 -0.081174076 -0.011163914 -0.12531163 -0.10926179 -0.18673378
0.20951347 -0.043516666 0.009371045 -0.025783738 0.11941443 0.42385626 0.07462845 -0.16770174
-0.21104817 0.16487804 -0.18217419 0.1333427 -0.18586898 0.02648759 -0.17967312 0.28585935
-0.24986686 -0.09938194 0.015690286 0.1765838 -0.16971502 -0.4086918 -0.1483789 -0.12486616
-0.22911826 -0.04939292 0.0017156234 -0.016556324 -0.11307725 -0.13573517 0.0908433 -0.036531974
-0.31860515 0.100157894 0.09564092 0.023198733 -0.2051332 -0.24404867 -0.18901105 -0.01981606
-0.01728706 -0.3017236 0.15115088 0.21147151 -0.28730416 0.13080499 0.4938919 -0.0051893764
00000000: eab3 003e ef80 8a3c 7f18 903e f4b6 aebd
00000010: 8b77 96be 0b09 733f 1777 4c3e 4876 a5be
00000020: c317 b03d 8411 ad3e d9f4 54be 0d0d 703d
00000030: 170d bbbe 99ae c4bd b973 dcbb 99d4 153f
00000040: 1334 393d 1c6e 163f eb19 35be 12f3 dbbe
00000050: 681b fcbe 06a5 903e 9514 093f 1d8c 903e
00000060: a9b3 b63b f40b 263e 6d7d 76bd 76cf aa3e
00000070: df42 dbbd e6f1 1fbe 8f87 583e 1595 4fbe
00000080: e3cd 48be 622a f4bb a9ce d9be 6657 1c3e
00000090: 28c6 f6be 6084 5bbe 9a57 143e 4442 933e
000000a0: 4f0d f7bd e5db 1bbf ae45 163d 1b88 3c3f
000000b0: cc56 243d 8a76 dd3d 22a1 983d f73f 87bc
000000c0: a808 12be 5c51 41bf 5498 c8bd 0348 07be
000000d0: be16 68be 01fc 6d3e cafd 953d 79dd 20be
000000e0: 58f5 d23d a9ba e5bd c0da 9abd 2f92 ad3e
000000f0: b2bf 16bf da95 a8bc 4edd d4bd 79d7 023b
00000100: a599 cd3d e80f 923e 4605 c93e a1f7 6a3d
00000110: f194 533d 8e9d 083e fadf 6bbe 61f9 773e
00000120: e603 ad3d 5016 62bd dc07 633e 79d9 c03d
00000130: 17e4 25be 0ea4 0fbe ddb7 163e 3332 353e
00000140: 881e 06be cab0 dc3e b75e 1bbf 61e2 b33c
00000150: 9cbf 42bc d159 45be ef2e 4d3f ef01 c63e
00000160: 1e06 843e fd4d ecbc a3d1 31bd f1a2 f5bd
00000170: d92f 06bf dfdf 13be 6453 583e 10ba 8f3d
00000180: aee9 e7bd 3f26 76be 3194 91bd 88e6 50bf
00000190: 292c 5dbd fdc7 a73e 7b43 e2bc 8a5d 82be
000001a0: 7690 353e 7adb 00be 1fbd 91bc 591a ac3e
000001b0: 6539 e6be 08a4 473d 360c 973d 1f8d fd3d
000001c0: 0ca1 69be 8320 d1be ccbd 893e d96d 443d
000001d0: 833e 233e bbe2 bcbd f169 a73e 7e42 ebbc
000001e0: 8648 863c 1fc6 c3be 849f 79bf 0e5a 1ebe
000001f0: 5de6 a6bd 0943 8abd 9e34 5dbe 2c1b 1abe
00000200: 7c68 b63d 5ebb 6d3e 5f9c 4b3e 980c c9be
00000210: c2ee b7bd 7b3b 753e d092 9ebd 386b 1e3e
00000220: 33a7 c93e 0cba 7d3e 3f17 5f3e fff3 21be
00000230: ca3a 663e ee0a a33e 0a26 c03d 8026 a43e
00000240: f06d 28be 72d7 d93e 14af 933e 0cda 223e
00000250: 24ba 46be 1e76 3b3d a9fb a1be 6964 e7bc
00000260: 3513 b5bd 170b 9c3e 8fa7 c63e 5555 49bc
00000270: d904 d13e b204 493d 2710 2ebd df19 063e
00000280: 60eb 3d3e 0ab8 c43d 8907 9abe 4ee4 cf3e
00000290: 6cb0 2fbf 52f3 8cbe 0f98 3f3e 4117 e33c
000002a0: 19bc 8ebd 0996 8f3d 678f 25be bf9f 63be
000002b0: f80a a83e 69d4 713e 3cdd ba3d 8a2d 4bbe
000002c0: a773 013e 37fd b1ba c5c0 5c3e 8ba2 afbd
000002d0: 58be 9e3e 0028 04be 271e 77be 0ac1 0fbe
000002e0: f280 92be d7cd 133e 1544 62bd bf8e 8fbc
000002f0: 2fab c23d 040e d5bd 2746 443e 1c07 0e3d
00000300: bd42 203e a490 83be 17b6 8dbe 3b2b e23b
00000310: ec45 7e3e d56d f5bd 2ee7 a1bd e57c 03be
00000320: 6bb4 ac3e d514 8dbe 6597 38bd 983e a6bd
00000330: d9e8 36bc b151 00be a5c4 dfbd 2437 3fbe
00000340: b38a 563e 883e 32bd 0389 193c 6b38 d3bc
00000350: 8d8f f43d b003 d93e cdd6 983d 01ba 2bbe
00000360: 031d 58be cad5 283e df8b 3abe fd8a 083e
00000370: 7054 3ebe 81fc d83c 3bfc 37be 285c 923e
00000380: 19dd 7fbe c288 cbbd ea88 803c 62d2 343e
00000390: c6c9 2dbe 0d40 d1be a3f0 17be d4b9 ffbd
000003a0: fa9d 6abe 3b50 4abd c5de e03a 21a1 87bc
000003b0: 0c95 e7bd 29fe 0abe 0d0c ba3d 8da2 15bd
000003c0: 3720 a3be 951f cd3d 63df c33d 450b be3c
000003d0: 700e 52be e5e7 79be 1d8c 41be 4a55 a2bc
000003e0: 989d 8dbc 847b 9abe 4cc7 1a3e fd8b 583e
000003f0: 8819 93be bef1 053e 66df fc3e a50b aabb

2.bias f4 [64]
-0.10889224 -0.26677102 0.022541951 -0.07724144 -0.07103095 0.24435616 0.04947642 0.004509808
-0.16454478 -0.30106404 0.2991633 -0.021455495 -0.09393626 -0.22182624 0.14518689 0.17920177
-0.15276748 -0.1716131 0.025007451 -0.040655013 0.11655176 0.12208157 -0.047185544 0.007644027
0.19333787 -0.01826007 -0.054624233 -0.07499871 0.15114745 0.048702605 0.035073426 0.16331582
-0.07959739 0.05057354 -0.25737557 0.139297 -0.13869101 -0.106018156 -0.12496547 -0.09054139
-0.031796742 -0.12277943 -0.08735608 -0.03673464 0.17171194 0.004304774 0.11547176 0.0731403
0.06821492 0.12495888 -0.04236062 0.04989874 0.27030268 0.060385395 -0.087095074 0.1116286
0.13417901 -0.054202832 -0.21438824 0.022857824 -0.08421426 0.003520829 0.12896124 0.0591101
00000000: e502 dfbd 3696 88be e6a9 b83c c330 9ebd
00000010: ad78 91bd 8038 7a3e c9a7 4a3d 03c7 933b
00000020: 6d7e 28be 1125 9abe ef2b 993e 6fc3 afbc
00000030: a761 c0bd 6b26 63be dfab 143e ab80 373e
00000040: 146f 1cbe 58bb 2fbe 6ddc cc3c df85 26bd
00000050: b0b2 ee3d e705 fa3d a145 41bd bf7a fa3b
00000060: 5dfa 453e 2496 95bc a9bd 5fbd ec98 99bd
00000070: 66c6 1a3e 627c 473d 27a9 0f3d 433c 273e
00000080: f503 a3bd 3326 4f3d bbc6 83be dfa3 0e3e
00000090: 0405 0ebe 0c20 d9bd e5ed ffbd c46d b9bd
000000a0: 4d3d 02bd c873 fbbd bfe7 b2bd 1077 16bd
000000b0: 41d5 2f3e 100f 8d3b 757c ec3d 95ca 953d
000000c0: 44b4 8b3d 71ea ff3d 5482 2dbd 9f62 4c3d
000000d0: 1d65 8a3e ad56 773d e75e b2bd 899d e43d
000000e0: 3966 093e ca03 5ebd 9788 5bbe 5540 bb3c
000000f0: 8778 acbd b5bd 663b 6a0e 043e 6f1d 723d
