Homework_2/hw2_code/BipedalWalker-PPO_test/dir_save/we0_actor_150.pth (torch, 24543 bytes, 4 tensors)

0.weight f4 [64, 24]
0	0xbed30492	-0.41214424
1	0x3ea3aeff	0.3196945
2	0xbe881dc3	-0.26585206
3	0xbf053b0a	-0.5204321
4	0xbdcbe7b8	-0.09956306
5	0xbf1e8b83	-0.6193163
6	0x3f3a1635	0.72690135
7	0xbe1345fa	-0.14382163
8	0x3f09be78	0.5380626
9	0xbea2e284	-0.31813443
10	0x3ebea809	0.37237576
11	0x3ea95a7f	0.33076856
12	0x3eab0d00	0.33408356
13	0xbeb57b2b	-0.35445532
14	0x3e4c8e9e	0.19976279
15	0xbe2336d3	-0.15938883
16	0x3e9b1f9c	0.30297554
17	0x3dbf617c	0.093447655
18	0x3def1986	0.1167479
19	0xbcb2bcd7	-0.021818561
20	0x3df32119	0.11871547
21	0x3de4522d	0.11148486
22	0xbd4eb0ff	-0.050461765
23	0xbf14805b	-0.58008355
24	0xbf0c8794	-0.54894376
25	0xbc8246d1	-0.015902909
26	0x3db79864	0.08964613
27	0xbf960987	-1.1721658
28	0xbea654e6	-0.32486647
29	0xbec0cd80	-0.37656784
30	0x3d631a9d	0.055445302
31	0x3e9471fe	0.2899322
32	0x3e7dc776	0.2478312
33	0x3eeed62b	0.46647772
34	0x3dbc5d5c	0.091974944
35	0x3f397229	0.7243982
36	0x3f1c03b2	0.6094314
37	0xbf48a168	-0.78371286
38	0xbd772668	-0.06033936
39	0xbe0d8bb2	-0.13822821
40	0xbea8bdc8	-0.32957292
41	0x3d466ff9	0.04844663
42	0x3dae7610	0.085186124
43	0x3b9ae281	0.0047267084
44	0xbe4d0d41	-0.20024587
45	0x3cb544a4	0.022127457
46	0x3ee58789	0.44829968
47	0xbe57fd1a	-0.21092644
48	0xbe0456a6	-0.12923679
49	0x3e6d9964	0.23203045
50	0x3de158e8	0.11003286
51	0xbf444a9f	-0.7667636
52	0x3e2de0e2	0.16980317
53	0x3e854b4e	0.26034015
54	0xbf3df656	-0.74204004
55	0x3eba6a45	0.36409202
56	0x3e9c5967	0.3053696
57	0xbe30994c	-0.17245978
58	0xbf19ba0b	-0.60049504
59	0x3f440ba0	0.7658024
60	0x3d859e33	0.06524315
61	0x3d43bc37	0.047786918
62	0xbe649e23	-0.2232595
63	0xbecc0338	-0.39846206
64	0x3cb6823f	0.022278903
65	0xbeb13cf0	-0.34616804
66	0xbde0bd5e	-0.10973619
67	0xbedc773d	-0.43059722
68	0x3eb6c3dd	0.35696307
69	0xbddf8ac1	-0.10915137
70	0x3eafdb8b	0.34347185
71	0x3c7bc354	0.015366394
72	0x3e99b7e2	0.30023104
73	0xbf05cafb	-0.5226285
74	0xbf4ab883	-0.7918779
75	0x3f3e0ccb	0.7423827
76	0xbe9698cb	-0.29413447
77	0x3e85cfa2	0.26134974
78	0x3dbde2aa	0.09271748
79	0x3e3db044	0.18524271
80	0x3ef3c819	0.476136
81	0x3e6522c9	0.2237655
82	0x3cb64801	0.022251131
83	0xbf319942	-0.6937448
84	0xbe632e2d	-0.22185583
85	0x3ee17595	0.4403502
86	0x3e274b77	0.16337381
87	0x3ed13cb9	0.4086664
88	0x3d844905	0.0645924
89	0xbef68a22	-0.48152262
90	0xbdef0904	-0.116716415
91	0x3cae30f7	0.021263583
92	0xbe66ec47	-0.2255107
93	0x3e1386a5	0.14406832
94	0xbe0dfcfc	-0.13866037
95	0xbcb4c1f7	-0.022065146
96	0xbe2199d1	-0.15781333
97	0x3f65e41e	0.89801204
98	0x3e696737	0.2279328
99	0x3b3cb6fa	0.0028795586
100	0xbe2e5fa8	-0.17028677
101	0x3f166b3b	0.5875737
102	0x3d828837	0.06373637
103	0xbdc2ee76	-0.09518139
104	0x3f4b4b5e	0.79411876
105	0x3ee272ac	0.44228113
106	0xbea2bf11	-0.31786397
107	0x3e3a1fd1	0.181762
108	0x3f72ce4c	0.94846034
109	0xbd968084	-0.07348731
110	0xbe94a96b	-0.29035506
111	0xbe3864ec	-0.18007249
112	0x3d7526a6	0.05985131
113	0xbdbe992c	-0.09306559
114	0xbe968f9e	-0.29406446
115	0xbea81fb5	-0.3283669
116	0xbedfd371	-0.43716004
117	0xbea38066	-0.31933898
118	0x3ed2d253	0.4117609
119	0x3d52611f	0.051362153
120	0xbe105ea9	-0.1409861
121	0xbf3fecc5	-0.74970657
122	0x3f59b9aa	0.85048926
123	0xbe15bfaa	-0.14623895
124	0x3eed789e	0.46381086
125	0xbebdaacc	-0.3704437
126	0xbf226be1	-0.6344586
127	0x3ed2cb4c	0.41170728
128	0xbe9642d2	-0.29347855
129	0xbf0f1fc6	-0.5590786
130	0x3f02824a	0.50980055
131	0x3ebf7a54	0.37398016
132	0x3e0bbafc	0.13645548
133	0x3f0c174e	0.5472306
134	0xbebf1f4e	-0.3732857
135	0xbe8214c2	-0.25406462
136	0xbe7aeb5a	-0.24503842
137	0x3d298838	0.041389674
138	0xbe27373a	-0.16329661
139	0xbef305d0	-0.47465372
140	0x3e5f790f	0.21823524
141	0xbe5c2645	-0.21498974
142	0x3d14f4f7	0.03636643
143	0x3d3ddd68	0.046353728
144	0x3dd305ff	0.10303878
145	0xbf644c53	-0.8917896
146	0xbec33627	-0.38127252
147	0x3f33217b	0.6997296
148	0x3d41783f	0.047233816
149	0xbedca0d6	-0.43091458
150	0xbe147d63	-0.14500956
151	0x3e58fed8	0.21190965
152	0xbeadf624	-0.33976853
153	0x3e4d6957	0.20059715
154	0xbe5dd83d	-0.2166452
155	0x3eaf92c9	0.34291676
156	0xbe20f2f0	-0.15717673
157	0xbe25afaa	-0.16180292
158	0x3e1cbd5a	0.15306607
159	0xbf09eb28	-0.53874445
160	0xbe237e11	-0.1596606
161	0xbd967e41	-0.073483
162	0xbd161823	-0.036644112
163	0xbe457df0	-0.19286323
164	0xbec124d4	-0.3772341
165	0xbe11a546	-0.14223203
166	0xbe7444ae	-0.23854324
167	0x3f32383d	0.6961706
168	0x3ca3352a	0.019922812
169	0x3eb7f4f2	0.35929066
170	0x3e39ef7e	0.18157765
171	0xbf41ee7d	-0.7575453
172	0x3dee6e5a	0.11642142
173	0x3d35eb40	0.044413805
174	0x3ebd4585	0.36967102
175	0xbee45afe	-0.44600672
176	0xbde8f5c1	-0.11374999
177	0xbe09e1a9	-0.13464989
178	0xbeb454b1	-0.35220864
179	0x3dea7bc0	0.11449385
180	0x3f8110ad	1.0083214
181	0x3e299cc6	0.1656371
182	0xbecd356a	-0.40079814
183	0xbd7345d7	-0.059392776
184	0xbea04c6e	-0.3130831
185	0xbcb66a89	-0.022267597
186	0x3c42a704	0.01188064
187	0xbb46d330	-0.003033828
188	0xbe15d0fb	-0.14630501
189	0xbee6a23d	-0.45045653
190	0xbe9d9a03	-0.30781564
191	0xbe831c42	-0.25607497
192	0xbf263a2e	-0.64932525
193	0xbfeb32c3	-1.8374866
194	0x3eaece81	0.34141925
195	0xbfa40b00	-1.2815857
196	0x3e57fafb	0.21091835
197	0x3d46837e	0.048465244
198	0x3e9e2c4c	0.3089317
199	0xbe343b33	-0.17600708
200	0xbc101515	-0.008794089
201	0xbe5c5553	-0.21516924
202	0x3d22311d	0.03959762
203	0xbf69571a	-0.9114853
204	0x3ea32d52	0.31870514
205	0xbe8e385b	-0.2777737
206	0x3e391a26	0.18076381
207	0x3dbc11b6	0.091830656
208	0x3c90ea59	0.01768987
209	0xbecd39d1	-0.40083173
210	0xbe16d4e1	-0.14729644
211	0x3e0b1bcb	0.13584821
212	0xbe8d3b68	-0.27584386
213	0xbec35cec	-0.3815683
214	0xbe698c01	-0.22807314
215	0x3cd8c2fc	0.026460163
216	0xbf3693b0	-0.71319103
217	0xbf5fb4aa	-0.87385046
218	0x3e85aef6	0.26110047
219	0x3eeb53cc	0.4596237
220	0x3ec0a1d2	0.3762346
221	0xbedf2e3a	-0.43589956
222	0xbebe6f46	-0.3719427
223	0x3f3f2da2	0.74679005
224	0x3db48a4b	0.0881544
225	0xbef22b8a	-0.47298843
226	0xbe611973	-0.21982364
227	0x3f8c72db	1.0972551
228	0x3eab0a6c	0.3340639
229	0x3c8c6ecf	0.017142681
230	0xbe1901a2	-0.14942029
231	0xbd5f22e8	-0.05447665
232	0xbd918b0d	-0.071066
233	0xba01026f	-0.0004921322
234	0xbeb76aac	-0.35823572
235	0x3e89ef4f	0.2694039
236	0xbe0e2561	-0.13881446
237	0xbe48feef	-0.196285
238	0xbd6b63f8	-0.057468385
239	0xbd0c6b98	-0.034282297
240	0x3dc00dc8	0.093776286
241	0x3fc04e29	1.5023853
242	0x3ed11487	0.40835974
243	0xbeffe47c	-0.49979007
244	0x3df00250	0.11719191
245	0x3da194a5	0.0788968
246	0x3edbbd36	0.42917794
247	0xbc642cf3	-0.013926732
248	0xbcf3f10e	-0.02977803
249	0x3dd14ad5	0.10219351
250	0xbe372026	-0.17883357
251	0x3f3285a1	0.6973515
252	0xbe7d6deb	-0.24748962
253	0xbe077a5c	-0.1323027
254	0xbe9104ed	-0.2832407
255	0xbeacee25	-0.3377544

0.bias f4 [64]
0	0xbda7f581	-0.08201123
1	0x3ced9050	0.028999478
2	0x3d55cd4f	0.05219775
3	0x3c2581b6	0.010101726
4	0x3d03ec9a	0.032208063
5	0x3ca10043	0.019653445
6	0x3dfab106	0.12240796
7	0xbe223474	-0.15840322
8	0x3e1f9e89	0.1558782
9	0x3be3b35c	0.0069488715
10	0xbdf317d0	-0.11869776
11	0xbcc00965	-0.02344198
12	0x3c8e0dda	0.01734059
13	0x3e0d9dc1	0.1382971
14	0xbd52cc26	-0.051464222
15	0x3d09de63	0.03365935
16	0xbe210920	-0.15726137
17	0xbd946472	-0.07245721
18	0x3e25a9a5	0.16177996
19	0x3de79275	0.11307231
20	0xbe207f38	-0.1567353
21	0xbb9fc64f	-0.004875935
22	0xbe4aed3a	-0.19817057
23	0x3cfe630a	0.031053085
24	0xbe6d1dda	-0.23155919
25	0x3dee7adc	0.11644527
26	0xbdfa1936	-0.1221184
27	0xbd991f78	-0.07476705
28	0xbe2b0947	-0.16702758
29	0xbca979f6	-0.020688038
30	0x3c5ef3e1	0.01360795
31	0xbdcfce4a	-0.101467684
32	0xbbf16b4d	-0.0073675276
33	0x3cc9c239	0.024628745
34	0xbc943244	-0.018090375
35	0x3da40a14	0.08009735
36	0xbd019b55	-0.031642277
37	0xbc9a10ef	-0.018806903
38	0xbe87f6d9	-0.26555517
39	0x3deead79	0.11654181
40	0xbe478a13	-0.19486265
41	0x3db3caff	0.08778953
42	0x3e462573	0.19350223
43	0x3d1ce5d0	0.038305104
44	0xbdb1ba99	-0.08678169
45	0x3e5a4363	0.21314768
46	0xbe0823fc	-0.13294977
47	0x3e0506bf	0.12990855
48	0xbd92b43f	-0.071632855
49	0x3e23747d	0.15962406
50	0x3d7f50fb	0.06233309
51	0xbdfdb4cb	-0.12387999
52	0x3ce14b3b	0.027501693
53	0x3d5efff4	0.054443315
54	0xbd13fcc3	-0.036129724
55	0x3dd38ba1	0.103293665
56	0x3da397e5	0.07987956
57	0x3e53eb28	0.20695174
58	0x3ec91e0e	0.39280742
59	0x3da0257a	0.07819648
60	0x3e008e9f	0.12554406
61	0x3e6a34f7	0.22871767
62	0x3dc493a4	0.09598473
63	0xbc843b6b	-0.016141614

2.weight f4 [64, 64]
0	0x3e92afe9	0.28649834
1	0x3c992580	0.01869464
2	0x3e37a4d8	0.17933977
3	0xbe7d6ded	-0.24748965
4	0xbe580563	-0.21095805
5	0x3f606dda	0.8766762
6	0x3e733924	0.23752266
7	0xbda91f8d	-0.08257971
8	0x3e48061b	0.19533579
9	0x3e3f49cc	0.18680495
10	0xbe696dca	-0.22795787
11	0x3db02378	0.08600515
12	0xbee3f7d1	-0.44525006
13	0xbe0b9726	-0.13631877
14	0x3d4e70ac	0.05040042
15	0x3e85bedc	0.26122177
16	0x3d837e6c	0.064205974
17	0x3f620ba5	0.8829902
18	0xbea7dd04	-0.3278581
19	0xbe7f6d70	-0.24944091
20	0xbef190de	-0.47180837
21	0x3e891651	0.2677484
22	0x3f1b44dd	0.6065195
23	0x3e48e97d	0.19620319
24	0x3cce9254	0.025216259
25	0x3e6fcc2f	0.23417734
26	0xbd4626a5	-0.048376698
27	0x3e599498	0.2124809
28	0xbebc8f3a	-0.36828023
29	0xbe0b36f5	-0.13595183
30	0x3edf10f7	0.4356763
31	0xbcd10bfb	-0.025518408
32	0xbeddbacb	-0.43306574
33	0x3e36da35	0.17856677
34	0xbe7cfca3	-0.24705748
35	0xbd97b8d0	-0.07408297
36	0xbf092f3f	-0.53587717
37	0xbdb84162	-0.08996846
38	0xbe1369b4	-0.14395791
39	0x3e3c98ed	0.18417712
40	0xbe3cb24d	-0.18427391
41	0xbf056a71	-0.5211554
42	0x3e9bcb89	0.30428723
43	0x3f533e06	0.82516515
44	0xbcd146a6	-0.025546383
45	0x3dfe5aba	0.124196485
46	0x3e327df0	0.17430854
47	0x3dd7fd19	0.105463214
48	0xbe81d71b	-0.25359425
49	0xbf4d978b	-0.8030936
50	0xbd8f0e68	-0.0698517
51	0xbeb6dcc5	-0.3571531
52	0xbdde8f9c	-0.10867235
53	0x3e8f0e28	0.27940488
54	0x3d0d9e58	0.034574836
55	0xbe893bcd	-0.26803437
56	0x3df439c8	0.119250834
57	0xbe72e395	-0.23719628
58	0xbe38bd73	-0.18041019
59	0x3e6d1651	0.23153044
60	0xbf0d56a1	-0.5521031
61	0x3d6b7007	0.057479884
62	0x3b38185c	0.0028090691
63	0xbe4aa682	-0.1979008
64	0x3e6401e1	0.22266342
65	0x3ec09d57	0.3762004
66	0x3ee83474	0.4535252
67	0x3dbbdc04	0.09172824
68	0x3d94ff38	0.072752416
69	0x3e4794c5	0.19490345
70	0xbe116620	-0.14199114
71	0x3eb0b259	0.34511068
72	0x3cfc2143	0.03077758
73	0x3da99d3f	0.082819454
74	0x3e8319b1	0.25605538
75	0x3e1843da	0.14869633
76	0xbe35f226	-0.17768154
77	0xbdcc3b49	-0.09972245
78	0x3e1ab13f	0.15106677
79	0x3e191528	0.14949477
80	0xbe02bc76	-0.12767205
81	0x3efbd2c7	0.49184248
82	0xbf1f459b	-0.62215585
83	0x3dee4957	0.11635082
84	0x3d3dbc12	0.046321936
85	0xbd89588d	-0.06706343
86	0x3f40cba1	0.75310713
87	0x3ea525d4	0.32255423
88	0x3e3448c0	0.17605877
89	0x3ccb2d45	0.02480186
90	0xbd972f24	-0.07382038
91	0xbda69819	-0.08134479
92	0xbf151fc5	-0.582516
93	0xbe249e0f	-0.1607592
94	0x3e95e0c1	0.29273036
95	0x3ddc9961	0.10771442
96	0xbe60a827	-0.21939145
97	0xbe1b630c	-0.15174502
98	0x3dd5cad2	0.104390755
99	0xbf7fb373	-0.9988319
100	0xbcd23612	-0.025660548
101	0x3ed10594	0.40824568
102	0x3c9533d3	0.018213188
103	0xbea2990c	-0.3175739
104	0x3ddf4b69	0.10903055
105	0xbd4443b5	-0.047916133
106	0x3990fb99	0.00027653275
107	0x3ef06cc2	0.46957976
108	0xbec2df05	-0.38060775
109	0xbda47b9a	-0.080313876
110	0x3be58090	0.0070038512
111	0x3db517a3	0.08842399
112	0xbdcf6a52	-0.10127701
113	0xbeeafed3	-0.4589754
114	0x3e746d75	0.2386988
115	0xbcff553c	-0.031168573
116	0x3e16e5a4	0.14736038
117	0xbe100e8a	-0.14068046
118	0x3f03da28	0.51504755
119	0x3d561b0d	0.05227189
120	0x3a79b117	0.00095249846
121	0xbeadd59d	-0.33952036
122	0xbf9e8a4c	-1.2385955
123	0xbd0d255a	-0.03445945
124	0xbe2b83b3	-0.16749458
125	0x3c135485	0.008992319
126	0xbe856fb5	-0.26061788
127	0xbe5087e9	-0.20364346
128	0x3d6bbae6	0.057551287
129	0x3e67388c	0.22580165
130	0x3e737de7	0.23778497
131	0xbee9462d	-0.45561352
132	0xbd7c80db	-0.061646324
133	0x3ecd9ef0	0.40160322
134	0xbdd31956	-0.10307567
135	0x3e3a0f18	0.1816982
136	0x3ee2a19e	0.4426393
137	0x3eba650c	0.36405218
138	0x3d514ffa	0.051101662
139	0xbe737fb3	-0.23779182
140	0x3e87c29b	0.2651566
141	0x3e7bb90a	0.24582306
142	0x3e35d85d	0.17758317
143	0x3ec40cb2	0.38290936
144	0xbeae9904	-0.34101117
145	0x3f1913af	0.5979566
146	0x3e8a5f8e	0.27026027
147	0x3ddb4f51	0.10708488
148	0xbe995dbb	-0.29954323
149	0x3d3efb7b	0.04662655
150	0xbec51264	-0.38490593
151	0x3cbf41b5	0.023346761
152	0xbe5671e8	-0.2094189
153	0x3ec98ad8	0.39363742
154	0x3ee2055c	0.44144714
155	0xbddf0364	-0.108893186
156	0x3ee2ef1e	0.44323057
157	0x3dc00f4a	0.09377916
158	0x3cb555d1	0.022135647
159	0x3d12565a	0.035726883
160	0x3e7eb0f9	0.24872197
161	0x3e4079ef	0.18796514
162	0xbee7be57	-0.45262405
163	0x3ef7ad7a	0.4837454
164	0xbf2edfe4	-0.6831038
165	0xbecf9dd0	-0.4055009
166	0x3e229cef	0.15880178
167	0x3e14fd32	0.14549711
168	0xbe938e67	-0.28819582
169	0xbc7068ed	-0.014673454
170	0xbe09c40f	-0.13453697
171	0xbe6bc51d	-0.23024411
172	0x3e5c00ad	0.21484633
173	0x3e865c74	0.2624241
174	0x3e191989	0.14951147
175	0xbdc5ecff	-0.09664344
176	0x3e33c0bf	0.17553996
177	0xbd284486	-0.041080974
178	0x3e246d80	0.16057396
179	0xbe1e5626	-0.1546255
180	0x3e2fe0e5	0.17175634
181	0xbe304fbd	-0.17217918
182	0xbe3521ac	-0.17688626
183	0xbd84ca73	-0.064839266
184	0xbe70d679	-0.23519315
185	0x3e494bbf	0.19657801
186	0xbe0f6e43	-0.14006905
187	0x3de8192e	0.11332928
188	0x3a7c9690	0.00096354727
189	0xbe2d3fab	-0.16918819
190	0x3ea7b43e	0.327547
191	0xbd37b89d	-0.044853795
192	0x3e71d2f3	0.23615627
193	0xbe88cbaa	-0.26717883
194	0xbf03c347	-0.51469845
195	0xbdc92a20	-0.09822488
196	0x3e66fb4e	0.22556803
197	0xbde50d0d	-0.1118413
198	0xbdd3148f	-0.103066556
199	0xbe206051	-0.15661742
200	0x3ef6bc25	0.48190418
201	0xbea4f361	-0.32216933
202	0xbe091d33	-0.13390045
203	0x3d472c66	0.048626326
204	0xbd5c589d	-0.053795446
205	0xbe147ead	-0.14501448
206	0xbe239df1	-0.15978219
207	0xbe94ef37	-0.29088756
208	0x3ea1c4a3	0.31595334
209	0xbd7b3410	-0.061328948
210	0x3d1fde12	0.039030142
211	0x3d6f75f7	0.05846211
212	0x3dfcf966	0.123522565
213	0x3f02bfed	0.51074106
214	0xbc75dd46	-0.015006369
215	0xbe1f35ae	-0.15547821
216	0xbe757b47	-0.23972808
217	0x3e44fa6f	0.19236158
218	0xbe626fe1	-0.22112991
219	0x3e15e039	0.14636315
220	0xbe617da2	-0.22020581
221	0xbd539821	-0.051658753
222	0xbe9e7de5	-0.30955425
223	0x3e7b58be	0.24545571
224	0xbe404773	-0.18777256
225	0xbdcc8875	-0.099869646
226	0x3cbb310d	0.022850538
227	0x3e92a82e	0.28643936
228	0xbdaa07a4	-0.083022386
229	0xbecd481c	-0.40094078
230	0xbe8290f4	-0.25501215
231	0xbe17d24d	-0.14826317
232	0xbeaa6825	-0.3328258
233	0xbde89d41	-0.11358119
234	0x3ccf988a	0.025341291
235	0xbc29b2e7	-0.010357595
236	0xbe45b0b9	-0.19305696
237	0xbe8425f0	-0.25810194
238	0x3dac7384	0.0842047
239	0xbe0cf587	-0.13765536
240	0xbeb3b6a0	-0.3510027
241	0x3ebb0e6b	0.36534438
242	0x3dbcf2e1	0.09226013
243	0x3cc18cb9	0.023626672
244	0xbe5f040b	-0.21778886
245	0xbece485f	-0.4028959
246	0xbec21cf8	-0.37912726
247	0x3d8eb212	0.06967558
248	0xbce83d6a	-0.028349597
249	0xbeb336c1	-0.3500271
250	0x3e5c683c	0.21524137
251	0x3e0cd92f	0.13754724
252	0xbe0adbff	-0.13560484
253	0x3d9bdd18	0.0761053
254	0x3f3c4d47	0.73555416
255	0x3d650101	0.05590916

2.bias f4 [64]
0	0xbe3b2656	-0.18276343
1	0xbeadfce3	-0.33982
2	0x3de9049b	0.113778315
3	0xbdccd23a	-0.10001035
4	0xbdee6b5a	-0.116415694
5	0x3e97a379	0.29616907
6	0x3daef8ce	0.085435495
7	0xbd2c825e	-0.042116515
8	0xbe48f069	-0.19622959
9	0xbed5ceb3	-0.4175926
10	0x3eb96018	0.36206126
11	0xbba3ba85	-0.0049966
12	0xbd9c02cf	-0.07617723
13	0xbe42df2f	-0.1903045
14	0x3e29a65d	0.16567369
15	0x3deb53ed	0.11490617
16	0xbe3c464a	-0.18386188
17	0xbe54584c	-0.20736808
18	0x3d2cbd26	0.042172574
19	0x3c4b8451	0.012421683
20	0x3da3cff3	0.079986475
21	0x3db16943	0.08662655
22	0xbd75a981	-0.059976105
23	0x3d13ceb8	0.036085814
24	0x3e47e997	0.19522701
25	0x3d031c43	0.032009374
26	0xbda02295	-0.07819096
27	0xbd8a2f71	-0.0674733
28	0x3e32409f	0.17407463
29	0x3dccbcf6	0.09996979
30	0xbb99e042	-0.004695923
31	0x3db62f54	0.08895746
32	0xbd9e9f11	-0.07745183
33	0x3da04cd3	0.07827153
34	0xbe8d6d2f	-0.27622363
35	0x3e3b2f4e	0.18279764
36	0xbdd26c0b	-0.10274514
37	0xbe5d2f0f	-0.21599983
38	0xbe26357f	-0.16231345
39	0xbe08f1ae	-0.13373443
40	0xbda64cc6	-0.08120112
41	0xbe1f1b5d	-0.15537782
42	0xbdf1e385	-0.11810974
43	0xbdbb9ce2	-0.091607824
44	0x3e32cb48	0.17460358
45	0xbcf7801e	-0.030212458
46	0x3dd198ee	0.10234247
47	0x3e08d319	0.13361777
48	0xbc3aff28	-0.011413373
49	0x3e1ad9a4	0.15122086
50	0xbd9b2721	-0.075758226
51	0x3d978ed5	0.0740029
52	0x3eaa973f	0.33318517
53	0x3df76080	0.12078953
54	0xbd377893	-0.044792723
55	0x3d8391de	0.06424306
56	0x3d970728	0.07374412
57	0xbd80addd	-0.06283162
58	0xbe6a76eb	-0.22896926
59	0xbd38cd29	-0.04511753
60	0xbd233a32	-0.03985042
61	0x3c546662	0.012963863
62	0x3e73c4a0	0.23805475
63	0x3d9acbde	0.07558416
