Homework_2/hw2_code/BipedalWalker-PPO_test/dir_save/we0_critic_final.pth (torch, 24543 bytes, 4 tensors)

0.weight f4 [64, 24]
00000000: b908 bfbf 0a99 8ac0 9c2f fb3c df29 aebe
00000010: 6341 2abf 027f 8b3c 8136 9f3d ddb1 0cbe
00000020: 04a0 0fbe d262 c6bf e63a 7f3b f1c8 653e
00000030: 1126 b23b 992e 0a3e f75b 343e 6d51 08be
00000040: ac88 173e 36f4 9bbe 60a2 c6bc ec5f 2cbe
00000050: 705a 933e 9553 303e d46e f03e 18f6 bebe
00000060: ad23 5fc0 4af0 2ec0 57ae fb3f c227 be3d
00000070: f88e 1fbf 7763 a6bd c71c dabf e0f4 e1bc
00000080: f2a2 4e3e 12db ce3e 6eb8 61be 1291 12be
00000090: d0b5 23bd 03ba cfbc 6c63 dc3d 9514 b53d
000000a0: a368 a6bd fa09 4fbf e328 1bbf 58c1 25bf
000000b0: 5b00 50bf de31 d8be 8efb 053e cd6a 923e
000000c0: f874 65be 6155 0a40 aafe 6f3f acbc d73f
000000d0: 8dbb 723e 49c9 a03d 469d 21bd 1e78 083e
000000e0: fdce baba 534d 2fbf 473f e73c bc9f ad3f
000000f0: 8b9a bdbd feb9 b6be 625e 47bf 4011 a1be
00000100: 0945 e3be d0de 16be fa49 91be 11e6 643e
00000110: 4af2 c63d 0fb3 213f 279d f73e 4121 3ebf
00000120: 40ce 1240 4a0b 2640 20aa 2ac0 c72b ac40
00000130: 09ee a23f 364a 8b3e 3241 c53d 7ead 503d
00000140: 1ac7 f3bb 8ab4 953f adbf ab3c a2d1 313f
00000150: 7c3a 8f3c ff98 8cbd 3fb7 ae3e c66c c0bb
00000160: 8237 90bd de0c a73d cf7d 073e 8f45 2e3e
00000170: e7b2 0c3f f16e 9d3e 29ed 20bf b554 b2bf
00000180: 0a3e 7e3f 601f 7abf e501 653f fa58 5ec0
00000190: 4777 e23e 6869 28be 5e24 e43e 156f 87bd
000001a0: 2dc9 ec3d c8ff 61c0 e20c f93d 443f 39bf
000001b0: ac10 58bd eebf bb3e 53da 62bb 6658 9bbe
000001c0: 20a3 13bf fc74 0fbf 8f38 cdbe 6393 26bf
000001d0: fcb3 36bf d319 90be 8892 03be ce11 ec3d
000001e0: 337a fabe 012f 1f3f 2410 963e 0c59 893f
000001f0: 0f16 8f3e 1650 143f 64b7 adbe 89ee 9bbf
00000200: 6894 5ebf d803 8f3c a828 a63d 97d3 d33e
00000210: e61f 8b3d 5247 ccbe bc8c 7abe 19c2 17bf
00000220: bfd2 61be 023a 2fbb 202e 0bbf 2401 debe
00000230: 113c 113e a68c a5bd 150a afbe abcc 4dbe
00000240: 64d3 343f b680 0ac0 0459 bfbe 20cc 183e
00000250: ff28 db3d 824e b93c 7e4b 8c3e e8d8 323a
00000260: 4a1b 95bc 7479 883f e70d 44be 909f 863f
00000270: 20e5 17be e82c b4be fd54 943f 30e1 063f
00000280: 5d79 243f 02b5 e83d b485 f83e 18b7 ac3d
00000290: 3caa 8cbe 2692 56bf 790d 26bf 7d70 47be
000002a0: fcdd 923f 7222 3bbf 97d3 553f 54f5 c53f
000002b0: d72b a03f ce78 e8bd 9e93 06be b19c 81bc
000002c0: 17d2 153e 0d68 eabf a0e9 363e 230c 3ebf
000002d0: fbe0 443d 31a6 3a3e 1db4 e0be 18ed 2abf
000002e0: 2e44 4abe 8f64 01bf d444 b0be 873c 62be
000002f0: 6404 99bc a301 0dbf 186e 7fbe 39e3 073f
00000300: fc50 81be 0ee8 0840 ae5d 9fbf d956 c4bf
00000310: 6ce4 a03f 79b5 67bc 7d70 e93e 707a 18ba
00000320: 7842 37bd e51a 91be d2a6 413e 4ac1 363f
00000330: 6666 9bbd c8f4 bfbe 888c e03c 75da 8d3e
00000340: 98d2 293e a144 e63d 5329 133f e2f3 a13c
00000350: 6acb 3a3e e537 d4bd 1aee a5be 8f4f 033e
00000360: 9a41 ccbf b148 d53f 44e1 cdbc 43b6 143f
00000370: ccba acbe 46d7 3c3d ca4d e4be 2861 ff3d
00000380: 97c6 b93d 0743 743f a23c 24be 09d8 e13f
00000390: de7d 6bbd a1e4 cdbe 789e 0dbf 9b42 bebd
000003a0: 4e7b 09be e1c9 a53d 0b46 3c3e e3cf f63d
000003b0: c82c 993e 93db c93e fa8b 91bd 261f 55be
000003c0: bfb4 ae3e 541e 50bf c556 5d3f 057f aa3f
000003d0: b187 3d3e 1647 dabe 832b 09bf e72e 043e
000003e0: d5f6 103e ca68 b6bf 1c99 853d 7520 80bf
000003f0: e535 693e 7dab f3bd ec55 70bf 5f84 26bf
-1.4924537 -4.3311815 0.03066235 -0.3401632 -0.6650602 0.017028335 0.07774068 -0.13739724
-0.14025885 -1.5498908 0.0038945018 0.22439934 0.005436667 0.13494338 0.17613207 -0.13312311
0.1479823 -0.30459756 -0.024247348 -0.16833466 0.28779936 0.17219384 0.46959555 -0.3729713
-3.4865525 -2.733416 1.9662579 0.09284927 -0.6232753 -0.0812444 -1.7040032 -0.027582586
0.20179346 0.40401512 -0.2204301 -0.14313152 -0.03996831 -0.025357252 0.10761151 0.08841816
-0.081254266 -0.808746 -0.60609263 -0.64748144 -0.8125054 -0.42225546 0.13084242 0.28597108
-0.22407901 2.161461 0.9374796 1.6854453 0.23704357 0.07850892 -0.03945663 0.13327071
-0.0014252361 -0.6847736 0.028228415 1.3564372 -0.09257992 -0.35688776 -0.7787839 -0.31458473
-0.44388607 -0.14733434 -0.28376752 0.22353388 0.09714182 0.63163847 0.48362085 -0.7426949
2.2938385 2.594439 -2.6666336 5.380344 1.2728893 0.27205056 0.09631576 0.050946705
-0.0074395062 1.1695721 0.020965422 0.694605 0.017483942 -0.06865119 0.3412418 -0.005872342
-0.07041837 0.08156751 0.13231586 0.17018722 0.54960483 0.30748704 -0.6286188 -1.39321
0.99313414 -0.97704124 0.89456016 -3.4741807 0.44231626 -0.1644646 0.44558996 -0.06612984
0.11561809 -3.5312366 0.1216066 -0.7236216 -0.052750275 0.36669868 -0.0034614995 -0.3034088
-0.57670784 -0.5603788 -0.40082213 -0.65068644 -0.71368384 -0.28144702 -0.12848866 0.115268335
-0.48921356 0.621811 0.2930919 1.07303 0.27946517 0.579347 -0.33928978 -1.218217
-0.869452 0.017457888 0.08113223 0.41372368 0.067931935 -0.39898163 -0.24467748 -0.59280545
-0.2205305 -0.0026737456 -0.54367256 -0.43360245 0.1418307 -0.08083467 -0.3418738 -0.20097606
0.70635056 -2.164106 -0.373726 0.14921618 0.10701179 0.022620443 0.27401346 0.00068224827
-0.018201489 1.0662065 -0.19145928 1.0517445 -0.14833498 -0.3519051 1.1588436 0.5268736
0.64247686 0.113626495 0.48539507 0.0843336 -0.2747363 -0.83816755 -0.6486431 -0.19476505
1.1473994 -0.73099434 0.83525985 1.5465493 1.2513379 -0.11351167 -0.13142249 -0.015821787
0.14630924 -1.8313004 0.17862558 -0.7423727 0.04806612 0.1822746 -0.43887416 -0.66768026
-0.19752571 -0.50544065 -0.34427512 -0.22093402 -0.018678851 -0.5508062 -0.24944341 0.5308109
-0.252571 2.1391635 -1.2450464 -1.5339004 1.2569709 -0.014142388 0.45593634 -0.00058165845
-0.044741124 -0.2834083 0.18911293 0.71388686 -0.0758789 -0.3749144 0.02741076 0.27705732
0.16584241 0.11243559 0.5748493 0.019769613 0.18241659 -0.103622235 -0.3240822 0.12823318
-1.595752 1.6662809 -0.02513183 0.5809061 -0.33736265 0.04610374 -0.44590598 0.12469703
0.09071081 0.95414776 -0.16038755 1.7644054 -0.057493083 -0.40213493 -0.5531993 -0.09290048
-0.13425943 0.08095146 0.18386094 0.1205137 0.29916978 0.39425334 -0.071067765 -0.20812663
0.34122273 -0.8129628 0.86460525 1.3320013 0.18508793 -0.4263236 -0.5358202 0.12908517
0.14156659 -1.4250729 0.06523344 -1.0009905 0.22774465 -0.11897943 -0.93881106 -0.6504573

0.bias f4 [64]
00000000: f814 be3a 15f2 9f3e 1da2 ffbe bc16 6abf
00000010: 4298 213d 13fe 26be 2882 ef3e 3873 e63e
00000020: 0b8a cc3e 943a 7bbe ba51 74be d558 99be
00000030: ef7d 73be a654 18bf 12fb 15bf 36e8 fa3e
00000040: c1fd 2bbd 65bd e83e 5954 1ebe 28c3 27be
00000050: 99a3 e3be 90ec 663f 7a44 1dbf 5b3b 4ebf
00000060: d910 86be f89c 59bf 4aca e4be fdf5 62bc
00000070: 92a1 1f3f 6fbb 62be 9b33 76be b763 61be
00000080: fc02 f4bc b634 0cbe 0bb8 52be 4ed9 3ebf
00000090: ffe2 04bf c888 bf3e 8b60 5ebe 36dd b9be
000000a0: 4321 a73d e7d5 963e be31 d73d cae0 fa3e
000000b0: 9d19 e33a ebd3 d53e 8c48 36be 035d a43e
000000c0: 1606 343f 8f7a dc3d b67a 23be 6a9d 8bbe
000000d0: 04b9 5d3f 8bff 01be d129 7d3f cd23 43be
000000e0: dc0c 023e f132 d93e 67db c33e 0767 efbd
000000f0: 3575 28bf 6685 88bd 90da db3e cbe9 b1bd
0.0014502099 0.3123938 -0.4992837 -0.9144094 0.039451845 -0.16307859 0.4677899 0.4500978
0.39949068 -0.24534065 -0.23859301 -0.29950586 -0.23778509 -0.59504163 -0.5858623 0.49005288
-0.041990045 0.45456997 -0.15461864 -0.1638304 -0.44460753 0.90204716 -0.6143261 -0.8055932
-0.2618473 -0.8500514 -0.44685584 -0.0138525935 0.6235591 -0.22141813 -0.24043123 -0.22010694
-0.02978658 -0.13691983 -0.2057802 -0.7455033 -0.5190887 0.37409043 -0.21716516 -0.36301583
0.08160641 0.2946007 0.105075344 0.48999625 0.0017326359 0.41763243 -0.17801112 0.32102212
0.70321786 0.10765564 -0.1596478 -0.27268535 0.86610436 -0.12695138 0.9889193 -0.19056626
0.12700218 0.42421678 0.38253328 -0.11689573 -0.65803844 -0.06666069 0.42940187 -0.086871706

2.weight f4 [64, 64]
00000000: 352d 09bf ce0c c43d 80f9 7dbd 82ea a3bf
00000010: a2af a2bb 11ca 6fbb 47fe 78bf 9250 bbbd
00000020: e79b 55bf 404d 09be 283d 193f 7b50 913d
00000030: 3697 9b3e 69a1 243e 7374 3f3e 6cbe 96bf
00000040: b038 b3be fcf8 5bbe 7219 d33e ec38 973d
00000050: 766e 123f 0d0a 2dbe 491d e7be 1eb1 523e
00000060: 02b7 9d3f ca09 bcbe f261 c8be 3b0f bd3c
00000070: 5302 f6be 087a 4fbf 7e3b 88be 8479 93bc
00000080: 3046 2cbe 3867 903c 3a2d e93c 03b2 473d
00000090: bc39 243e 71cb c83e 5b86 823f a658 b3bf
000000a0: e3b2 cc3e e33c 0cbd fb19 66bf d378 71bf
000000b0: 4a4f 69bf 3c9c c6be 02c8 b63e 2b6d 4abd
000000c0: 6f65 fbbe 49cd 39bf 9eb4 613e 2a29 f33e
000000d0: 85f4 40bf 9ccb 92be 3c32 4cbf 138b c73b
000000e0: 6313 e3be 9fa8 45bf 5168 b3be c328 b9be
000000f0: e497 5e3f 831e 5d3e b4cb 78bf 9dda 69bc
00000100: 4d87 53be 4c82 9b3f fe44 03bf 1c0c 1140
00000110: 83b7 273f 85d4 23bf 52ed 4d3f a651 71be
00000120: 5e26 203f 7c09 75bf 3c1e 39bf d564 0bbf
00000130: 7bd0 14bf c20a 76bf 6a79 e3be 09ee aebf
00000140: 0dbd 893f 0132 203f a2fb b6bd 48a9 c4be
00000150: cb45 9fbe 621e afbe ee1e 0cbf 4031 0c3f
00000160: d2ae 8ebf 281c 0340 2725 c7bf 382d b5bf
00000170: 03c2 9bbe 4f1d 033f bf51 fcbe 7172 5e3f
00000180: d298 6f3f 4f57 af3f 37a5 f13e 3840 2e3f
00000190: 3578 383e b95d 6b3f 7f32 7abf 8b79 afbf
000001a0: e894 72bf 2538 9fbf f3ac 2240 70bc 5d3f
000001b0: 5803 69bf 3afc f03e 60a2 ac3f 4ac7 abbf
000001c0: d88c 563f a9c5 43bf f2de 1140 ea80 bb3e
000001d0: dc82 573f 8875 16bf 4a65 d0bd 61c6 27bf
000001e0: 3eca 73be 90af 993e a82d 613f 7823 63bf
000001f0: c1ea ae3f 1723 c5be 7c09 4bbf 1fca 62bf
00000200: ee36 c8be 23db 00bf 650b a7be 81b8 913f
00000210: a4dd 943e cfec 31be f330 eebe df70 afbe
00000220: 0b8d 7e3e 6c5b 02be 092d 1ebf 885e ab3e
00000230: e82c 8abf 1065 3ebe ff58 453f 6913 033f
00000240: 4901 70bd c16d 4b3d a490 2f3e df9d e9be
00000250: 1e7a 92be bece b63e 6459 f9bb ae25 833e
00000260: 626f f9be baa2 563f 3976 923e 7ec7 debe
00000270: 116e a73e eef2 ce3e f1f8 f13a b8b6 823e
00000280: 6e9b c4bc b018 1ebf 488f 8e3e 358f 7cbe
00000290: 3f97 1d3e 181f 2fbe 5e2b 09be e1a2 4f3e
000002a0: 99b4 91be 02b1 9ebe a259 61bf 1746 083f
000002b0: 4225 1fbe 1909 0b3f 4ca5 c63c f9e1 d7be
000002c0: 8990 d33e 5eca 13bf 8bfc 60be 232e 143e
000002d0: 0fa3 b03f 6f63 d7be 73a7 893f 9f9f a9bd
000002e0: 7349 19bd f93c 053f 05b1 d03e dec1 823c
000002f0: e8d2 77bf 8c0a 20bf 0bef 193c bcc0 2dbc
00000300: 453c cbbd 7845 13be ec60 27bf c3fb 933f
00000310: bcfd 6cbe bff7 6dbe 2a88 1bbf 6121 d1be
00000320: b718 353e d015 d0bc 8f80 c2be e54d 293e
00000330: da5e 66be cff8 7cbe 4540 8fbe df2f 0b3f
00000340: 4310 9b3e ce81 163e 66be 3ebd 5ac0 33bf
00000350: bfb6 83be c1ec 3d3f c4f4 c63d 9dbe 053f
00000360: 9edb 4bbf 35a1 3a3d 6d2e e03e e89b bc3e
00000370: f7f0 5a3f 812a 52be eae6 0dbe 8f85 ab3e
00000380: df3d d63d 463f d8be 6b7f 843e 637a 463e
00000390: 365d 5e3d ec6b 37be 3087 7ebe f353 1b3f
000003a0: e08d 8a3d d710 62bd ff52 013f ed79 8d3f
000003b0: 04dd 4d3f fb78 3b3f 4ce0 42be eb04 e7bd
000003c0: bf46 0b3f d57f adbc d2ba b9be 8875 983e
000003d0: 3d55 713f 2c19 91bd 4de3 ae3e d53f dabe
000003e0: 6d0f f93e 5645 493f 70a3 c83e 4584 8abe
000003f0: 9511 c4bf 3efb 19be 14bf 4dbe 088a 3a3e
-0.53584605 0.09572755 -0.06200552 -1.2805941 -0.0049647847 -0.0036588947 -0.97262996 -0.09146227
-0.83441013 -0.13408375 0.5985894 0.070954286 0.30388802 0.16077198 0.18696766 -1.1776862
-0.35004187 -0.21481699 0.4123035 0.07383904 0.571998 -0.16898365 -0.4513953 0.20575377
1.2321475 -0.36726218 -0.39137226 0.023078552 -0.48048648 -0.8104558 -0.2660789 -0.01800228
-0.1682365 0.017627344 0.028463949 0.04875375 0.16037649 0.39217713 1.0197252 -1.4011428
0.3998023 -0.034237754 -0.89883393 -0.9432499 -0.9113661 -0.38791072 0.3569947 -0.049420517
-0.49100825 -0.72578865 0.22041556 0.47492343 -0.7537311 -0.28670967 -0.7976415 0.006089577
-0.44350728 -0.7721042 -0.35040525 -0.3616391 0.86950517 0.2159367 -0.97185826 -0.014273313
-0.20657082 1.2149138 -0.5127715 2.266364 0.6551439 -0.63996154 0.8044025 -0.23566303
0.62558544 -0.95717597 -0.7231176 -0.5445073 -0.58130616 -0.96110165 -0.4442857 -1.3666393
1.0760819 0.625763 -0.08934714 -0.384104 -0.31107935 -0.34202868 -0.54734695 0.5476265
-1.1147101 2.0485935 -1.5558213 -1.4154425 -0.30421457 0.51216596 -0.49281117 0.86893374
0.9359256 1.369852 0.4719636 0.6806674 0.18014605 0.91939884 -0.977333 -1.3708967
-0.9475846 -1.2439009 2.541806 0.8661566 -0.9102073 0.47067434 1.3487053 -1.3420193
0.8380866 -0.7647348 2.2792325 0.3662179 0.8418405 -0.5877309 -0.10175569 -0.6553708
-0.23807618 0.30016756 0.8796029 -0.88725996 1.3665391 -0.38503334 -0.79311347 -0.8858966
-0.39104408 -0.50334376 -0.3262588 1.1384431 0.29075348 -0.17375492 -0.4652172 -0.342658
0.24858491 -0.12730187 -0.6178747 0.3347056 -1.0794954 -0.1859324 0.7708892 0.5120149
-0.058594976 0.049665216 0.1714502 -0.4562826 -0.28608793 0.35704607 -0.007609533 0.25614685
-0.4871779 0.8384205 0.28605822 -0.43511575 0.32701162 0.40419716 0.0018461031 0.25530028
-0.023999896 -0.6175642 0.2784369 -0.24664004 0.15389727 -0.17101705 -0.1339545 0.20276977
-0.28458098 -0.3099442 -0.88027394 0.5323195 -0.15541556 0.54310757 0.024248742 -0.4216459
0.4132121 -0.5773066 -0.21971337 0.14470725 1.3799762 -0.4206805 1.0754226 -0.082823984
-0.037423562 0.5204616 0.40760055 0.015961584 -0.9680619 -0.62516093 0.009395371 -0.0106050335
-0.09923605 -0.14381969 -0.65382266 1.1561207 -0.23143667 -0.23239039 -0.60754645 -0.4084578
0.17685209 -0.025401026 -0.37988707 0.1653362 -0.2249712 -0.24704288 -0.2797872 0.5436992
0.30285844 0.14697954 -0.046568297 -0.7021538 -0.25725362 0.7418938 0.09714654 0.5224398
-0.79631984 0.045563895 0.4378542 0.36837697 0.85523933 -0.20524026 -0.13857618 0.33500335
0.1046102 -0.42235774 0.25878462 0.19382624 0.05428811 -0.17912263 -0.24856257 0.6067497
0.06765342 -0.05519184 0.50517267 1.1052834 0.8041537 0.73231477 -0.19030875 -0.11280235
0.54404825 -0.02117912 -0.36275345 0.2977717 0.9427069 -0.07084879 0.34157792 -0.42626825
0.4864458 0.78621423 0.39187193 -0.2705404 -1.5317866 -0.15037248 -0.20092422 0.18216717

2.bias f4 [64]
00000000: 3c70 d6be b360 423f b9fc 0c3f b10d 143f
00000010: ca1e 263f 422c aebe e28a 09be d309 8cbe
00000020: 6bc8 92be 27c1 cdbe acf0 163f 85bf 32bf
00000030: 8fe4 0e3f 906f 10bf 62bf 5c3f 0483 18bf
00000040: 7682 31bf a25e f53e 4669 28bf d2e5 3e3f
00000050: b420 283e 4f4e 653f 3e7b 243f 6cea 2c3f
00000060: 082f 29bf b722 24bf 6ca1 58ba 9f22 1f3f
00000070: 3040 5e3e 4843 343f b58a 4e3f 8fff e93e
00000080: af71 1f3f c54c 68bd 0177 35bf 68f7 253f
00000090: 3d6d 4f3f 76fb f3be 669c 253f 3525 27bf
000000a0: dee0 203f 73d9 283f 6339 2dbf d8cf dabe
000000b0: 9b82 1d3f 25cc 8cbf b7d6 2dbf 77e8 2c3f
000000c0: 8008 19bf 4072 933f 583e 803e 5006 213f
000000d0: ec22 163f 59a8 c73e 8a2f 163f caf3 e93e
000000e0: 868e 5abf 6274 adbe d4f4 343f 0314 a4be
000000f0: 7b7b 29bf 88eb 713f 8c33 383f 5a0d 093f
-0.41882503 0.759288 0.55073124 0.5783339 0.6489073 -0.3401814 -0.13431886 -0.27351245
-0.28668532 -0.40186426 0.58960986 -0.69823486 0.558175 -0.5642023 0.86229527 -0.59574914
-0.6933969 0.47923762 -0.65785635 0.7456943 0.16418725 0.89572614 0.6425055 0.675452
-0.6608739 -0.6411547 -0.00082638 0.621622 0.21704173 0.70415163 0.806804 0.45702788
0.6228284 -0.056713838 -0.7088471 0.64830637 0.8102606 -0.47652787 0.6469177 -0.6529115
0.6284312 0.659568 -0.6766569 -0.42736697 0.61527413 -1.09998 -0.67905754 0.67542213
-0.59778595 1.1519241 0.25047565 0.6290026 0.58647037 0.38995627 0.5866629 0.4569381
-0.85373724 -0.33877856 0.7068608 -0.32046518 -0.6620404 0.9450002 0.71953654 0.53536
