Homework_2/hw2_code/BipedalWalker-PPO_test/dir_save/we0_critic_linear_-160.pth (torch, 1255 bytes, 1 tensors)

weight f4 [1, 64]
1.6554838 -1.7242352 -1.741195 -1.8869808 -1.7951118 1.7544836 1.6567823 1.3931148
1.6336234 1.6294273 -1.3887658 1.8172045 -1.7688594 1.5626401 -1.7274153 1.4539824
1.5736724 -1.387712 1.795585 -1.7857932 -1.2918291 -1.5397233 -1.6646322 -1.4882932
1.6358979 1.686894 -1.4310762 -1.7217159 -1.6048213 -1.5527226 -1.7470837 -1.6723751
-1.7260065 -1.6130941 1.7007909 -1.4283577 -1.7785617 1.5775989 -1.574121 1.549809
-1.7096095 -1.57881 1.653963 1.4291667 -1.6269548 1.676047 2.0536168 -1.7685606
1.443657 -1.714787 -1.5438346 -1.7469378 -1.7399856 -1.7372198 -1.5651128 -1.7205117
1.5426575 1.4667011 -1.8967224 1.632247 1.5911862 -1.7103271 -1.894575 -1.61953
00000000: e5e6 d33f bdb3 dcbf 7adf debf 9688 f1bf
00000010: 39c6 e5bf eb92 e03f 7111 d43f 9651 b23f
00000020: 921a d13f 1391 d03f 14c3 b1bf 289a e83f
00000030: fc69 e2bf 9704 c83f f21b ddbf 181c ba3f
00000040: 196e c93f 8ca0 b1bf bbd5 e53f df94 e4bf
00000050: a85a a5bf a715 c5bf ab12 d5bf 6480 bebf
00000060: 1a65 d13f 25ec d73f 812d b7bf 3061 dcbf
00000070: c96a cdbf 9dbf c6bf 70a0 dfbf 6310 d6bf
00000080: c8ed dcbf de79 cebf 84b3 d93f 6dd4 b6bf
00000090: e9a7 e3bf c3ee c93f cc7c c9bf 2460 c63f
000000a0: 7cd4 dabf 7216 cabf 0fb5 d33f efee b63f
000000b0: 0e40 d0bf b588 d63f 756e 0340 3260 e2bf
000000c0: c1c9 b83f 247e dbbf 5f9c c5bf a89b dfbf
000000d0: d9b7 debf 385d debf 9e55 c8bf ba39 dcbf
000000e0: cd75 c53f ddbc bb3f cdc7 f2bf 78ed d03f
000000f0: fdab cb3f 00ec dabf 6f81 f2bf c24c cfbf
