Homework_2/hw2_code/BipedalWalker-PPO_test/dir_save/we0_critic_120.pth (torch, 24543 bytes, 4 tensors)

0.weight f4 [64, 24]
00000000: 2ecc 87bf 3103 47c0 8717 183f 9368 c83c
00000010: 116d b8be a2be 11be 86ed 9ebe 5de2 f8bd
00000020: de08 8c3d 13e7 d1bf 31be 973d 5dd9 0bbe
00000030: 8030 c93c 5c8d 9fbd 1ae3 833e 625f 1abd
00000040: 2e11 803e 7a64 4dbe 4503 bf3d d10a f9bc
00000050: fb27 d93e db5e 4e3e 82d5 c53e 1dd3 b2be
00000060: 59dc 21c0 a0fd 6ac0 a7a9 e33f 325f 2a3e
00000070: 945e eebe 1202 3abe 3000 95bf 1f53 283d
00000080: 4e75 a13e ad34 b93e 9dfc a5be 8d4e 00be
00000090: 284a 03be be8f debd 20bc b0bd 264d 65bd
000000a0: 0f26 1abe 55f1 46bf 4ba5 eebe 2117 d9be
000000b0: 3238 0abf 624e 1cbe 91ce 0e3e 6f5e 5f3e
000000c0: 9a2b 50bf 4d58 1640 269b 903f f5c9 b43f
000000d0: c8fc 9f3e 87fb 583b d0f6 43bc 1fee c93d
000000e0: a018 73bd c747 03bf 519e 383e c8f8 683f
000000f0: 8431 033e 616d acbe f44b 04bf 95be c2bd
00000100: 5b18 97be 3d84 b2bd c254 a7be c9e7 c63d
00000110: 31e6 b9bd a85f c13e 0fd3 cc3e 3cc0 20bf
00000120: 1abf 0940 d00f 3b40 eeef 1ac0 93de 7040
00000130: 859f af3f 7de0 ef3d a32e f43e 2c13 763d
00000140: a73b 2d3e 4c98 763f 7f40 2b3c 74f7 5a3f
00000150: 6f15 403c 1247 c1be 8789 a83e 635d 4abd
00000160: df9a 10be 363e 71bc d8c9 44ba 6944 3cbc
00000170: b0e1 a23e 37d7 ef3d 8d22 08bf f7de 90bf
00000180: 8512 853e 46c1 9cbf c579 a53f bcc6 13c0
00000190: 4d3b 293f 4e34 c63e 04e0 45be 7251 0d3d
000001a0: a0a1 83bd b20b 21c0 5c90 eebe 70c6 40bf
000001b0: 17c0 be3c b663 8f3e 8269 073e 1a6d 0abe
000001c0: 7812 bdbe ab3f 9cbe 73e2 e7bd 7680 b0be
000001d0: af2d c2be ea1a 5e3d 10b4 003e 291a 8d3e
000001e0: 2e97 1ebe 97d8 3f3f 76b9 3d3f 408e f63e
000001f0: 7cb3 8b3e b492 393f 9810 743e 2b49 eebe
00000200: 00a5 33bf 2b6a 8cbe 5b12 563e 4b39 f13e
00000210: 95b3 1dbd 9221 0dbe 38dd 22be 8383 febe
00000220: 712d 07be fbdd 763d 4667 05bf e9f0 e4be
00000230: cbc0 b53d c5a3 4cbe 513c e8be 9761 62be
00000240: 97fe f83e 5dde f6bf 4b87 cfbe ae83 5bbf
00000250: 48bb d63c c200 dfbd 3afd aabb a92e 94bc
00000260: 5d6c 053c 1f01 473f 2ae3 85bd f7eb 443f
00000270: 0a2c 63be 544f f3bd 9f8c 5c3f f728 8b3e
00000280: 544a e23e 30da a7bc 7a0c dc3e 8e7a d63d
00000290: a6b8 42be 0fe7 24bf a6f8 e7be 8366 21be
000002a0: 4b8d 883e 96e9 003e 953d e63e cc9f 6b3f
000002b0: 2214 873f 8f55 88bc 23cc b13d f806 913d
000002c0: fdfa 913d b4f5 c2bf 8858 ae3d 9389 4abf
000002d0: 5713 123d c2f2 0dbe fd29 51be c4fd e9be
000002e0: ce3a afbc ed6e c2be 8538 8cbe 3e34 4ebe
000002f0: e46d 95bd b762 12bf d37d 71be 9472 133f
00000300: 78ed 5a3e 2646 1840 6543 78bf 7249 04c0
00000310: 62cf 883f 2916 5e3d e923 8c3d 8960 c13c
00000320: b364 423e 5b39 083c c885 493d 1aae 0b3f
00000330: dbf7 6bbd 789e d7be ce3f 933d f7c2 b33e
00000340: 8fae 853e 549b 583e 8a21 2a3f 387a b83d
00000350: 7b9f 743e d820 d73c 120d 89be 24e3 3bbd
00000360: af5b bcbf 8e57 e73f 695c bc3e 73aa a83e
00000370: 9520 49be 6687 1c3e a04d 75be f6c6 f83d
00000380: 1f8b 8fbc a8a4 003f 453a 16bb cab0 cb3f
00000390: f17f 06be f8d6 12bf d988 87be 8081 1b3e
000003a0: 5fba 413d 11f2 423e 0781 633e 840d ca3d
000003b0: 63eb 6a3e 3d48 903e 99ca 3538 98e8 a8bd
000003c0: 5162 0cbd 230b 85be d2d7 293f 3cad a93f
000003d0: e8dc ec3d f7a6 debe b0d9 14be 42f2 bcbd
000003e0: 8c5b 02be 69e9 89bf a9c8 e63e 77b5 04bf
000003f0: 859d 1cbd d420 03be 9501 4cbf b04b 06bf
-1.0609186 -3.1095698 0.594109 0.024463927 -0.3602071 -0.14232877 -0.3104059 -0.1215255
0.06837629 -1.6398643 0.07409323 -0.13657136 0.02455926 -0.07790634 0.25759202 -0.03768862
0.25013107 -0.2005786 0.093267955 -0.030400665 0.42413315 0.20153372 0.38639456 -0.34926692
-2.529074 -3.67173 1.7786149 0.16637877 -0.46556532 -0.18164852 -1.1640682 0.041094895
0.3153481 0.36173 -0.3241929 -0.12529965 -0.12821257 -0.108672604 -0.08629632 -0.055981778
-0.1505358 -0.77711993 -0.46610484 -0.42400458 -0.53992 -0.15264276 0.13945986 0.21813367
-0.8131653 2.3491395 1.1297348 1.4124132 0.31247544 0.0033108906 -0.0119607 0.09859871
-0.059349656 -0.512814 0.18029143 0.9100461 0.12811857 -0.336772 -0.51678395 -0.09509007
-0.2951077 -0.08716629 -0.32681853 0.09712178 -0.09077109 0.37768292 0.40004775 -0.62793326
2.152289 2.92284 -2.4208941 3.7635849 1.3720556 0.117127396 0.4769183 0.060076877
0.16917287 0.96326137 0.010452389 0.85533834 0.01172386 -0.37749535 0.32917425 -0.049405467
-0.14121579 -0.014724305 -0.00075068837 -0.01149092 0.3181281 0.11710971 -0.5317772 -1.1318043
0.25990692 -1.2246482 1.2927786 -2.3090048 0.6610611 0.3871178 -0.19323736 0.0345015
-0.06427312 -2.5163388 -0.46594512 -0.7530279 0.023284955 0.2800576 0.13223842 -0.13518181
-0.36928153 -0.30517325 -0.11322489 -0.34473008 -0.3792548 0.054224886 0.12568688 0.2755902
-0.15487358 0.74939865 0.74111116 0.48155403 0.27285373 0.72489476 0.23834455 -0.46540198
-0.70173645 -0.2742475 0.2090544 0.47114024 -0.03850134 -0.13782337 -0.15904701 -0.4970971
-0.13200928 0.06027029 -0.5211071 -0.4471505 0.08874663 -0.19984348 -0.45358518 -0.2210754
0.48631737 -1.928661 -0.40532908 -0.857478 0.02621235 -0.108888164 -0.0052181752 -0.018088656
0.008143512 0.77736086 -0.06537469 0.76922554 -0.22184768 -0.11880365 0.8615207 0.2717969
0.44197333 -0.020489782 0.4297827 0.10472594 -0.1901575 -0.6441507 -0.4530689 -0.15761761
0.26670298 0.12589106 0.44968858 0.92040706 1.0553019 -0.01664236 0.08681514 0.07081407
0.0712795 -1.5231233 0.0851298 -0.7911617 0.035662975 -0.13862136 -0.20426174 -0.4570142
-0.021390345 -0.37975255 -0.2738687 -0.20137116 -0.072963506 -0.57181877 -0.23583154 0.5759671
0.2137965 2.3792815 -0.96977836 -2.0669827 1.0688288 0.054220352 0.06842787 0.023605602
0.18983726 0.008314456 0.04919985 0.5456253 -0.05760942 -0.4211309 0.07189904 0.35109684
0.2610974 0.21153003 0.66457427 0.090076864 0.23888962 0.026260778 -0.26767784 -0.045870915
-1.471548 1.8073595 0.36789253 0.32942542 -0.19641335 0.15286025 -0.23955393 0.12147324
-0.017522393 0.50251245 -0.0022922915 1.5913327 -0.13134743 -0.57359266 -0.26471594 0.15186119
0.047296878 0.19037654 0.22217189 0.09865859 0.22941355 0.28180113 4.3342447e-05 -0.08247489
-0.03427345 -0.2598506 0.6634494 1.3255992 0.11565572 -0.4348676 -0.14536166 -0.092258945
-0.12730235 -1.0774356 0.45074967 -0.51839393 -0.03823616 -0.12805492 -0.79689914 -0.5245924

0.bias f4 [64]
00000000: 41e6 063d 4ceb 793e 54b6 b3be 8126 29bf
00000010: 609e 4a3e f4f6 2cbe 0f5c ec3e 4687 f83e
00000020: 6350 413e ff58 edbd a343 2ebe 522c 8fbe
00000030: c4ea 8abe fb13 d5be bafa bbbe 290c bf3e
00000040: 95e5 9dbd b409 ee3e 35cf 613e 0ada 2cbd
00000050: 7e4e acbe 8fa8 2c3f d603 aebe 3f26 bdbe
00000060: 65f8 b9be 72a4 2dbf fee8 bbbe 364f fb3c
00000070: fe8b 943e 838c 803c f4b8 ebbd 1067 d4be
00000080: 4456 41be 2d93 18be 91ea 08be 7581 dbbe
00000090: 3f8b b1be 3fbe 573e 8a23 a6be eed3 86be
000000a0: c777 f23c fbb1 8fba 05d6 5f3e 1141 9f3e
000000b0: 5549 c33c 75b1 9a3e 0fc9 a7bd 8d8d 103e
000000c0: 71c9 fd3e b1ad 8b3e a745 9c3d 0519 b4be
000000d0: 5f89 ef3e e9e2 a2bd 9917 1e3f 74d5 41be
000000e0: b29a 65ba 14fc ab3e 1751 953e 8c28 5dbe
000000f0: ec33 cebe 41a5 9fbd 96d3 ae3e a4cc 57be
0.03293443 0.24406165 -0.35100043 -0.6607438 0.19786978 -0.1689108 0.46163985 0.48540705
0.18878321 -0.1158924 -0.17017989 -0.279635 -0.27132237 -0.41616806 -0.36714727 0.37313965
-0.07709805 0.46491778 0.220517 -0.042200126 -0.33653635 0.674447 -0.33987302 -0.36943242
-0.36322322 -0.6782905 -0.36701196 0.03067742 0.29013056 0.015692001 -0.115098864 -0.4148488
-0.18880564 -0.14899893 -0.1337073 -0.42872205 -0.3467655 0.21068667 -0.3244899 -0.26333565
0.02959813 -0.0010963076 0.21858986 0.3110433 0.023838678 0.30213514 -0.08192646 0.14116497
0.4956775 0.27280954 0.07630473 -0.35175338 0.46784493 -0.07953436 0.6175476 -0.18929082
-0.0008758708 0.33590758 0.2916343 -0.21597499 -0.40273988 -0.077951916 0.34145802 -0.21074158

2.weight f4 [64, 64]
00000000: 5a4d 1ebe 3d97 f6bc c621 913e 7a06 9fbf
00000010: 987e 4d3d 30b9 683e d24b 35bf adf4 c8bd
00000020: 2861 22bf 83fb 653e ab64 c13e 4fbc 92be
00000030: 1347 ba3e 1c60 e63e 62a8 11bd 102a 80bf
00000040: 754e 99be 006e acbe 5a71 d13c a797 e33e
00000050: 8c62 2e3e 07f5 2cbe 319f 73be a7b8 b23d
00000060: c945 253f 2220 09bf c5d9 13be 60b9 d13d
00000070: 889e 09bf 11d3 cbbe 609a b43d ff8d d2be
00000080: bf41 093e 4b8e ccbb af12 3bbd 9897 5a3d
00000090: d4d6 a5bd bc74 043e 4274 2d3f 975e b5bf
000000a0: 0a40 bd3e 30b4 c23d 8fac 5dbf bf83 57bf
000000b0: 366d b8be 6b15 19be 5dca 5bbd ecf3 523c
000000c0: eebe f1be 24c6 8bbe 75dd 613d 6383 4d3e
000000d0: ea12 15bf e176 5cbc 546c 56bf 46ff e23d
000000e0: 7af7 c3be 7b0c 24bf 0bfe 7bbe 807c a3be
000000f0: ed71 4a3f d2c5 a63e f79e 40bf a89b 6e3d
00000100: 45e9 04bf 518a 8f3f 0cc1 12bf 810c db3f
00000110: d3c4 933d 9bc5 bfbe 1afd 703e 2791 8bbe
00000120: b530 103e 00c5 35bf 83d5 ecbe ed5b 8bbe
00000130: 32e4 b6be c53c 24bf 2d54 6cbe fcb2 a9bf
00000140: 877a 6a3f e4ee a93e 5358 8c3e 5e32 063e
00000150: bc8d 64bd e7d8 51bf 597a d8be 810c 973e
00000160: 7bb7 40bf 0898 eb3f 5f81 8ebf 2cfb 4dbf
00000170: 9a8d d7be 3dc0 de3e 6fae d7be 430e 873f
00000180: ab33 013f 702c 263f 8de5 0b3f 0a7d 543f
00000190: 9dc5 3f3e 8c89 4c3f 431f 74bf 39f1 9abf
000001a0: 677d 3fbf 8953 5abf 6d61 0240 8009 c83e
000001b0: a046 85bf 02bc f23e 548d 793f f1e1 5fbf
000001c0: 05c7 fe3e 5715 38bf b137 d03f 59ee a63e
000001d0: d78f 173f 1638 16bf a6a2 10be 01fa dcbe
000001e0: 65e0 dcbe fc3a ad3e f689 3c3f 383e 53bf
000001f0: 3d1a 983f 8ee7 b0bd 8a93 04bf 9e70 20bf
00000200: e17e 3dbc 5984 65be 4d94 ffbd f737 8d3f
00000210: b3f1 ee3e 8852 cabe 02ce b5bb 0557 37be
00000220: d99c 023f 5c24 42be 23d6 c2be 1e2c a03e
00000230: 3bfe 87bf aa67 b7be 1e07 c73e 96c7 023f
00000240: c70b 8d3b 59ff e93e 7acd b93c cc01 c2be
00000250: 6585 18be 4220 893d 4ca2 503e 04b3 a43e
00000260: 9554 02bf c10d 4d3f d14c bc3e b74a 05bf
00000270: 1b87 f13e ca94 b93e 8768 b2be d634 df3e
00000280: 1ba8 0e3e 2164 97bd 4ea1 803e 2ad3 bdbe
00000290: 5af8 25be b414 a4bd 7959 11bf 89c6 0a3f
000002a0: dc26 d8be bbde 7cbe cc03 56be 6f37 863f
000002b0: 8a7c f8bd 6ca3 fe3e f719 713e c03d a9be
000002c0: 5bbf c03e d47e 33be a093 dfbd be02 9fbe
000002d0: cac5 c73f bc6c a9be c446 853f f7b7 e9be
000002e0: b821 023e 57f7 c23e b77b 953e 657b 083e
000002f0: fd1b 7abf 82d6 02bf 52d6 86be cba9 c0be
00000300: 0961 b63d 3437 98bd b94b b7be 8dd7 883f
00000310: c9e5 973d 7ece a1be c21e ebbe 3c17 05be
00000320: 7a1f 5a3e 73a3 20be 6012 c3be a218 243d
00000330: aef4 afbe fd83 f8be eb8e ba3d 0db7 ea3e
00000340: b86c 803d 7bf1 e13e 9f5f 353b 6588 c3be
00000350: 8578 3cbe c4cd dc3e bdeb ea3d 0fbd 003f
00000360: 2e33 3fbf a6ec a13e 9080 253e 82da 8c3e
00000370: 0d12 843f e408 9d3e ab64 c03d 26e4 ba3e
00000380: 02e8 183d a9d1 72be 0c44 953e 81ec e43e
00000390: b9e0 77bc 3714 9ebe a93c 02bf 5612 503f
000003a0: 5516 74be 77c5 71be 1343 203f 1ba5 9b3f
000003b0: 758a 373e 70b6 d83e 3ebd 50bd aa5d 97bd
000003c0: 58eb d33e 4f2c 153d c78f 93be 4064 d13c
000003d0: 8160 483f 9042 493e 26d3 aa3e af4c a7be
000003e0: 9fe2 c33e 7b41 e33e cdfd 9e3e 5d62 a7be
000003f0: 2e5f b9bf 89a1 00bf 6cc1 afbe d135 2a3e
-0.15459195 -0.030101413 0.2834608 -1.2423851 0.050169557 0.22726893 -0.7081882 -0.09812293
-0.634295 0.22459225 0.37772116 -0.28659293 0.3638235 0.449952 -0.035560973 -1.0012836
-0.2994267 -0.33677673 0.025566746 0.4445164 0.1702978 -0.16890346 -0.23791195 0.08726626
0.6455961 -0.53564656 -0.14438541 0.102404356 -0.53757524 -0.39809468 0.08818507 -0.4112396
0.13403986 -0.0062425486 -0.045672115 0.053367227 -0.08097616 0.12935156 0.6775552 -1.4169492
0.3696292 0.09507024 -0.8659143 -0.84185404 -0.3602082 -0.14949577 -0.053659786 0.012875538
-0.4721598 -0.27299607 0.05514284 0.20069651 -0.58231986 -0.013456077 -0.83759046 0.11083846
-0.38274747 -0.64081544 -0.24608628 -0.31930923 0.79080087 0.325728 -0.7524256 0.058253914
-0.5191844 1.1214086 -0.57325816 1.7113191 0.072152756 -0.37455449 0.2353405 -0.2725918
0.1408108 -0.71003723 -0.46256647 -0.2721857 -0.35720974 -0.64155227 -0.23078986 -1.3257747
0.9159321 0.33190072 0.27411136 0.13105151 -0.05579923 -0.8197159 -0.42280844 0.29501727
-0.7527997 1.8405771 -1.1133231 -0.8046138 -0.4210022 0.4350604 -0.4212527 1.0551227
0.50469464 0.64911556 0.5464714 0.83003294 0.18727727 0.7989738 -0.953602 -1.2104865
-0.74800724 -0.85283715 2.0371964 0.39069748 -1.0412178 0.47409064 0.97481275 -0.87454134
0.49761215 -0.7190756 1.6266996 0.3260372 0.5920386 -0.5867933 -0.14124545 -0.43159488
-0.4313995 0.33834064 0.7364801 -0.82516813 1.1883007 -0.086379156 -0.51787627 -0.6267184
-0.011565895 -0.22413768 -0.12479458 1.1032704 0.46668777 -0.3951609 -0.0055482397 -0.17904289
0.5102058 -0.18959183 -0.38053998 0.3128366 -1.062446 -0.35821277 0.38872617 0.51085794
0.0043043825 0.45702627 0.022680987 -0.37891996 -0.14894636 0.06695606 0.20374411 0.32167828
-0.5091031 0.8009911 0.36777356 -0.5206713 0.4717339 0.3624633 -0.34845373 0.43594998
0.13931315 -0.07392145 0.25123066 -0.37075168 -0.1620802 -0.08011761 -0.5677715 0.5420919
-0.42217147 -0.2469434 -0.20899886 1.0485667 -0.12133129 0.49734056 0.23545061 -0.33054924
0.37645993 -0.1752885 -0.10916829 -0.3105678 1.5607235 -0.3309077 1.0412221 -0.45648167
0.12708175 0.3807933 0.2919595 0.13328321 -0.97698957 -0.5110856 -0.26335388 -0.37629542
0.08905227 -0.07432404 -0.3579996 1.0690781 0.07416875 -0.31602854 -0.45921904 -0.12997144
0.2130107 -0.15687351 -0.38099957 0.040062554 -0.34366363 -0.485382 0.09109291 0.45842782
0.062707365 0.44129547 0.0027675403 -0.38189998 -0.1840535 0.43125737 0.11470745 0.5028848
-0.7468747 0.3162586 0.16162324 0.27510458 1.0318009 0.30670846 0.09394201 0.36502188
0.037330635 -0.23712792 0.29153478 0.44711688 -0.015129262 -0.30874798 -0.5087381 0.8127798
-0.23836644 -0.23610483 0.6260235 1.2159761 0.17923911 0.4232669 -0.050961725 -0.07390912
0.4139049 0.03641921 -0.2882063 0.025560498 0.78272253 0.19654298 0.33364218 -0.32675692
0.38258836 0.44385895 0.3105301 -0.32692233 -1.4482172 -0.50246483 -0.34327257 0.16622092

2.bias f4 [64]
00000000: bb32 b6be 8bdc 023f 986a de3e 67fe d73e
00000010: 1739 af3e 6ab5 c5be 42c6 f1bd 5d51 79be
00000020: aea1 b8be fc37 7abe 9dcb be3e ba3b babe
00000030: e45c d23e afac acbe ccb2 293f e592 e2be
00000040: 97ae fdbe 869d b53e 66bf d3be e6b7 c23e
00000050: 7f44 4e3c 43dc a43e 1224 ec3e 41f7 d43e
00000060: 036d 02bf 6145 cbbe bc9d 0b3d 1ec2 d53e
00000070: ccc0 263e edc3 f13e ba77 fd3e eb3d f83e
00000080: a066 053f ff5f 5f3d d9d2 0ebf 3577 f23e
00000090: 92e4 ef3e 2d4b ddbe 2248 e53e 66b9 09bf
000000a0: 0a35 cd3e d1ab f03e 675a f7be 1000 61be
000000b0: 789d f73e a5ca 97be 0a06 dabe ec67 a73e
000000c0: e317 dabe f8b1 153f 57dd 7f3e 8217 bb3e
000000d0: b3cf dc3e 2b58 ca3e 10e6 da3e 29a6 9f3e
000000e0: bf32 1fbf 1ce5 80be 6f91 aa3e a0e9 f2be
000000f0: 1a68 06bf edbd 043f 31f4 d43e 6b99 d33e
-0.3558558 0.5111777 0.434407 0.4218628 0.34223244 -0.3861497 -0.11805393 -0.24347444
-0.36060852 -0.24435419 0.3726472 -0.36373693 0.41086495 -0.33725497 0.6628845 -0.44252697
-0.49547264 0.35471743 -0.41356963 0.38030928 0.012589573 0.32199296 0.4612127 0.4159489
-0.5094759 -0.3970137 0.034085974 0.41749662 0.16284484 0.47219792 0.49505407 0.4848474
0.5210972 0.05453491 -0.5579048 0.47356573 0.46854073 -0.43221417 0.44781595 -0.5379852
0.40079528 0.47006086 -0.4831116 -0.2197268 0.48362327 -0.29646793 -0.42582732 0.32696474
-0.4259635 0.58474684 0.24986778 0.36541373 0.43127212 0.39520392 0.4275365 0.31181458
-0.6218681 -0.25174797 0.33314082 -0.47443867 -0.52502596 0.51852304 0.41592553 0.41327986
