Homework_2/hw2_code/BipedalWalker-PPO_test/dir_save/we0_actor_-100.pth (torch, 24543 bytes, 4 tensors)

0.weight f4 [64, 24]
-0.08370669 0.1560612 -0.4089753 -0.113906376 -0.08512767 -0.33710468 0.52840656 -0.08549679
0.2041728 -0.27867514 0.15064026 0.11440156 0.20489492 -0.22785586 0.19054441 -0.17371757
0.2832178 0.07394934 0.09905655 -0.041374035 0.09812585 0.081757344 -0.07808786 -0.59939396
-0.43972248 -0.16721593 -0.026500244 -0.43431905 -0.21422267 0.03963561 0.0026171317 0.38562742
0.11160669 0.43039227 0.114038885 0.31272772 0.35285658 -0.6048152 0.03097123 -0.04320347
-0.23307449 0.14198227 0.17686588 0.094480574 -0.11184749 0.09732065 0.5152 -0.07904447
-0.039293315 0.24773851 -0.018237663 -0.48581666 0.102536805 0.09298869 -0.5458405 0.29092756
0.012748789 0.03533518 -0.32345477 0.12811315 -0.063603155 0.0795701 -0.22128114 -0.39339277
0.027425261 -0.34171036 -0.1082496 -0.43269747 0.3530988 -0.109154165 0.36223903 0.09304648
0.22153214 -0.46781218 -0.32098362 0.63193864 -0.19646132 0.5421003 0.048923336 0.17887549
0.23462625 -0.0062549813 0.06902332 -0.2943593 -0.14409505 0.47391012 0.14386801 0.39515144
0.057466894 -0.48569468 -0.118772626 0.023675798 -0.21602665 0.16330479 -0.10282124 -0.023016209
-0.24582167 0.45170286 -0.04557469 0.37739158 -0.232893 0.22515532 0.16490348 -0.028228741
0.37115026 0.4605966 -0.13386647 0.24252239 0.45104706 -0.079831064 -0.27494457 -0.16234055
0.07884826 -0.075791515 -0.27537012 -0.30979845 -0.40947217 -0.28060207 0.41189992 0.078196846
-0.101296216 0.104099944 0.43817356 -0.036229037 0.3685233 -0.23842862 -0.40595806 0.1703978
-0.26017055 -0.18734951 0.4353046 0.03431031 0.14378422 0.46284312 -0.36194706 -0.24537247
-0.239801 0.045329012 -0.15540373 -0.46362296 0.22243425 -0.21903771 0.06302905 0.07187789
0.30132884 -0.27420756 -0.3497254 0.19775511 -0.00828344 -0.36748338 -0.21371843 0.102190346
-0.22741927 0.27118313 -0.07380938 0.2995799 0.066044115 -0.022241747 0.1457492 -0.53905046
-0.15290819 -0.06306608 -0.02595237 -0.17857693 -0.36433256 -0.12522519 -0.24680738 0.64246815
0.02733619 0.39777178 0.28348014 -0.2115953 0.3157982 -0.020833736 0.2447306 -0.3444373
0.031875566 -0.09270885 -0.36194918 0.34304535 0.9846407 0.08046525 -0.2173301 0.12537815
-0.12431327 0.17223464 0.21331921 0.20211698 0.064909294 -0.24340975 -0.072535776 -0.13413453
-0.46376273 -1.2091986 0.35470966 -0.29077655 0.25475314 0.08962617 0.2690459 -0.06888353
-0.12634584 -0.13789707 0.03731225 -0.48887956 0.35413897 -0.36161315 0.29413322 0.2131149
0.14652532 -0.26958388 -0.014847513 0.2620227 -0.16287115 -0.2951012 -0.2057809 -0.0029228025
-0.108971454 -0.25382736 0.07308099 0.37553427 0.354987 -0.21299927 -0.29338634 0.48087826
0.028525013 -0.34126914 -0.17437994 0.68189824 0.1466675 0.33576912 -0.11399931 -0.022463907
-0.042952344 0.024714185 -0.33556473 0.29254216 -0.12107071 -0.17997302 -0.01181108 0.010304348
0.1023912 0.79415214 0.1688085 -0.039538376 0.07273748 0.031478498 0.34344494 0.008330843
0.009139271 0.15677822 -0.20343438 0.4284687 -0.24292634 -0.060127072 -0.23318234 -0.29131645
00000000: 6a6e abbd 82ce 1f3e 3665 d1be bf47 e9bd
00000010: 6a57 aebd fc98 acbe a745 073f f118 afbd
00000020: ad12 513e 82ae 8ebe 7141 1a3e 5d4b ea3d
00000030: f9cf 513e 0c53 69be 131e 433e 05e3 31be
00000040: ec01 913e c072 973d 29de ca3d d277 29bd
00000050: 35f6 c83d 6570 a73d 87ec 9fbd e271 19bf
00000060: 4e23 e1be a73a 2bbe 0a17 d9bc 115f debe
00000070: 305d 5bbe f358 223d 2f84 2b3b f570 c53e
00000080: 0c92 e43d 605c dc3e 388d e93d d91d a03e
00000090: 9ea9 b43e 2bd5 1abf 60b7 fd3c 1ff6 30bd
000000a0: 14ab 6ebe cd63 113e 541c 353e 087f c13d
000000b0: 4c10 e5bd 0d50 c73d 26e4 033f 11e2 a1bd
000000c0: 07f2 20bd 2aaf 7d3e 2767 95bc f6bc f8be
000000d0: d1fe d13d db70 be3d 34bc 0bbf 75f4 943e
000000e0: 4ce0 503c 9fbb 103d dd9b a5be 1830 033e
000000f0: 5f42 82bd a6f5 a23d 8697 62be c76a c9be
00000100: f1aa e03c a9f4 aebe f7b1 ddbd 868a ddbe
00000110: 5ec9 b43e 388c dfbd 6577 b93e 278f be3d
00000120: 52d9 623e 1485 efbe f757 a4be bbc6 213f
00000130: 282d 49be 16c7 0a3f d663 483d 232b 373e
00000140: dd41 703e 96f6 ccbb 195c 8d3d 43b6 96be
00000150: a78d 13be 59a4 f23e 2352 133e 4a51 ca3e
00000160: 6862 6b3d f9ac f8be 103f f3bd bff3 c13c
00000170: 1736 5dbe 5f39 273e f193 d2bd 7d8c bcbc
00000180: adb8 7bbe 9945 e73e 87ac 3abd 7839 c13e
00000190: 817b 6ebe 1e8f 663e 75dc 283e f63f e7bc
000001a0: 6807 be3e 51d3 eb3e 4b14 09be ca57 783e
000001b0: a4ef e63e 787e a3bd 89c5 8cbe 9a3c 26be
000001c0: 327b a13d 9538 9bbd 50fd 8cbe e79d 9ebe
000001d0: 56a6 d1be 13ab 8fbe 8ce4 d23e ab25 a03d
000001e0: 6474 cfbd 5a32 d53d 4958 e03e e664 14bd
000001f0: 16af bc3e a226 74be bcd9 cfbe c37c 2e3e
00000200: 1335 85be 8dd8 3fbe 3fe0 de3e f888 0c3d
00000210: 2c3c 133e c6f9 ec3e 2051 b9be ec42 7bbe
00000220: 658e 75be eaaa 393d 2822 1fbe fd5f edbe
00000230: cec5 633e 6c4b 60be 6015 813d b734 933d
00000240: c647 9a3e ef64 8cbe 350f b3be 5180 4a3e
00000250: 44b7 07bc c826 bcbe 01d9 5abe 2c49 d13d
00000260: 99e0 68be 84d8 8a3e 5f29 97bd 8962 993e
00000270: 2342 873d 5334 b6bc 473f 153e 36ff 09bf
00000280: f793 1cbe ca28 81bd 119a d4bc dfdc 36be
00000290: cc89 babe 083b 00be 13bb 7cbe cb78 243f
000002a0: 25f0 df3c bea8 cb3e 4f24 913e 70ac 58be
000002b0: 4db0 a13e 83ab aabc a99a 7a3e 165a b0be
000002c0: f48f 023d 23de bdbd 6751 b9be a4a3 af3e
000002d0: 6a11 7c3f f7ca a43d c88b 5ebe 2163 003e
000002e0: f597 febd 475e 303e 5a70 5a3e c1f7 4e3e
000002f0: 2aef 843d 6840 79be a38d 94bd 905a 09be
00000300: 4f72 edbe 05c7 9abf 819c b53e aae0 94be
00000310: 016f 823e ed8d b73d 62c0 893e cf12 8dbd
00000320: ce60 01be e434 0dbe bbd4 183d 6c4e fabe
00000330: b451 b53e 5c25 b9be a198 963e cb3a 5a3e
00000340: bc0a 163e e606 8abe fc42 73bc d727 863e
00000350: b2c7 26be 8117 97be 3ab8 52be 7d8c 3fbb
00000360: 6d2c dfbd a9f5 81be 7cab 953d 0746 c03e
00000370: dbc0 b53e 7b1c 5abe bc36 96be ad35 f63e
00000380: 4aad e93c d4ba aebe a890 32be e290 2e3f
00000390: 0130 163e eee9 ab3e 7878 e9bd 3a06 b8bc
000003a0: ccee 2fbd 6775 ca3c 24cf abbe 16c8 953e
000003b0: ecf3 f7bd d94a 38be 4383 41bc 91d3 283c
000003c0: 7ab2 d13d 8e4d 4b3f 23dc 2c3e fef2 21bd
000003d0: 63f7 943d 99ef 003d 04d8 af3e 177e 083c
000003e0: e2bc 153c 788a 203e 1a51 50be 4060 db3e
000003f0: afc1 78be ce47 76bd 5ac7 6ebe 6e27 95be

0.bias f4 [64]
-0.105469994 0.1565034 0.12187089 0.017992549 0.05285473 0.03971815 0.07317999 -0.042681307
0.12855485 0.04651925 -0.08284628 0.005602923 -0.054773115 0.06452839 0.0027127685 0.06800633
-0.07477243 -0.008488067 0.100839116 0.011571032 -0.14623728 -0.028651692 -0.089021355 -0.05024721
-0.18591397 0.06745676 -0.044720147 -0.031806298 -0.10597271 0.014302839 0.04466777 -0.10232287
0.014363046 0.08369747 0.04025665 0.04290988 -0.108504035 0.043780763 -0.15391295 0.05848978
-0.13462521 0.10820279 0.06542487 -0.024888212 -0.06817686 0.1575988 -0.039628968 0.09588693
-0.04028736 0.042731036 0.05929994 -0.18779494 -0.0080432035 0.039122146 0.007834899 0.09380962
0.10364987 0.14003965 0.28034168 0.06724719 0.05772005 0.09162776 0.041142404 -0.00045614323
00000000: a700 d8bd 6d42 203e 7297 f93d 1c65 933c
00000010: 347e 583d 80af 223d 64df 953d 98d2 2ebd
00000020: e2a3 033e f88a 3e3d 4fab a9bd ba98 b73b
00000030: c659 60bd 7627 843d b4c8 313b e746 8b3d
00000040: 4a22 99bd 8911 0bbc bd84 ce3d 6d94 3d3c
00000050: 3abf 15be f4b6 eabc d450 b6bd 05d0 4dbd
00000060: 3b60 3ebe c526 8a3d 792c 37bd 5247 02bd
00000070: 3808 d9bd 7456 6a3c 8df5 363d a78e d1bd
00000080: fb52 6b3c 9469 ab3d 28e4 243d 45c2 2f3d
00000090: 5d37 debd 7553 333d 5b9b 1dbe fb92 6f3d
000000a0: 31db 09be 6d99 dd3d 79fd 853d 5de2 cbbc
000000b0: 4fa0 8bbd 9461 213e fc51 22bd 5e60 c43d
000000c0: 5c04 25bd bd06 2f3d 7ee4 723d 514d 40be
000000d0: a4c7 03bc 8b3e 203d f35d 003c 421f c03d
000000e0: 6246 d43d 8e66 0f3e f288 8f3e e5b8 893d
000000f0: dc6b 6c3d 56a7 bb3d f084 283d 8226 efb9

2.weight f4 [64, 64]
0.11712204 0.069884025 0.04538843 -0.18629646 -0.2355112 0.38015085 0.09856168 -0.30801415
0.27073714 0.021806471 -0.15000412 -0.013445153 -0.15173404 -0.021786306 0.032417864 0.41185775
0.07617227 0.2835354 -0.039777927 -0.084042765 -0.45745513 0.286911 0.37882608 0.2072815
0.09792192 0.17268033 0.03664035 0.2718789 0.009441663 -0.074824385 0.040350698 -0.12706093
-0.08478504 -0.0050189574 -0.36294034 0.13673055 -0.41666052 -0.24184898 0.04447274 0.28842118
0.15263146 -0.25052792 0.06507199 0.4387117 0.121517844 0.2856875 -0.071176 -0.14498135
-0.3688068 -0.42673418 0.09615882 0.03620573 -0.080408975 0.14184004 -0.116456464 -0.103948705
0.020472702 -0.045772277 -0.038285606 0.18039845 -0.09885967 0.00042807515 -0.088811554 0.013502946
0.008038351 0.06580721 0.256608 0.024165941 -0.027495615 0.15633234 -0.3254174 0.16728881
-0.012085203 0.037308045 0.1260134 0.01903362 0.051776845 -0.066941105 0.1945355 0.053033542
-0.11789285 0.101011984 -0.32030025 0.05597799 0.13897589 0.030335834 0.51939493 0.08416624
0.39938903 0.06815452 -0.13517973 0.019286398 -0.29595503 -0.10725645 0.07672353 -0.037607327
-0.07198978 -0.17625698 0.072216764 -0.32832772 0.038055655 0.12985945 0.007257829 -0.2960956
-0.0048790537 0.0015180146 0.03348856 0.23499654 -0.3637089 -0.104891434 -0.0023778754 0.011540972
-0.072365 -0.083058335 0.25161013 -0.05783077 0.044107556 0.0341181 0.24661857 0.07686537
0.068228744 -0.167905 -0.552195 -0.034977704 0.0031466803 -0.07821635 -0.008362158 -0.06456721
-0.07899537 0.2656962 0.33247212 -0.034795396 -0.1162654 0.05467176 0.012162252 0.10337475
0.27334484 0.0922665 0.1311597 -0.08810096 0.20060906 0.17630804 0.008285549 0.33901674
-0.21274795 0.2570113 0.09220817 0.14639778 -0.2262964 -0.044148307 0.11289442 0.079386055
-0.21207458 0.22153704 0.15380599 -0.006825301 0.2826393 0.017496502 -0.005543719 0.08504927
0.054332815 -0.07545552 -0.46134955 0.14066856 -0.57604074 -0.08853246 0.0885995 -0.07996876
0.011588968 -0.005060796 -0.045588236 -0.13321845 0.09485987 0.29858857 0.1831734 0.024409898
-0.10290465 -0.29775432 0.13225237 -0.12950186 0.35520595 -0.07037253 -0.052306462 -0.14144735
-0.054551985 0.04430143 -0.043859765 -0.035843782 -0.034079216 -0.047566034 -0.07923992 0.025694594
0.100828625 -0.16990463 -0.050772365 -0.018322965 0.27988428 -0.19306949 -0.13010119 -0.10920819
0.20067962 -0.14706856 0.16969612 -0.04583266 0.06582782 -0.16251868 -0.027450087 -0.015884716
0.11681206 -0.007947384 0.06550912 -0.046734016 0.06424642 0.2380181 -0.023785274 -0.023139875
-0.11747541 0.14211352 0.0012384751 0.17583345 -0.054645512 0.09913226 -0.18768947 0.15719421
-0.15073806 -0.029832454 0.010982055 0.06020925 0.009008985 -0.25227752 -0.022573939 -0.111406334
-0.01286968 -0.04885195 -0.06050061 0.002120942 -0.11678186 0.11180191 0.16676566 0.07021531
-0.1269819 0.09529147 0.022130227 -0.035167225 -0.176006 0.015663337 -0.07865203 -0.056188054
-0.050285414 -0.03119271 0.07453351 0.21986999 -0.28416905 0.06649646 0.28254968 -0.046501514
00000000: aedd ef3d 5b1f 8f3d 38e9 393d 80c4 3ebe
00000010: d929 71be 22a3 c23e b5da c93d 08b4 9dbe
00000020: 0f9e 8a3e 7ca3 b23c ae9a 19be 0f49 5cbc
00000030: 2b60 1bbe 3279 b2bc 98c8 043d 05df d23e
00000040: 3500 9c3d 8d2b 913e 2eee 22bd 9d1e acbd
00000050: 8f37 eabe 00e6 923e 7ef5 c13e 9a41 543e
00000060: 4a8b c83d 1dd3 303e 3114 163d b633 8b3e
00000070: 34b1 1a3c 873d 99bd c646 253d 431c 02be
00000080: c7a3 adbd 1176 a4bb 51d3 b9be 1803 0c3e
00000090: 8754 d5be 42a7 77be 0c29 363d f1ab 933e
000000a0: 6c4b 1c3e 3245 80be 7744 853d d29e e03e
000000b0: 59de f83d a245 923e b9c4 91bd fe75 14be
000000c0: 3fd4 bcbe e77c dabe eaee c43d 764c 143d
000000d0: 76ad a4bd 843e 113e ba80 eebd 0fe3 d4bd
000000e0: 5eb6 a73c b67b 3bbd 5ed1 1cbd 5fba 383e
000000f0: f076 cabd 466f e039 d5e2 b5bd 763b 5d3c
00000100: 4ab3 033c eec5 863d 2062 833e a7f7 c53c
00000110: 7c3e e1bc 9615 203e 1c9d a6be c24d 2b3e
00000120: 0401 46bc 52d0 183d a809 013e 65ec 9b3c
00000130: f513 543d 6b18 89bd 5034 473e b339 593d
00000140: ce71 f1bd 5fdf ce3d 65fe a3be 2d49 653d
00000150: b24f 0e3e db82 f83c 11f7 043f 5a5f ac3d
00000160: b87c cc3e 9994 8b3d 8e6c 0abe 82fe 9d3c
00000170: 6b87 97be 45a9 dbbd 3a21 9d3d 240a 1abd
00000180: 616f 93bd b67c 34be 62e6 933d 921a a8be
00000190: 3fe0 1b3d e0f9 043e 15d3 ed3b d899 97be
000001a0: 78e0 9fbb 1ef8 c63a 4d2b 093d efa2 703e
000001b0: 0e38 babe 52d1 d6bd 21d6 1bbb 5816 3d3c
000001c0: 1a34 94bd 7d1a aabd 0bd3 803e f5df 6cbd
000001d0: 20aa 343d 6cbf 0b3d 9489 7c3e 976b 9d3d
000001e0: 83bb 8b3d 4aef 2bbe a75c 0dbf c844 0fbd
000001f0: 8938 4e3b e52f a0bd 6f01 09bc d03b 84bd
00000200: 53c8 a1bd 5509 883e c939 aa3e 9e85 0ebd
00000210: 8e1c eebd 7fef 5f3d 2f44 473c 24b6 d33d
00000220: dbf3 8b3e 38f6 bc3d ba4e 063e 476e b4bd
00000230: 766c 4d3e 188a 343e 1cc0 073c 9a93 ad3e
00000240: 99da 59be fc96 833e a3d7 bc3d 4de9 153e
00000250: 3eba 67be dbd4 34bd 3135 e73d 2895 a23d
00000260: 142a 59be 9bda 623e 517f 1d3e c6a6 dfbb
00000270: 19b6 903e d354 8f3c 16a8 b5bb 502e ae3d
00000280: 168c 5e3d 6c88 9abd 0236 ecbe 6b0b 103e
00000290: 6877 13bf 8250 b5bd a873 b53d a9c6 a3bd
000002a0: a8df 3d3c 09d5 a5bb bbba 3abd 6b6a 08be
000002b0: e445 c23d 9ae0 983e cf91 3b3e 44f7 c73c
000002c0: acbf d2bd 4173 98be 2a6d 073e 239c 04be
000002d0: 8edd b53e 791f 90bd 4d3f 56bd 93d7 10be
000002e0: e771 5fbd 6b75 353d 4ca6 33bd eed0 12bd
000002f0: a696 0bbd 9ad4 42bd 8a48 a2bd 787d d23c
00000300: 3d7f ce3d 7bfb 2dbe aff6 4fbd 0b1a 96bc
00000310: fe4c 8f3e 02b4 45be 3f39 05be 8ba8 dfbd
00000320: f57e 4d3e 2499 16be d2c4 2d3e 07bb 3bbd
00000330: bcd0 863d 4c6b 26be 01df e0bc aa20 82bc
00000340: 293b ef3d bf35 02bc a529 863d 2b6c 3fbd
00000350: a193 833d 04bb 733e 56d9 c2bc d68f bdbc
00000360: f396 f0bd 3586 113e 5454 a23a af0d 343e
00000370: f9d3 5fbd db05 cb3d ab31 40be 85f7 203e
00000380: 145b 1abe 3163 f4bc 14ee 333c f99d 763d
00000390: 6c9a 133c 852a 81be fbec b8bc 0129 e4bd
000003a0: 5adb 52bc fb18 48bd 7dcf 77bd 81ff 0a3b
000003b0: 542b efbd 66f8 e43d 9ec4 2a3e 0bcd 8f3d
000003c0: 8b07 02be 2d28 c33d 734a b53c 820b 10bd
000003d0: eb3a 34be 6650 803c 5114 a1bd 7225 66bd
000003e0: 14f8 4dbd db87 ffbc 06a5 983d 9925 613e
000003f0: 9b7e 91be 4c2f 883d 5aaa 903e 5f78 3ebd

2.bias f4 [64]
-0.054281536 -0.19525513 -0.03532318 0.005300696 -0.06998817 0.012001468 0.1245699 0.023863073
-0.10770842 -0.0724193 0.13876863 -0.008334112 -0.12050272 -0.08162177 0.07831172 0.14266776
-0.09673872 -0.059029035 -0.018802214 0.01381732 0.090384156 0.10053375 0.014894349 -0.0489626
0.046076383 0.06486581 -0.01408115 -0.04988718 0.0683581 0.0024729213 0.06978197 0.10465238
-0.036813762 -0.009660834 -0.08286829 -0.03929544 0.006131783 -0.21350393 -0.036628515 -0.02261718
0.0145015195 -0.054918494 -0.0040027765 0.0016977086 0.091862395 -0.018667538 0.08249392 0.11276685
0.013179532 0.1171658 -0.014162152 0.051587656 0.1593851 -0.011557333 -0.015884938 0.16970252
0.07574633 -0.06990925 -0.15106097 0.016252616 -0.089476645 0.01932353 0.09985816 0.118620254
00000000: 5156 5ebd f6f0 47be 0aaf 10bd 76b1 ad3b
00000010: f555 8fbd cea1 443c 811e ff3d 7e7c c33c
00000020: 3b96 dcbd 9250 94bd 5d19 0e3e cd8b 08bc
00000030: 21ca f6bd 5129 a7bd e561 a03d 7f17 123e
00000040: f31e c6bd 6ec8 71bd 1a07 9abc 0a62 623c
00000050: 541b b93d a4e4 cd3d 6d07 743c 028d 48bd
00000060: 97ba 3c3d 5ed8 843d a0b4 66bc 8056 4cbd
00000070: 55ff 8b3d bc10 223b d9e9 8e3d fd53 d63d
00000080: 07ca 16bd 7a48 1ebc dab6 a9bd 41f4 20bd
00000090: 20ed c83b c6a0 5abe c807 16bd aa47 b9bc
000000a0: c897 6d3c 37f2 60bd b929 83bb a685 de3a
000000b0: 5a22 bc3d aaec 98bc 93f2 a83d 4ef2 e63d
000000c0: f7ee 573c 9ff4 ef3d 5f08 68bc 944d 533d
000000d0: d935 233e f85a 3dbc 2121 82bc 7fc6 2d3e
000000e0: e420 9b3d 952c 8fbd baaf 1abe 3524 853c
000000f0: 883f b7bd 614c 9e3c 6f82 cc3d 2def f23d
