Homework_2/hw2_code/BipedalWalker-PPO_test/dir_save/we0_critic_linear_40.pth (torch, 1255 bytes, 1 tensors)

weight f4 [1, 64]
000000 67 73 ed 3f a0 34 08 c0 3a 94 fa bf 03 40 08 c0
       1.8550843 -2.128212 -1.9576485 -2.128907
000010 c1 db 09 c0 53 34 0a 40 c1 6f ed 3f 54 2d eb 3f
       -2.1540377 2.1594436 1.854973 1.8373208
000020 57 11 eb 3f 61 a9 df 3f 59 77 cf bf d3 8e 0f 40
       1.8364667 1.7473565 -1.6208297 2.2430923
000030 ed dd 08 c0 57 b2 e6 3f 13 e2 02 c0 46 10 ce 3f
       -2.1385453 1.8023175 -2.0450485 1.6098716
000040 99 aa eb 3f b2 47 fc bf 52 16 11 40 e4 3e 0e c0
       1.8411437 -1.970938 2.2669873 -2.2225885
000050 a1 35 e4 bf 5f 12 e3 bf 07 14 f4 bf 07 5e d7 bf
       -1.7828866 -1.7739981 -1.9068612 -1.682557
000060 4b 01 f3 3f 55 bd f3 3f 3a c8 f4 bf 76 47 0d c0
       1.898477 1.9042155 -1.9123604 -2.2074866
000070 51 20 dc bf 34 3e e9 bf aa f6 09 c0 02 dc f2 bf
       -1.7197362 -1.8222108 -2.1556802 -1.8973391
000080 3f c4 fc bf 2d dd df bf 80 93 f9 3f 57 eb d1 bf
       -1.974739 -1.7489372 1.9498138 -1.6399945
000090 1f c3 fc bf 62 7a e8 3f ef f1 f4 bf fe 20 e8 3f
       -1.9747046 1.8162348 -1.9136332 1.8135068
0000a0 73 a0 e2 bf d7 f4 e3 bf b9 0a f0 3f 20 48 12 40
       -1.7705215 -1.7809094 1.8753272 2.2856522
0000b0 25 98 ee bf cd 73 f9 3f 53 84 0d 40 a9 5f 01 c0
       -1.8640181 1.9488465 2.2112014 -2.0214636
0000c0 61 21 d6 3f 25 83 f7 bf 86 bd da bf db 41 00 c0
       1.6728936 -1.9336897 -1.7089088 -2.0040195
0000d0 4e 54 e0 bf 4b b9 f8 bf 8c ad e2 bf 85 4f f0 bf
       -1.7525728 -1.9431547 -1.7709212 -1.8774267
0000e0 ea 3f de 3f 75 2e d8 3f 6e d9 11 c0 2c 90 fb 3f
       1.7363255 1.6889178 -2.2788959 1.9653373
0000f0 52 6b e7 3f f7 1d fa bf 18 af 0f c0 7a 16 ef bf
       1.8079627 -1.9540395 -2.2450619 -1.8678734
