Homework_2/hw2_code/BipedalWalker-PPO_test/dir_save/we0_critic_40.pth (torch, 24543 bytes, 4 tensors)

0.weight f4 [64, 24]
00000000: a098 8abf 0a22 29c0 e485 013f 70bd 2cbe
00000010: c627 dcbe e424 30be f791 75be 5096 f3bd
00000020: b1fa bfbc 64e4 d2bf cd54 bd3d 888d 91bd
00000030: 0fc6 acbc 1816 1fbe e1ae 7a3e 1c63 2ebd
00000040: 5d3f 823e 3b72 43be 9b4b e13d 54bf 1cba
00000050: 93e3 ec3e 7200 673e 3f0b c13e ffb3 e3be
00000060: 49cd 18c0 70f5 3ac0 bbbb df3f d370 4dbe
00000070: c183 03bf fffb bcbd 230f 76bf b8fc bb3c
00000080: fceb 923e 6797 763e 77f6 c0be 30c4 65be
00000090: 8bd3 24be 82fa 4abe 8501 cfbd 28b6 88bd
000000a0: b884 17be db4f 41bf b7d6 dcbe 475c c8be
000000b0: ce35 05bf aec2 07be 7cc1 cd3d 4d10 2a3e
000000c0: 9050 42bf 215a fc3f 2c70 833f efd5 d03f
000000d0: 0c25 803e 05a0 c03c 68cc 433d ed81 753c
000000e0: 1fa9 b1be 8dc7 33be 9d9b 193e ed97 2b3f
000000f0: 534c 2f3d 80af 43be 3ddc 0abf 66d0 05be
00000100: 8bda aebe 8ecc 1cbe acb5 d1be 0c92 2d3c
00000110: 1249 2dbe e488 963e fc27 a13e 39b0 30bf
00000120: 3254 0940 3d87 2940 4e89 00c0 a0f8 6a40
00000130: 2cb0 b93f 3e85 893d 95ce 153f 6c7a 97bc
00000140: 21aa 383e 46ea 943f ec14 d73d c68b 543f
00000150: bf07 9d3d d639 49be ba24 a73e 8246 79bd
00000160: dc70 28be 8358 30bd cc8a 0cbd 7aac 69bd
00000170: e98f 863e 26e9 983d 4742 04bf b39b 81bf
00000180: 02f5 57bc acd8 50bf 8626 ae3f e575 02c0
00000190: fd89 1f3f 1304 fe3e b07b 37bd 58a4 a83d
000001a0: 8d53 10be 2855 0ec0 a222 d7be 5efb 36bf
000001b0: 2984 febc a17e c13e bf96 833e f0d4 a7bc
000001c0: c12f 85be 2bd0 4bbe 72f5 4abc d9ee 7ebe
000001d0: dc52 96be 8a53 0b3e dcd5 233e 7659 b83e
000001e0: c91f 9fbd 073e 093f 7955 283f 55bb e43e
000001f0: 8722 863e b0ac 023f fcd2 413e 9812 e7be
00000200: 63b1 52bf 9d58 c2be 55c8 523e b696 d33e
00000210: d150 393d df83 13be 99cf 46be 6ab0 05bf
00000220: 4ac1 1abe b131 203d c5f2 0bbf c31f f1be
00000230: f4fc 853d 17a1 78be 25eb ebbe 6a84 8dbe
00000240: 116b 9e3e aa90 bdbf 3e2f 22bf a5ac 8bbf
00000250: 5948 ac3a dfae 88bd 6e76 36bd 0ced e4bb
00000260: af0b 273d 12e9 183f 6d15 c7bd c70f 4c3f
00000270: 712c 30be e441 29be ecdb 373f a614 123e
00000280: 6700 a63e 98a2 fcbd 30f8 ad3e 4554 973c
00000290: 9af2 92be 8d41 3cbf 7e0a dabe 0907 50be
000002a0: 414a 923e 533c 503e 4b96 4e3e 8ca6 6a3f
000002b0: 229a 703f a5da 0fbe 00f3 6b3e abe3 c9bd
000002c0: 97a6 453e 6627 aebf 452b 903e b566 22bf
000002d0: ea6c c03d f8d4 6a3d 5a20 babe ca21 1cbf
000002e0: 5df6 2ebe 7c96 08bf 69a4 dcbe 933d b4be
000002f0: 92be 62be dc92 39bf f34e c1be 97e3 d33e
00000300: ee01 e13e f32e 1b40 676c 4cbf 2e57 01c0
00000310: ae67 943f 132d 02be 89f2 a73c e066 cebd
00000320: bc46 1a3e 456a c7bb 1c5d 663d e384 51be
00000330: e230 72bd 58e1 debe d564 d03c 5c4b a13e
00000340: 928b 6a3e 578c 363e 1ba9 213f 9601 5f3d
00000350: 6627 4d3e b8fc 13bc 7bd7 5fbe 4e77 433a
00000360: 13cc a8bf 568c c33f 32a9 1d3f 5113 2e3f
00000370: ada0 01be 151e 7d3e 777d aebe d031 283e
00000380: e94a 5a3c 969a 4a3f 8c3e eebd 386b b63f
00000390: a812 bfbc 779d acbe a252 8ebe 87ec 113e
000003a0: d251 1d3d ec38 333e c90f 513e d1b7 c03d
000003b0: 5526 7b3e 1440 943e b306 ac3c dd8c 8fbd
000003c0: 7e6b 53bc 9e99 18be 1ef6 d03e 91aa 9e3f
000003d0: 5ac3 2e3e 5990 d3be 50b2 13be 0444 20be
000003e0: a4b4 c1be da16 5abf 77b5 e73e af18 26bf
000003f0: 5b6b 17be 00fc 35be fa68 3dbf 6402 f0be
-1.0827827 -2.6427026 0.50594926 -0.1686914 -0.42999095 -0.17201573 -0.23981462 -0.11893904
-0.023434969 -1.6475949 0.0924469 -0.07107073 -0.021090535 -0.15535772 0.24480774 -0.042574987
0.25438967 -0.19086544 0.11000749 -0.0005979438 0.46267375 0.22558764 0.37703893 -0.44473264
-2.3875296 -2.9212303 1.7479166 -0.2006257 -0.51372916 -0.09227752 -0.96116847 0.022947654
0.28695667 0.24081193 -0.37688038 -0.22438121 -0.16096322 -0.19822124 -0.10107712 -0.066753685
-0.14796722 -0.75512475 -0.43132564 -0.39132902 -0.52035224 -0.13257858 0.1004667 0.16607781
-0.7590418 1.9715005 1.0268607 1.6315287 0.25028265 0.023513803 0.04780236 0.01498459
-0.34699342 -0.17556591 0.15000768 0.67028695 0.042797398 -0.19109917 -0.54242307 -0.13067779
-0.3415111 -0.15312406 -0.40958917 0.010593902 -0.16922405 0.29401314 0.31475818 -0.69018894
2.1457639 2.6488793 -2.0083804 3.6714249 1.4506888 0.06714867 0.58518344 -0.018490992
0.18033649 1.1633995 0.105020374 0.8302578 0.07667493 -0.19650969 0.32645208 -0.060858257
-0.16449302 -0.04305316 -0.034312055 -0.057049252 0.2628167 0.074663445 -0.5166363 -1.0125641
-0.013180973 -0.81580615 1.3605506 -2.0384457 0.6231993 0.49612483 -0.044795692 0.08234471
-0.14094372 -2.2239475 -0.4201861 -0.71477306 -0.031068878 0.37791923 0.25700948 -0.020487279
-0.26012996 -0.19903629 -0.01238762 -0.248958 -0.29360092 0.13606086 0.1599955 0.36005753
-0.077697344 0.5361027 0.6575542 0.44674173 0.26198217 0.5104475 0.1892814 -0.45131373
-0.8230192 -0.37958232 0.20584233 0.4132592 0.04524309 -0.14405774 -0.1941513 -0.5222231
-0.15112796 0.03910989 -0.5466731 -0.47094545 0.065423876 -0.24280201 -0.4607784 -0.27640086
0.3094106 -1.4809773 -0.63353336 -1.0912062 0.001314412 -0.06673979 -0.044546537 -0.006986266
0.040782627 0.5973064 -0.097208835 0.79711574 -0.17204453 -0.16529042 0.7181995 0.14265689
0.32422182 -0.123357 0.33978415 0.0184728 -0.28700715 -0.7353752 -0.4258613 -0.20315184
0.28572276 0.20335512 0.2017452 0.9166038 0.9398519 -0.1404825 0.23041916 -0.09857877
0.1930183 -1.3605773 0.28158012 -0.6343797 0.09395774 0.05733201 -0.36352807 -0.6098906
-0.17086168 -0.5335462 -0.43094185 -0.35203227 -0.2214301 -0.72489715 -0.37755546 0.41384575
0.43946785 2.4247406 -0.7985291 -2.020946 1.159414 -0.12712507 0.020501392 -0.100782156
0.15066046 -0.0060856664 0.05624114 -0.20460849 -0.05912865 -0.435313 0.025438705 0.31502807
0.22904804 0.17826973 0.6314866 0.05444487 0.2003456 -0.009032421 -0.21859543 0.00074564375
-1.3187279 1.5277202 0.61586297 0.67998224 -0.12658949 0.24718507 -0.34080097 0.16425252
0.013323524 0.7914213 -0.116330236 1.425147 -0.023324326 -0.33713886 -0.2779742 0.14250384
0.038408108 0.17502183 0.20416178 0.0941006 0.24526341 0.28955138 0.020999288 -0.070092894
-0.012904046 -0.1490235 0.40812773 1.2395803 0.17066708 -0.41321066 -0.1442349 -0.15650946
-0.3783313 -0.8519112 0.45255634 -0.64881414 -0.14787047 -0.17771912 -0.73988307 -0.46876824

0.bias f4 [64]
00000000: 75b7 50bd 2909 433e 7f68 cabe 5050 0cbf
00000010: 6120 913e 0af1 60be 7b9a c23e 748e a33e
00000020: 3855 4e3e 1d10 cebd c783 38be 5da1 54be
00000030: 66a4 8bbe 5436 bcbe 69c5 76be ed6f 603e
00000040: 9f6b d9bd 8651 e03e 3877 ce3d 1a99 5fbd
00000050: cc26 87be fbe1 133f d4e6 97be 4a8e b5be
00000060: 1ae6 96be 1c65 23bf 4a6e babe 065e 98bd
00000070: 2a66 a83e 0f69 fb3d fb4a 07be 4872 e2be
00000080: c96f 27be 89cb 0abe dd59 8fbd 421b a5be
00000090: 89ab 68be 8821 543e 0e7e 24be 9288 90be
000000a0: 605e 7a3d 0ebc 0abd 35d7 783e 7eff 8a3e
000000b0: cd27 deba 3d00 863e 57f9 28bd c6d4 213d
000000c0: a2b8 193f 3452 693d 274e 1a3e fef2 93be
000000d0: 39ca 023f 1629 80bd df7e 0e3f 7c0d 11be
000000e0: e88b e3bd e2f1 8b3e 7699 ab3e 1375 68be
000000f0: c5b5 a1be de49 68bd 8a97 b83e d142 58be
-0.05095621 0.19046463 -0.3953285 -0.5481005 0.28345016 -0.21966949 0.38008484 0.3194462
0.20149696 -0.10061667 -0.18019019 -0.2076468 -0.27273864 -0.367602 -0.24098743 0.21917696
-0.1061623 0.43812197 0.10081333 -0.05458937 -0.26396787 0.57766694 -0.29668295 -0.3546012
-0.2947243 -0.63826156 -0.3641227 -0.074398085 0.32890445 0.12275898 -0.13212197 -0.44227815
-0.16351236 -0.13554205 -0.06999562 -0.3224736 -0.22721685 0.20715916 -0.16063711 -0.28229195
0.06112516 -0.03387075 0.24300845 0.2714805 -0.0016949117 0.26172057 -0.041253414 0.039509557
0.6004735 0.05696316 0.15068875 -0.28896326 0.5108982 -0.062578365 0.5566234 -0.141653
-0.111106694 0.2733298 0.3351552 -0.2270091 -0.31583992 -0.05671107 0.36053115 -0.21119238

2.weight f4 [64, 64]
00000000: 6ccb f93d dbea 55be b26b df3d 1ee4 bcbf
00000010: 2ec1 f33d 79ff 403d 7735 21bf a39c 80be
00000020: 7920 f3be 0b6b a33e 4055 5e3e 6a0a dcbe
00000030: b914 7a3e d1ca 903e d736 083e 5777 2fbf
00000040: 49e9 f0be cdc7 32be 5e2e 133c ed94 4a3e
00000050: 9c8a 1c3e 6c75 eebc 2042 22bd 53e1 723e
00000060: 4dfa d43e 5956 45bf d66a ac3d f39c 613e
00000070: fe09 c8be c9c3 b0be 5257 983d 2418 08bf
00000080: ba81 1fbe 4337 03be 0dd4 5a3d 32ba 86bc
00000090: cffd aebe a49f 613b 1a4d 5b3f ba0c a7bf
000000a0: e323 003f d66c a4bc 99cf 82bf 777a 73bf
000000b0: 4665 d1be 9a22 6dbc 4cbd c03d 78b6 10be
000000c0: b791 a1be 2994 83be 3885 593e 07bc c73c
000000d0: 6121 cdbe 3d59 36be 64f9 2bbf 49f3 3abd
000000e0: c8fc ebbe cfa2 18bf 0c84 b8bd 6fe1 adbe
000000f0: 6736 1b3f 5c5d 1a3e a461 18bf dfe6 90bd
00000100: 9294 14bf 72b6 7c3f 2ddb 9fbe d12c d23f
00000110: 0733 bcbd dd0f 47be 3b21 0c3e f345 f7be
00000120: 0b89 313d 7202 16bf 786c 95be 36bc 07be
00000130: 0763 4fbe 9fcb 00bf 4577 7ebe a75b aabf
00000140: 81b4 583f 27ca 3d3e bfca 843e 8514 453b
00000150: b30c 40be 792f 4abf a7a6 d1be 846c 4f3e
00000160: a374 13bf da60 dd3f 3e62 8ebf 46e8 19bf
00000170: 8e22 f7be c1f1 603e d0d2 bcbe 2f77 903f
00000180: 030f b03e 57c1 073f c5a4 fd3e 4f7f 6a3f
00000190: 7a01 d43e 80a5 4e3f f5eb 51bf 26e4 a6bf
000001a0: 1f02 1ebf 0d94 3bbf 6f33 e43f 5a1f ab3e
000001b0: 2092 88bf 08ad a73e 4055 643f dced 3cbf
000001c0: 7b4f bf3e 6033 56bf 4a01 b73f eed7 b03e
000001d0: 4f85 a33e ddca 15bf bc46 12be 526a 0cbf
000001e0: 7538 32bf 1450 053e 1461 093f 3465 3dbf
000001f0: 327f 8e3f 5fe7 a4bd f24c 21bf b7ea 1ebf
00000200: 3b62 223b 61d3 52be e15e cabd 814b 8b3f
00000210: a27c e13e 6cf4 c1be dd21 b2bc 36a4 4ebe
00000220: 47c4 f63e 73ad 2cbe 4672 c0be 6ffe a53e
00000230: 3b6b 86bf 3fd2 b2be c419 cf3e 3ad3 063f
00000240: 51ef bd3c 8fdc dc3e 57d9 233b e791 cebe
00000250: dc43 2dbe ce92 423d 1d20 3d3e 4022 9d3e
00000260: 2f73 f7be d810 493f ebcc b23e ea32 0cbf
00000270: 3ae3 f73e ef02 bf3e 4af4 a7be 4c0b d73e
00000280: 608f 093e 1656 4ebd 8207 6a3e 4574 b5be
00000290: f838 1abe b247 78bd de2a 0bbf 9005 063f
000002a0: 5499 dfbe 68ba 65be 8cf5 44be 9b72 883f
000002b0: d77a 0fbe e4e8 f23e bf67 813e adb3 a2be
000002c0: 8f6c b53e 2984 1bbe 2cce 01be 5aeb a6be
000002d0: bee9 c43f d7e3 a9be a56e 873f 5c42 f1be
000002e0: f03a dc3d 8a48 b43e 70f5 8c3e 9a8d 263e
000002f0: 452e 7ebf 5058 fbbe 99b7 91be 0177 c5be
00000300: 6d3c 233e 7da0 1d3d 4bcd 78be 8c2d 903f
00000310: 0918 5e3d 7d97 63be b573 0cbf 7ed1 a5bd
00000320: c3a5 ba3d 508f 46be f56d 97be b5a1 e73c
00000330: 1a45 abbe 7f02 d0be 10a1 193d 9420 e73e
00000340: 060c 2b3e b94e a93e e852 cebd a8bb efbe
00000350: 71b4 89be 46c1 a03e 6fac 74bc b298 053f
00000360: cfbb 3fbf 23c4 b43e ba20 433d 0e3a fd3d
00000370: db10 773f 3a65 9c3e 616a 0f3e ce9e cb3e
00000380: 76e9 b73d 3108 04be 4988 383e a563 0f3f
00000390: 5d47 903d 944f 53be 0fea 10bf 9764 323f
000003a0: 86a0 aebe e7ea 0bbe c439 3c3f 439d ab3f
000003b0: 1e1a 713e 914e a33e aa59 e4bd cf3d c83c
000003c0: dc0b a13e 5b54 083e 7405 c8be e348 843d
000003d0: ec81 2b3f d599 913e 1936 af3e 5c6b 85be
000003e0: 6792 da3e e54a bb3e 9dba 5a3e 8950 6fbe
000003f0: b735 babf eb08 b7be 97e4 e4be 6211 783e
0.12197003 -0.20890372 0.10909213 -1.4757116 0.119020805 0.047118638 -0.62972206 -0.25119504
-0.47485712 0.31917605 0.21712208 -0.42976695 0.24421968 0.28279737 0.1330217 -0.68541473
-0.47052982 -0.1745903 0.008983223 0.19783373 0.1528725 -0.029108725 -0.039613843 0.23718767
0.41597214 -0.7708488 0.08418815 0.22032528 -0.39070123 -0.34524372 0.0743853 -0.53161836
-0.1557683 -0.1281405 0.053424884 -0.016446207 -0.34178016 0.0034427429 0.8566452 -1.3050759
0.5005476 -0.020071428 -1.0219604 -0.9510874 -0.40897578 -0.014473582 0.094111055 -0.14132106
-0.31556484 -0.25698975 0.21242225 0.02438165 -0.4006453 -0.17807479 -0.67177415 -0.04564217
-0.46091294 -0.59623426 -0.09009561 -0.33961055 0.60629886 0.15074676 -0.5952399 -0.07075285
-0.580392 0.9871589 -0.31221905 1.6419927 -0.0918942 -0.19439645 0.13684551 -0.48295555
0.043343585 -0.5859748 -0.29184318 -0.1325539 -0.2025262 -0.503107 -0.24850185 -1.330922
0.8465043 0.18534146 0.25935933 0.0030072045 -0.18754844 -0.7897869 -0.40947458 0.20256239
-0.5759985 1.7295182 -1.1123731 -0.60120046 -0.4826855 0.21967222 -0.36879587 1.1286372
0.34386453 0.5302939 0.49539772 0.9160051 0.41407377 0.8072128 -0.82000667 -1.3038375
-0.61721987 -0.7327278 1.7828196 0.33422357 -1.0669594 0.327492 0.8919258 -0.73800445
0.37365326 -0.8367214 1.4297268 0.3453974 0.31937644 -0.5851267 -0.14284796 -0.5484973
-0.69617397 0.13018829 0.53663754 -0.7398255 1.1132567 -0.08051943 -0.63008034 -0.62076896
0.0024777788 -0.20588447 -0.09881378 1.0882417 0.440404 -0.37881792 -0.021744663 -0.20179829
0.48196623 -0.1686304 -0.37587184 0.3242068 -1.0501474 -0.3492603 0.40449345 0.52666056
0.023185404 0.43137023 0.002500137 -0.4034569 -0.16920418 0.047503285 0.18469281 0.30690193
-0.48330066 0.78541327 0.34921965 -0.5476519 0.48415548 0.37306926 -0.32803565 0.42000806
0.134336 -0.050375067 0.22854427 -0.3544027 -0.15060794 -0.06061525 -0.54362285 0.5235224
-0.43671668 -0.2243439 -0.19234294 1.0659975 -0.14011703 0.47443306 0.25274464 -0.31777707
0.35434386 -0.15187134 -0.12676305 -0.32601434 1.5383832 -0.3318164 1.0580641 -0.4712094
0.10753429 0.35211593 0.27531004 0.16264954 -0.9928935 -0.49090815 -0.28460386 -0.38567355
0.1594102 0.03848313 -0.24297063 1.12639 0.05422214 -0.22225757 -0.54864055 -0.08096598
0.09113648 -0.19390607 -0.29576078 0.02827535 -0.33451158 -0.40626904 0.037507117 0.45142043
0.16703805 0.33067873 -0.10074407 -0.46822858 -0.26895478 0.31397456 -0.0149336895 0.5218612
-0.7489595 0.3530589 0.047638632 0.12364589 0.96510094 0.3054598 0.14005424 0.39769596
0.08980076 -0.1289375 0.18020739 0.5601142 0.070448615 -0.20635825 -0.56607145 0.6968474
-0.34106845 -0.13663827 0.73525643 1.3407367 0.23545119 0.3189588 -0.111499146 0.024443535
0.3145436 0.13313429 -0.3906666 0.064592145 0.6699512 0.28437677 0.3422096 -0.2605847
0.4268982 0.36580577 0.2136025 -0.23370565 -1.4547642 -0.3574899 -0.4470565 0.24225381

2.bias f4 [64]
00000000: 1254 47be 0f0c bf3e 1663 cd3e 9575 a03e
00000010: 3d48 873e 8d48 aebe 56b2 cbbd cc3e 3bbe
00000020: a997 81be dc63 a9be 1e1d a83e bcdb 87be
00000030: 763d b83e ba98 88be 3312 c83e 283c cebe
00000040: 5515 dcbe edd1 b43e 9555 9abe 7940 9a3e
00000050: 984d 1abd 7847 993e 3a2a d43e 4de2 993e
00000060: 7f50 dbbe 9871 9dbe 0ac8 f2bc cad6 c23e
00000070: f7d6 2f3e 6458 d23e 6223 c73e d9fc f43e
00000080: ff90 fe3e c380 1d3d 460c f4be 5ec2 e83e
00000090: fda4 c93e 7552 cabe d744 b13e ada5 eebe
000000a0: 409b af3e f92b cf3e 46b6 d2be 3d95 59be
000000b0: 3c9f dd3e 14e2 a4be 0f86 d7be 44c4 6f3e
000000c0: 24db c0be fe74 073f 0dc6 2b3e 7c43 c93e
000000d0: c394 40bc 39f0 a53e 0d49 c63e 3f38 c53e
000000e0: 4102 f9be fa58 48be 7fc3 903e 6cb4 96be
000000f0: 9d42 e6be 52da cf3e 19cc 9e3e adbc a13e
-0.19465664 0.37313887 0.4011466 0.31339708 0.264223 -0.34039727 -0.09946124 -0.18285674
-0.2531102 -0.33084 0.32834715 -0.26534832 0.3598439 -0.2667902 0.39076385 -0.4028027
-0.42985025 0.3531641 -0.3014342 0.30127314 -0.037671655 0.2993734 0.41438466 0.30055466
-0.4283485 -0.30750728 -0.029636402 0.38054496 0.17171846 0.41083062 0.38894182 0.47849157
0.49719998 0.038452875 -0.47665614 0.4546079 0.3938369 -0.39516035 0.34622833 -0.46610776
0.34298134 0.40463236 -0.4115469 -0.21248336 0.4328555 -0.32203734 -0.42094466 0.23414713
-0.3766719 0.5291289 0.16774769 0.393093 -0.011754218 0.32409838 0.38727608 0.38519475
-0.48634532 -0.19565192 0.28274152 -0.29434526 -0.44972697 0.40596253 0.3101509 0.3158926
