Homework_2/hw2_code/BipedalWalker-PPO_test/dir_save/we0_critic_linear_-50.pth (torch, 1255 bytes, 1 tensors)

weight f4 [1, 64]
000000 74 6f e5 3f 6f c3 01 c0 27 b6 f2 bf cc 15 06 c0
       1.7924638 -2.0275533 -1.8961838 -2.0950804
000010 ce cd 02 c0 0b d5 02 40 f4 5f e4 3f 41 30 e9 3f
       -2.0438113 2.044253 1.7841783 1.8217851
000020 a2 ed e2 3f 74 81 d8 3f ca f7 c6 bf 60 56 07 40
       1.772877 1.6914506 -1.5544369 2.114647
000030 f6 4d 06 c0 c6 69 de 3f 25 d2 ee bf 82 32 c6 3f
       -2.0985084 1.737603 -1.8657881 1.5484164
000040 7a cc e3 3f 61 83 f6 bf 13 9f 0b 40 ee 54 06 c0
       1.7796776 -1.9258844 2.1815841 -2.0989337
000050 fc 7a df bf 21 bd d3 bf 30 36 ec bf c2 01 d1 bf
       -1.7459407 -1.6542093 -1.8454037 -1.6328661
000060 14 25 eb 3f f7 10 ec 3f 14 ae f1 bf fc 51 01 c0
       1.837069 1.8442677 -1.888125 -2.020629
000070 cf b1 d9 bf 10 5c e1 bf 5f d1 03 c0 88 ad f0 bf
       -1.7007388 -1.760622 -2.059654 -1.8802958
000080 46 a4 f0 bf fc 08 dd bf 62 b6 f1 3f 03 0e ca bf
       -1.8800132 -1.7268367 1.8883784 -1.5785526
000090 79 e4 f2 bf 6d 9c e0 3f d6 60 e5 bf b5 43 e0 3f
       -1.8975974 1.7547737 -1.7920177 1.7520663
0000a0 94 51 e5 bf 82 16 dc bf d0 2c e8 3f f8 9c 0a 40
       -1.7915521 -1.7194369 1.8138676 2.1658306
0000b0 21 ba e6 bf 46 36 ed 3f 62 b7 0a 40 09 40 f7 bf
       -1.8025552 1.8532188 2.1674428 -1.9316417
0000c0 8c 43 ce 3f df ce f2 bf 29 94 d5 bf ab 57 f3 bf
       1.6114364 -1.8969382 -1.668584 -1.9011129
0000d0 b0 63 e2 bf a8 0b f3 bf f8 ce da bf b9 03 f7 bf
       -1.7686672 -1.8987932 -1.7094412 -1.9298011
0000e0 85 46 d7 3f fa 0c ec 3f 24 c0 09 c0 75 fd e0 3f
       1.6818396 1.844146 -2.1523523 1.7577349
0000f0 d0 8d df 3f 3f ee ef bf be b3 08 c0 6a e3 e5 bf
       1.7465153 -1.8744582 -2.1359706 -1.7960026
