Homework_2/hw2_code/BipedalWalker-PPO_test/dir_save/we0_actor_-160.pth (torch, 24543 bytes, 4 tensors)

0.weight f4 [64, 24]
-0.076933995 -0.17688085 -0.33323726 0.041496266 -0.11088785 -0.27474827 0.3772942 -0.052833244
0.13067602 -0.22587952 0.10033073 0.14387032 0.2907861 -0.19574158 0.19051169 -0.17429699
0.28263417 0.07194536 0.092609115 -0.051066812 0.08598827 0.078515515 -0.070416994 -0.58144206
-0.23400034 -0.3895647 -0.0584644 -0.346931 -0.2511365 -0.10346519 -0.01226402 0.3635814
0.18037982 0.36394927 0.11798969 0.09942666 0.34771883 -0.4777277 -0.004102075 -0.07843933
-0.2697012 0.10397109 0.1389556 0.057896897 -0.14711332 0.059245404 0.4611662 -0.11526393
-0.085200846 -0.12397117 0.028901841 -0.4599067 0.0514372 0.06601828 -0.45753402 0.2298805
0.065959215 0.07084771 -0.29704136 -0.07569324 -0.028938744 0.05655511 -0.22753182 -0.39929762
0.021228204 -0.34801275 -0.11292406 -0.43630648 0.34894246 -0.12278312 0.30343384 0.054569438
0.15202962 -0.14554133 -0.22491996 0.5705998 -0.16877054 0.5240691 0.0609269 0.31081802
0.16404979 0.09236443 0.08688865 -0.1918894 -0.09692964 0.32444578 0.09393975 0.3449158
0.007110027 -0.5376706 -0.1745457 -0.036655147 -0.2799125 0.1021734 -0.116961874 -0.03467716
-0.24872993 0.2062144 0.049902666 0.29568404 -0.23555583 0.15347154 0.18281817 -0.026152007
0.4344643 0.40961906 -0.08560102 0.08629587 0.2696623 -0.02249246 -0.28051388 -0.16770661
0.07371372 -0.08090157 -0.28196996 -0.3170103 -0.4189345 -0.29694018 0.36547947 0.036082655
-0.045630045 0.22666204 0.4461179 -0.08739676 0.29696637 -0.29538402 -0.2729935 0.103669606
-0.1779113 -0.14679103 0.2503603 -0.112660296 0.17234375 0.48792252 -0.338708 -0.22018582
-0.21336041 0.07328459 -0.12408107 -0.4292487 0.25882664 -0.191359 0.05588446 0.064383976
0.33314362 -0.0027434125 -0.40632752 0.012311671 0.0044084815 -0.2768567 -0.14479768 0.07383537
-0.18014139 0.22087573 -0.047770962 0.24802585 0.03578197 0.02918678 0.1615224 -0.5231018
-0.13692081 -0.045327615 -0.004323813 -0.15371194 -0.33396536 -0.09894931 -0.2430002 0.6161115
0.010704428 0.40204123 0.3188071 0.11072069 0.28256074 -0.13296174 0.2596694 -0.2459633
0.032018606 -0.13208985 -0.25916612 0.46188784 0.76808864 0.07242817 -0.2258703 0.11560585
-0.13315268 0.1646164 0.20863286 0.20000713 0.066859834 -0.23656797 -0.054084778 -0.13681935
-0.35725886 -0.63117766 0.16956006 -0.18469584 0.23183598 0.12975098 0.210292 -0.0335548
-0.0722867 -0.092587166 0.06949681 -0.32735687 0.354897 -0.32221717 0.28873032 0.20831777
0.14157277 -0.27433172 -0.019313434 0.25732604 -0.16641742 -0.3002404 -0.21387587 -0.03297131
-0.037588466 -0.3516864 -0.0012933554 0.40475425 0.33152443 -0.20298731 -0.23275895 0.33954605
-0.011655181 -0.35221455 -0.14321563 0.45469946 0.09505074 0.32851297 -0.09695646 -0.0051183524
-0.02525167 0.043303546 -0.31523722 0.3140116 -0.09755174 -0.16328721 -0.03072859 -0.024487229
0.0404058 0.1296026 0.08688091 0.13029619 0.029307215 -0.053378623 0.2203966 0.016936295
0.06280896 0.21120924 -0.13985243 0.34480485 -0.16904864 -0.0568784 -0.2183771 -0.27650383
00000000: 928f 9dbd 4120 35be 139e aabe fdf7 293d
00000010: 2b19 e3bd ceab 8cbe b52c c13e ac67 58bd
00000020: efcf 053e f64c 67be 337a cd3d be52 133e
00000030: eae1 943e 7b70 48be 7f15 433e e97a 32be
00000040: 6db5 903e 1758 933d d9a9 bd3d 6f2b 51bd
00000050: 9e1a b03d becc a03d c936 90bd 63d9 14bf
00000060: c99d 6fbe 0675 c7be 5e78 6fbd f1a0 b1be
00000070: f794 80be 8fe5 d3bd 07ef 48bc 5727 ba3e
00000080: 7db5 383e 8f57 ba3e 94a4 f13d 34a0 cb3d
00000090: 3408 b23e ba98 f4be b36a 86bb cda4 a0bd
000000a0: 4716 8abe cbee d43d 604a 0e3e 4c25 6d3d
000000b0: e0a4 16be 4fab 723d fa1d ec3e 7f0f ecbd
000000c0: c87d aebd 99e4 fdbd 8ec3 ec3c e478 ebbe
000000d0: d0af 523d 9834 873d e641 eabe cb65 6b3e
000000e0: a015 873d 9b18 913d ce15 98be 0f05 9bbd
000000f0: f210 edbc 55a6 673d 1afe 68be bd70 ccbe
00000100: c5e6 ad3c ba2e b2be bb44 e7bd 9063 dfbe
00000110: 96a8 b23e b775 fbbd ae5b 9b3e 3484 5f3d
00000120: a7ad 1b3e c908 15be 6b51 66be d412 123f
00000130: 2fd2 2cbe 6429 063f 7c8e 793d 8a23 9f3e
00000140: abfc 273e 9029 bd3d adf2 b13d a87e 44be
00000150: 0c83 c6bd c21d a63e 7c63 c03d ce98 b03e
00000160: 3bfb e83b c8a4 09bf 1cbc 32be b523 16bd
00000170: b150 8fbe 4a40 d13d b589 efbd a309 0ebd
00000180: 0fb3 7ebe de29 533e bd66 4c3d e663 973e
00000190: 8c35 71be a527 1d3e b034 3b3e bc3c d6bc
000001a0: 1b72 de3e 97b9 d13e 964f afbd e4bb b03d
000001b0: 2d11 8a3e 1c42 b8bc 849f 8fbe 48bb 2bbe
000001c0: 38f7 963d b9af a5bd 5e5e 90be 2d4f a2be
000001d0: 957e d6be 8b08 98be 2020 bb3e 68cb 133d
000001e0: 92e6 3abd 181a 683e 9169 e43e 13fd b2bd
000001f0: fa0b 983e 933c 97be cec5 8bbe bb50 d43d
00000200: 612e 36be 6350 16be 3a2f 803e 71ba e6bd
00000210: e17a 303e fbd0 f93e 236b adbe 6478 61be
00000220: 277b 5abe 3b16 963d 371e febd 7cc6 dbbe
00000230: ed84 843e 9df3 43be 1be7 643d bfdb 833d
00000240: cd91 aa3e d3ca 33bb 290a d0be e4b6 493c
00000250: 0675 903b 29c0 8dbe d845 14be 0037 973d
00000260: fc76 38be 3f2d 623e 7cab 43bd 7dfa 7d3e
00000270: 1d90 123d 1d19 ef3c 2166 253e 00ea 05bf
00000280: f834 0cbe 73a9 39bd c6ae 8dbb aa66 1dbe
00000290: 82fd aabe f0a5 cabd 0bd5 78be 7cb9 1d3f
000002a0: a061 2f3c 59d8 cd3e af3a a33e 87c1 e23d
000002b0: cdab 903e 1f27 08be 63f3 843e cedd 7bbe
000002c0: f125 033d 9042 07be 6cb1 84be 907c ec3e
000002d0: 75a1 443f 3855 943d 8b4a 67be c3c2 ec3d
000002e0: 2d59 08be 3491 283e daa3 553e abce 4c3e
000002f0: cfed 883d e03e 72be 0088 5dbd 5f1a 0cbe
00000300: a2ea b6be dc94 21bf 27a1 2d3e e820 3dbe
00000310: 6966 6d3e 71dd 043e c956 573e c270 09bd
00000320: 0d0b 94bd 579e bdbd 5854 8e3d 529b a7be
00000330: 0fb5 b53e a6f9 a4be 76d4 933e 4151 553e
00000340: 74f8 103e 3575 8cbe 3537 9ebc 3dc0 833e
00000350: 5469 2abe 1cb9 99be 4702 5bbe ed0c 07bd
00000360: 5df6 19bd 3d10 b4be ce85 a9ba f33b cf3e
00000370: 92bd a93e e8db 4fbe 5d58 6ebe fbd8 ad3e
00000380: 5ff5 3ebc 7755 b4be 1ea7 12be 5ece e83e
00000390: f6a9 c23d da32 a83e 1c91 c6bd dab7 a7bb
000003a0: 97dc cebc 0f5f 313d c666 a1be 21c6 a03e
000003b0: 35c9 c7bd c334 27be 86ba fbbc 7199 c8bc
000003c0: 8d80 253d 8bb6 043e 9eee b13d 5d6c 053e
000003d0: af15 f03c 8ba3 5abd a5af 613e fcbd 8a3c
000003e0: fca1 803d 3c47 583e 7a35 0fbe 438a b03e
000003f0: 161b 2dbe 53f9 68bd 3f9e 5fbe e991 8dbe

0.bias f4 [64]
-0.08583216 0.11693081 0.07969691 0.006477003 0.0078529045 0.033832457 0.046944216 -0.04437814
0.1002536 0.010533909 -0.07468259 0.0069653857 -0.054135818 0.049287397 0.00033982415 0.051523887
-0.042290345 0.0018792661 0.12368631 0.0032990752 -0.11255083 -0.023050744 -0.049090173 0.00833588
-0.1546404 0.02535302 -0.04633412 -0.008283402 -0.0924263 -0.04142169 0.06351644 -0.05318417
0.009587219 0.0792251 0.049790308 0.063658394 -0.10290177 0.039275266 -0.118171334 0.04847995
-0.123117566 0.08912488 0.047505647 -0.010119267 -0.054218836 0.13948633 -0.06752112 0.07510187
-0.02592193 0.008093445 0.03820537 -0.13024488 -0.007604421 0.03774244 -0.04659928 0.06945342
0.045174334 0.099277966 0.17304571 0.05247013 0.04931041 0.09614144 0.012318036 -0.027460162
00000000: c6c8 afbd 6c79 ef3d 2238 a33d 0a3d d43b
00000010: 78a9 003c e793 0a3d 9448 403d dac5 35bd
00000020: c251 cd3d 6b96 2c3c 30f3 98bd e43d e43b
00000030: 85bd 5dbd 95e1 493d 6d2a b239 b60a 533d
00000040: a438 2dbd b551 f63a 404f fd3d 4c35 583b
00000050: 0d81 e6bd ead4 bcbc c712 49bd 3793 083c
00000060: 0e5a 1ebe 23b1 cf3c d9c8 3dbd 1bb7 07bc
00000070: 004a bdbd caa9 29bd e814 823d a5d7 59bd
00000080: b613 1d3c c540 a23d ecf0 4b3d 555f 823d
00000090: 2abe d2bd 1adf 203d d003 f2bd e992 463d
000000a0: 1025 fcbd 1b87 b63d 4895 423d 48cb 25bc
000000b0: 9214 5ebd 81d5 0e3e 8348 8abd 02cf 993d
000000c0: 3a5a d4bc 5e9a 043c 3c7d 1c3d ea5e 05be
000000d0: 822e f9bb d197 1a3d e3de 3ebd 983d 8e3d
000000e0: b908 393d 3f52 cb3d e532 313e ebea 563d
000000f0: b6f9 493d cee5 c43d 96d1 493c 22f4 e0bc

2.weight f4 [64, 64]
0.08521575 0.046312343 -0.102447696 -0.24687815 -0.18003881 0.24434689 0.097877085 -0.25911352
0.24777946 -0.10211404 -0.1939315 -0.06685813 -0.091388635 -0.03208642 -0.026902337 0.108646706
0.1314457 0.19036987 -0.086532235 -0.005533033 -0.3118705 0.14751075 0.23560746 0.08114326
0.19859926 0.1229152 -0.018048678 0.24163944 -0.005805862 -0.0011215906 0.019908614 -0.044021856
-0.097957306 0.009235588 -0.14911348 -0.028615456 -0.21732666 -0.12172717 -0.049800448 0.19616035
0.15145876 -0.21035272 0.05956261 0.32003194 0.051733024 0.20673378 -0.07471544 -0.1732519
-0.34896997 -0.19542487 0.07750625 -0.037179425 -0.051025353 0.1315945 -0.14425601 -0.13363202
0.011725641 -0.05781339 -0.0075334697 0.066583075 0.061212033 0.03917207 -0.009105826 -0.056112826
-0.03840935 0.14192653 0.14745608 -0.14850374 -0.05483568 0.07353061 -0.26857725 0.17636739
0.056022897 0.0564453 0.13938671 0.061669983 0.12655078 -0.034727126 0.1899302 0.06348402
0.00033504455 0.060764033 -0.116089344 0.07455752 0.13126759 0.025120005 0.36650378 0.11806413
0.3113309 0.0659401 -0.11322201 0.07697792 -0.21749102 -0.021685118 -0.04545091 -0.036723766
0.015959935 -0.036182765 0.1533531 -0.13665268 -0.021832297 0.11529984 0.07174898 -0.16350237
-0.01011704 0.13901806 0.056809023 0.15131219 -0.31388316 0.008557083 -0.031445064 0.007512395
0.0030876398 0.094109505 0.20388576 -0.124171056 0.038990073 -0.02957429 0.22722308 0.026318597
0.052290894 -0.10937007 -0.38170114 0.007961569 0.027540036 -0.08578704 -0.03898745 -0.08294
-0.09555507 0.15054032 0.17913184 0.04825434 -0.0864604 0.06893424 0.08296443 0.082999855
0.1637642 -0.04286197 0.105866894 -0.08951275 0.1837216 0.19347538 -0.033356152 0.17039126
-0.1687485 0.16069554 0.099745646 0.23753342 -0.06267731 0.0007872809 0.05136109 0.05245469
-0.24445345 0.2120857 0.054398753 -0.05610463 0.32048407 -0.0038819045 -0.026296267 0.1335166
-0.00581508 -0.17124474 -0.27207372 0.14935292 -0.37321463 -0.05782362 0.010493591 -0.081730716
-0.0012784046 -0.007836852 -0.04652273 -0.05280808 -0.030960858 0.080901116 0.17811461 0.009067467
-0.11654783 -0.17568758 0.07512242 -0.046175536 0.3935956 -0.06503426 -0.0052489014 -0.13761464
0.036459375 -0.022362215 -0.014587723 -0.099007934 0.056186963 0.031682126 -0.06325683 0.05046053
0.11375378 -0.20464817 -0.085600235 -7.182562e-05 0.24395853 -0.1633665 -0.16359438 -0.11888801
0.19368199 -0.1633541 0.16288243 0.00846721 0.05722028 -0.12744178 -0.023021488 -0.014581442
0.11965447 -6.99924e-05 0.032718975 -0.058494065 0.0993709 0.23998974 0.04044701 -0.07253498
-0.0940094 0.13404618 0.029793339 0.19027832 -0.094922304 0.065121695 -0.18372522 0.2025586
-0.13507545 -0.048719473 -0.0049025803 0.021624126 0.014158713 -0.24462895 -0.058277972 -0.12781267
0.007352038 -0.094296835 -0.09189193 0.010869313 -0.083256066 0.11026607 0.13508332 0.029746324
-0.13984007 0.058871683 0.039877344 0.0054313885 -0.16688524 -0.016801385 -0.12688762 -0.0351313
-0.08658184 -0.08471509 0.08289267 0.18851928 -0.28336397 0.045496147 0.27182442 -0.014444332
00000000: 9885 ae3d 03b2 3d3d 19d0 d1bd a0cd 7cbe
00000010: 185c 38be 1236 7a3e c873 c83d 87aa 84be
00000020: e6b9 7d3e 2a21 d1bd fb95 46be eaec 88bd
00000030: f729 bbbd 0d6d 03bd 4a62 dcbc 2a82 de3d
00000040: b499 063e 52f0 423e d037 b1bd 724e b5bb
00000050: 7dad 9fbe 0f0d 173e 1543 713e 702e a63d
00000060: 9b5d 4b3e f7ba fb3d d2da 93bc 5470 773e
00000070: 1a3f bebb 5602 93ba 6417 a33c 4350 34bd
00000080: d79d c8bd dd50 173c 34b1 18be f66a eabc
00000090: e18a 5ebe 184c f9bd 8efb 4bbd 42de 483e
000000a0: 0118 1b3e b466 57be ecf7 733d 3adb a33e
000000b0: 02e6 533d 05b2 533e 6904 99bd f268 31be
000000c0: 31ac b2be 751d 48be 99bb 9e3d 7449 18bd
000000d0: f6ff 50bd b5c0 063e d9b7 13be d5d6 08be
000000e0: e71c 403c bccd 6cbd 53db f6bb b55c 883d
000000f0: 78b9 7a3d e472 203d 9a30 15bc 90d6 65bd
00000100: 1f53 1dbd 3055 113e bafe 163e 5d11 18be
00000110: 619b 60bd 3797 963d f582 89be a799 343e
00000120: 4478 653d 3033 673d 64bb 0e3e aa99 7c3d
00000130: 8796 013e 083e 0ebd 107d 423e e903 823d
00000140: eba8 af39 b5e3 783d 40c0 edbd 9db1 983d
00000150: 036b 063e 78c8 cd3c 62a6 bb3e 9bcb f13d
00000160: c466 9f3e 9a0b 873d f1e0 e7bd 9aa6 9d3d
00000170: f7b5 5ebe fda4 b1bc bc2a 3abd a96b 16bd
00000180: 69be 823c 6134 14bd 9808 1d3e aeee 0bbe
00000190: a5d9 b2bc 5322 ec3d 21f1 923d 2a6d 27be
000001a0: f1c1 25bc c05a 0e3e 94b0 683d 95f1 1a3e
000001b0: 4bb5 a0be 0233 0c3c 8acc 00bd 892a f63b
000001c0: 005a 4a3b 7cbc c03d 6ec7 503e 654d febd
000001d0: 0eb4 1f3d c845 f2bc 2bad 683e 199a d73c
000001e0: fa2e 563d 6afd dfbd 556e c3be 3e71 023c
000001f0: a49b e13c 1eb1 afbd 4eb1 1fbd 72dc a9bd
00000200: 60b2 c3bd 3e27 1a3e 566e 373e 58a6 453d
00000210: 2612 b1bd 652d 8d3d 41e9 a93d d4fb a93d
00000220: cdb1 273e 0890 2fbd bed0 d83d 7652 b7bd
00000230: 8421 3c3e 691e 463e 76a0 08bd 0c7b 2e3e
00000240: 68cc 2cbe 5f8d 243e 7247 cc3d f63b 733e
00000250: f65c 80bd 8761 4e3a 0260 523d bbda 563d
00000260: 0152 7abe fe2c 593e 3ad1 5e3d f8cd 65bd
00000270: 7d16 a43e 8d67 7ebb 456b d7bc 93b8 083e
00000280: 6d8c bebb c85a 2fbe 3f4d 8bbe f9ef 183e
00000290: fd15 bfbe 76d8 6cbd 50ed 2b3c 6f62 a7bd
000002a0: 2490 a7ba 2466 00bc 9e8e 3ebd 494d 58bd
000002b0: a0a1 fdbc 7caf a53d ad63 363e b78f 143c
000002c0: a1b0 eebd 72e7 33be c9d9 993d 8f22 3dbd
000002d0: 5d85 c93e af30 85bd fafe abbb daea 0cbe
000002e0: 6d56 153d f730 b7bc 5801 6fbc acc4 cabd
000002f0: 4d24 663d 1ec5 013d cc8c 81bd b3af 4e3d
00000300: bef7 e83d 4a8f 51be 2d4f afbd 16a1 96b8
00000310: 44d0 793e 8c49 27be 4985 27be 8f7b f3bd
00000320: 9254 463e 4c46 27be a7ca 263e 0eba 0a3c
00000330: d05f 6a3d 1980 02be 8f97 bcbc 00e7 6ebc
00000340: 670d f53d e2c8 92b8 5504 063d 7997 6fbd
00000350: f882 cb3d dfbf 753e c4ab 253d 388d 94bd
00000360: 0088 c0bd 6743 093e 2911 f43c 52d8 423e
00000370: a066 c2bd 865e 853d 7722 3cbe 866b 4f3e
00000380: 3851 0abe 128e 47bd d3a5 a0bb 1425 b13c
00000390: f2f9 673c 0380 7abe e2b4 6ebd 53e1 02be
000003a0: 5de9 f03b b31e c1bd d631 bcbd 3415 323c
000003b0: 2882 aabd 2dd3 e13d 4853 0a3e 90ae f33c
000003c0: 3c32 0fbe 6f23 713d 6d56 233d caf9 b13b
000003d0: f7e3 2abe 0fa3 89bc d4ee 01be d7e5 0fbd
000003e0: d251 b1bd 1b7f adbd a2c3 a93d 330b 413e
000003f0: 1515 91be 2b5a 3a3d 922c 8b3e eba7 6cbc

2.bias f4 [64]
-0.013052195 -0.11177105 -0.053896826 -0.020675542 -0.087352805 -0.014484883 0.096525505 -0.029352846
-0.05819894 -0.060113594 0.10178009 -0.025038524 -0.0860815 -0.09399534 -0.0028869272 0.10492164
-0.07925205 -0.0430966 -0.0037554547 0.036257897 0.04709806 0.05503052 0.06015862 -0.058816
0.032444455 -0.003652641 -0.041001633 -0.008343345 0.047098536 0.07177507 0.027203985 0.06979359
-0.011316565 -0.012308276 -0.04908635 -0.00511526 0.032958023 -0.16459827 0.0022089873 -0.004020119
-0.004133362 -0.026645167 0.020587927 0.035848852 0.101427406 -0.030867435 0.03253081 0.054984502
0.006517868 0.06625416 0.03387611 0.031408753 0.079619564 -0.050751094 0.018516436 0.121140376
0.014152647 -0.0742225 -0.12545998 0.044391215 -0.07505486 0.035632953 0.075380616 0.09615339
00000000: e0d8 55bc 38e8 e4bd ebc2 5cbd c15f a9bc
00000010: 07e6 b2bd 0152 6dbc 2aaf c53d 6175 f0bc
00000020: 0362 6ebd ac39 76bd 1472 d03d 971d cdbc
00000030: 7f4b b0bd a180 c0bd 9a32 3dbb 28e1 d63d
00000040: e64e a2bd 0f86 30bd 131e 76bb 2983 143d
00000050: e5e9 403d af67 613d e368 763d 0ce9 70bd
00000060: 7ae4 043d 2661 6fbb 54f1 27bd 86b2 08bc
00000070: 65ea 403d cffe 923d e4da de3c f1ef 8e3d
00000080: 1d69 39bc a7a8 49bc c50e 49bd e99d a7bb
00000090: fefe 063d 738c 28be a8c4 103b 34bb 83bb
000000a0: 2771 87bb f746 dabc 03a8 a83c 3fd6 123d
000000b0: 2cb9 cf3d b4dd fcbc 073f 053d 6e37 613d
000000c0: d793 d53b 43b0 873d adc1 0a3d 77a6 003d
000000d0: 950f a33d 61e0 4fbd c8af 973c 7218 f83d
000000e0: 81e0 673c f701 98bd 9578 00be 90d3 353d
000000f0: 5db6 99bd dcf3 113d 2761 9a3d 12ec c43d
