Homework_2/hw2_code/BipedalWalker-PPO_test/dir_save/we0_actor_-50.pth (torch, 24543 bytes, 4 tensors)

0.weight f4 [64, 24]
000000 6f 49 cc bd 85 72 a8 3e 48 75 e5 be a4 d9 e4 bd
       -0.09974944 0.3289987 -0.4481604 -0.11174324
000010 f1 e7 bc bd 1e 50 ad be ad 8d 17 3f e5 67 24 bd
       -0.09223927 -0.33850187 0.59200555 -0.040138144
000020 47 89 aa 3e 95 50 83 be 7f 3f 54 3e 04 f7 d2 3d
       0.3330786 -0.25647417 0.20727347 0.10301021
000030 05 ac 8c 3e f3 9b 4e be bd 0b 28 3e 02 b1 4b be
       0.2747499 -0.20176677 0.16410728 -0.19891742
000040 2d 56 84 3e 15 a1 49 3d 2a 58 96 3d 76 c4 8b bd
       0.25846997 0.049225885 0.07341035 -0.06824581
000050 19 6c 8d 3d e4 a1 46 3d 5a 6c b7 bd 23 83 1c bf
       0.069053836 0.048494235 -0.08956213 -0.611376
000060 9d 72 db be 73 36 25 3d 55 7d e3 bc 32 f2 20 bf
       -0.4286088 0.04033513 -0.027769724 -0.6286956
000070 20 23 6e be 37 83 4e bc 0c 51 db 3b 04 24 ce 3e
       -0.23255587 -0.012604526 0.006693011 0.40261853
000080 e5 72 ef 3b 94 51 e1 3e e7 77 98 3d 04 fd 98 3e
       0.0073073977 0.44007552 0.074447446 0.29880536
000090 13 9e e1 3e a6 5a 2a bf 47 b9 a6 bb 85 05 a7 bd
       0.44065914 -0.6654457 -0.0050880047 -0.0815535
0000a0 d0 99 8b be 07 85 d6 3d ba 43 0f 3e d9 06 63 3d
       -0.27265787 0.10474592 0.1399068 0.055426452
0000b0 f2 fe 19 be ec 79 7a 3d 37 ca 00 3f 81 b3 f1 bd
       -0.1503866 0.06115143 0.50308555 -0.11801816
0000c0 fa 91 80 bd db c2 c3 3e 46 05 1c 3d 6a 4a 27 bf
       -0.06277843 0.382346 0.038090967 -0.6534792
0000d0 d8 7c 2b 3e 25 bf 34 3e cc d9 17 bf 04 8e bd 3e
       0.16746843 0.17651041 -0.59316707 0.37022412
0000e0 a0 c5 3f 3c 97 7c dd bb d9 e7 c4 be 7f b0 4f 3e
       0.011704832 -0.006759237 -0.38458136 0.20282172
0000f0 72 8a 2b 3d 84 a9 b9 3c dd 91 66 be 69 a4 cb be
       0.04188008 0.02266384 -0.2251658 -0.39773872
000100 09 3f c5 3c 42 4d af be ba 2d db bd ee 1e dc be
       0.024077909 -0.3423863 -0.10702081 -0.42992347
000110 6c 35 b8 3e fe a0 c6 bd a0 b5 be 3e 1b 77 ac 3d
       0.35978258 -0.096986756 0.37247944 0.08421155
000120 d4 52 e3 3d 44 d8 64 bf 49 c0 e2 be dc 98 62 3f
       0.110997826 -0.89392495 -0.44287327 0.88514495
000130 07 eb 60 be 49 e5 03 3f 5c ad 65 bc 89 71 c6 3d
       -0.21964656 0.51521736 -0.014018383 0.09689624
000140 57 dd c8 3e 40 40 68 3d 6f 30 95 3d f7 d9 d1 be
       0.3923137 0.0567019 0.072846286 -0.40986606
000150 57 5c 3c be 70 1b bd 3e 22 df 38 3e 60 36 dc 3e
       -0.183946 0.36934996 0.18053868 0.43010235
000160 1b 79 b9 3d f1 65 e8 be 6e 55 b3 bd 43 f8 61 3d
       0.09056302 -0.45390275 -0.08756529 0.0551684
000170 30 2d 40 be c4 47 40 3e 51 3d d2 bd 55 a7 39 bb
       -0.18767238 0.18777376 -0.102656014 -0.0028328497
000180 91 93 c8 be 3e cd 3c 3f 67 85 39 3d 4b 1a 84 3e
       -0.39175084 0.73750675 0.045293238 0.2580131
000190 61 7e 5d be 3b aa 8a 3e 6e 03 c6 3d 81 bd d0 bd
       -0.21630241 0.27083 0.09668623 -0.10192395
0001a0 b8 c8 02 3f 94 07 fe 3e d1 b8 97 be 36 18 2b 3e
       0.5108752 0.49615157 -0.2963319 0.16708454
0001b0 95 9f 21 3f 69 4d 0c be 58 29 9b be 7e 4b 43 be
       0.6313413 -0.13701405 -0.3030498 -0.19071767
0001c0 12 37 51 3d 76 f8 cc bd 8e e5 98 be d7 2b aa be
       0.05107791 -0.10008328 -0.29862636 -0.33236572
0001d0 84 e9 dc be e2 a6 9b be 97 6e d0 3e 6d 0a 60 3d
       -0.43146908 -0.3040076 0.40709373 0.054697443
0001e0 2a b7 42 bd 59 bb 5a 3d 6a bc f9 3e ed 5d 43 be
       -0.04753796 0.053401325 0.4877656 -0.19078799
0001f0 98 f8 cf 3e 65 89 85 be 86 97 09 bf c9 d1 81 3e
       0.4061935 -0.26081386 -0.5374683 0.25355366
000200 f5 37 9f be f7 18 86 be 3d 38 06 3f 2b b4 e5 3d
       -0.3109738 -0.26190922 0.5242956 0.11216005
000210 13 64 94 3d 7c af f8 3e 3b 85 c0 be 67 d3 84 be
       0.0724565 0.48571384 -0.37601647 -0.25942537
000220 05 9b 81 be 25 fc 04 3d a3 84 2c be 79 a4 f4 be
       -0.25313583 0.032467026 -0.16847472 -0.47781733
000230 a9 38 55 3e 3c 43 6d be 23 d3 68 3d c0 41 54 3d
       0.20822395 -0.23170179 0.05684198 0.051820517
000240 5a bd 74 3e 82 36 e6 be bb 9b bb be 44 ed 9d 3e
       0.23900357 -0.4496346 -0.3664225 0.30845082
000250 1b af 6f 3b 5f 4f dd be 30 78 73 be cd ec 3a 3e
       0.0036572877 -0.43224618 -0.23776317 0.18254395
000260 d2 c1 93 be 2e da 8d 3e 59 e4 0c be 37 30 92 3e
       -0.2885881 0.2770552 -0.13758983 0.2855241
000270 9b c0 b6 3b db 14 38 bc 22 c0 e4 3d ec 2c 13 bf
       0.0055771596 -0.011235441 0.11169459 -0.5749042
000280 9c 2f 43 be 0f cd d1 bd 91 40 86 bd 8e b0 5e be
       -0.1906113 -0.1024419 -0.06555284 -0.21747038
000290 ca 20 ce be c5 de 26 be 44 98 91 be 38 65 20 3f
       -0.4025939 -0.16295917 -0.28436482 0.6265445
0002a0 6d 66 8a bc 09 ba bb 3e 01 fa 9f 3e 14 31 c4 be
       -0.016894544 0.3666537 0.31245425 -0.38318694
0002b0 c7 bf 9d 3e eb 57 2d 3d b2 cd bf 3e 2e 1a b9 be
       0.30810377 0.042320173 0.3746162 -0.36152786
0002c0 61 57 8d bd 99 e6 17 be 36 42 b1 be 7b 03 3a 3e
       -0.06901432 -0.1483406 -0.34620827 0.1816539
0002d0 67 ba 85 3f 02 22 0a 3e ff 25 89 be ab bd 9b 3d
       1.044751 0.13489535 -0.267868 0.07604536
0002e0 a5 c4 31 be 96 67 fa 3d a4 28 27 3e e9 b4 1c 3e
       -0.1736017 0.12226789 0.16324097 0.15303387
0002f0 6e 39 9c 3c 6a 89 91 be 0c 66 00 be 96 f3 00 be
       0.019070353 -0.2842515 -0.12538928 -0.1259292
000300 c4 85 10 bf 0e 68 bd bf 12 75 82 3e ff b1 1b bf
       -0.5645411 -1.479738 0.25479943 -0.60818475
000310 d3 92 65 3e cb 71 f4 3d e4 21 a0 3e 10 e7 60 bd
       0.2241929 0.11935767 0.31275856 -0.05490786
000320 e3 9c c6 bd 53 16 28 be be 12 2f bc dc ec 11 bf
       -0.096978925 -0.16414766 -0.010685621 -0.57002044
000330 d0 b9 b3 3e ee 55 98 be 11 78 71 3e 93 d9 1b 3e
       0.351027 -0.2975306 0.23580958 0.15219717
000340 87 f1 ab 3d 0e 5e aa be 3a b5 9c bd f5 a4 51 3e
       0.08395677 -0.33274883 -0.07651754 0.20473082
000350 03 6c 5d be c4 62 b1 be 0c 65 80 be e7 0f b6 bc
       -0.21623234 -0.34645665 -0.25077093 -0.02222438
000360 ee 8f 7c be ec 4a 30 be cf 5c dc 3d d1 25 73 3e
       -0.2466428 -0.1721608 0.10759889 0.23744895
000370 00 f2 b1 3e de 3f 83 be b6 ac f0 be 97 bc 06 3f
       0.34754944 -0.25634664 -0.47006768 0.52631515
000380 9a 10 91 bd 05 9d 9b be 08 20 09 be 20 6b 55 3f
       -0.070832446 -0.30393234 -0.13391125 0.83366585
000390 a0 6f 0d 3e 1d 5e bb 3d 17 64 24 be 21 13 8d bd
       0.13812113 0.0914881 -0.16053806 -0.06888414
0003a0 8c 03 b5 bd e1 ae 98 bc 5b 2c c1 be 85 a5 81 3e
       -0.08838567 -0.018638076 -0.37729153 0.25321594
0003b0 78 15 1f be 81 b8 5a be 9d 04 6f bd b4 eb 39 bd
       -0.15535533 -0.21359445 -0.05835401 -0.0453908
0003c0 3c 08 a9 3d d3 cc 9a 3f 18 6a 8a 3e 1c f6 91 be
       0.08253524 1.2093757 0.27034068 -0.2850808
0003d0 9c 72 f4 3d 38 6e 15 3e 11 93 bd 3e 5b 23 eb bb
       0.119359225 0.14592826 0.37026265 -0.0071758456
0003e0 01 3e 00 3d 93 46 3e 3e 2d 75 23 be b6 34 f8 3e
       0.03130913 0.1858161 -0.15962668 0.48477715
0003f0 92 03 64 be c2 c4 ae bd c2 a8 72 be c7 81 96 be
       -0.22266987 -0.08533622 -0.23697188 -0.29395887

0.bias f4 [64]
000000 96 6c ef bd de 31 f1 3d 25 62 ec 3d b7 7d 12 3d
       -0.11690633 0.117770895 0.11542157 0.035764422
000010 df 58 fc 3c 13 4e b3 3c 80 5a 64 3d 72 5f 10 bd
       0.030804096 0.021887815 0.05575037 -0.035247274
000020 4e b8 dc 3d 99 39 10 bc fb 90 ab bd 41 5d 19 bc
       0.10777341 -0.008802795 -0.08377262 -0.009360612
000030 af 48 26 bd 27 9c 8f 3d c2 b9 4f bb ad 78 a9 3d
       -0.04059666 0.070122056 -0.0031696414 0.0827497
000040 3d a0 b8 bd 73 72 80 bc a8 38 d9 3d 11 ab 4e 3d
       -0.09014938 -0.015679574 0.106065094 0.05045611
000050 e6 09 04 be 31 6f ed bc dc e7 d6 bd 47 12 e5 bd
       -0.12894401 -0.028983684 -0.104934424 -0.11185127
000060 c9 db 3b be 60 c5 b8 3d b9 ae be bd a0 89 bd bc
       -0.1834556 0.09022021 -0.093106695 -0.023136914
000070 13 57 b4 bd f6 ee d1 bc 83 ed 53 3b 85 cf cb bd
       -0.088056706 -0.02562664 0.0032337613 -0.099516906
000080 47 67 39 ba 5d 3c 7f 3d 8e cc f2 3c 2d f4 25 3d
       -0.00070725795 0.062313426 0.029638555 0.040516067
000090 41 5a 92 bd 6b e0 1d 3d 19 05 20 be 56 dd 91 3d
       -0.07146121 0.0385441 -0.15626945 0.071222946
0000a0 70 81 0f be b5 b9 20 3e c1 eb ab 3d 51 bf e4 bb
       -0.1401422 0.15695842 0.08394576 -0.0069808145
0000b0 3c 92 9d bd 4d b3 45 3e 05 6b bc bd 18 83 d7 3d
       -0.076939076 0.19306679 -0.092001 0.10523051
0000c0 64 eb 7d bd c4 b3 b3 3d b1 81 47 3d 85 ca 55 be
       -0.061992064 0.08774522 0.048707668 -0.20878036
0000d0 e3 48 06 3d 60 69 8d 3d 7b 4a b8 3c 89 a4 dd 3d
       0.032784354 0.06904864 0.022496453 0.10822398
0000e0 51 70 e4 3d 19 9f 1a 3e a9 5d 94 3e 74 b0 bd 3d
       0.11154235 0.15099753 0.28977707 0.092621714
0000f0 bc c2 a0 3d a2 be 19 3e 4d 93 8a 3c 00 ed 34 bc
       0.07849643 0.15014127 0.016915942 -0.011042833

2.weight f4 [64, 64]
000000 2d c4 93 3d 12 62 e1 3c 38 cd 1f 3e dd 9d 5a be
       0.07215152 0.027512584 0.15605628 -0.21349283
000010 37 39 55 be 0d d2 51 3f 81 e0 22 3e bf 7b 75 be
       -0.20822607 0.8196114 0.15905954 -0.23972987
000020 79 fc 32 3e a2 9f 63 3e 2e eb 23 be 1d 87 7e 3c
       0.17479123 0.22228864 -0.16007683 0.015535143
000030 ae 6b 92 be 2f cc bb 3c c1 c3 be 3c 98 6c 11 3f
       -0.28597778 0.02292451 0.023286702 0.56806326
000040 7e d0 e3 3d ab fc e7 3e cd 1d 92 bd 85 12 02 be
       0.11123751 0.45309958 -0.0713459 -0.12702377
000050 24 fd ed be 0a b5 c3 3e 60 4b b4 3e 09 35 47 3e
       -0.46482193 0.3822406 0.35213757 0.19453825
000060 93 c7 8c 3d 83 7d 6f 3e bb 40 27 3b 17 cc 99 3e
       0.06874003 0.23387723 0.002552076 0.3003852
000070 c3 03 37 bb 6d 24 13 be e0 d2 bf 3d bf 8b 52 be
       -0.0027925826 -0.14369364 0.09366393 -0.20561121
000080 a1 42 16 be d7 8f 48 3c bf 25 a0 be d3 c5 59 3e
       -0.14673854 0.012241325 -0.31278798 0.2126687
000090 71 34 f5 be 03 8a 83 be 5a 00 d2 3d b1 12 8e 3e
       -0.47891572 -0.25691232 0.10253973 0.27748635
0000a0 41 29 62 bd 3a 1c a9 be 3b 0c 8e 3d 0c a0 26 3f
       -0.055215124 -0.33029348 0.069359265 0.6508796
0000b0 67 1c e1 3d 38 e7 26 3e 0a 2b 9e bd d8 b7 0a be
       0.109917454 0.1629914 -0.07723053 -0.13546693
0000c0 5f 15 4f be 6d b2 03 bf 24 aa 97 3c d9 d3 40 bd
       -0.20222996 -0.5144413 0.018513747 -0.047077034
0000d0 c9 71 f2 bd 22 0d 87 3e 6b 90 ee bc 82 63 16 be
       -0.11838109 0.26377207 -0.029121598 -0.14686397
0000e0 05 d5 a5 3d 2a c4 2e ba 16 44 d3 bd 57 59 9f 3e
       0.08097271 -0.0006666804 -0.10315721 0.31122848
0000f0 90 c3 b6 be 73 12 3b 3d 7d b7 31 bd 4c af 95 bd
       -0.35696077 0.04567189 -0.04338788 -0.07308826
000100 0d 7a d1 bc d5 d7 05 3e 35 17 46 3e 6a 7d 3f 3e
       -0.025570894 0.13070615 0.1934479 0.18700185
000110 2a 5c bc bc 6b d2 5c 3e 52 d5 cf be ff 99 10 3e
       -0.022993166 0.21564643 -0.40592438 0.14121245
000120 33 19 06 3d 4a 3d 12 bc 81 06 0c 3e 76 8f 12 bd
       0.032738876 -0.008925745 0.13674356 -0.035781346
000130 af b6 6e be 6f d7 0e be 2b ba 6d 3e 69 11 46 3e
       -0.23311876 -0.13949369 0.23215549 0.19342579
000140 70 3e 36 be da e2 6c 3e db cc 01 bf f2 da 93 bd
       -0.17797256 0.23133412 -0.5070321 -0.07219495
000150 d9 fe 15 3e e2 b4 68 be 42 0d 17 3f f1 1a 41 3e
       0.14647998 -0.22725251 0.59004605 0.18857934
000160 d6 79 79 3e e2 71 95 3d 5c 93 be bd da 6c 7f be
       0.24362883 0.07297112 -0.0930545 -0.24943867
000170 ea be 42 be 0e 11 13 be c9 48 33 3e ff 1e 8c 3d
       -0.1901814 -0.14361975 0.17508234 0.068418495
000180 fb 12 ce bd 05 d3 9c be 2d e8 97 bc 5b 6a f5 be
       -0.10062214 -0.30629745 -0.018543327 -0.47932705
000190 d1 3c 8e 3d 0d 4c 7b 3e e3 44 0f bc a5 f2 fb bd
       0.069451936 0.2454073 -0.008744451 -0.1230214
0001a0 47 f4 de 3c b0 11 54 be b4 0e 73 be 17 7e 8c 3e
       0.02721609 -0.20709872 -0.23736078 0.2743995
0001b0 9f fa d9 be b8 a3 7f be e6 67 af 3d 05 3b dc 3c
       -0.4257402 -0.24964797 0.08564739 0.026883611
0001c0 18 e5 21 be 6c 1a fd bd 11 cb b5 3e a7 86 90 3d
       -0.15810049 -0.12358555 0.3550649 0.07056933
0001d0 fd f8 1a 3d 63 5b 10 bd 44 6c 4d 3e 7d 22 56 3e
       0.03783511 -0.035243403 0.20060831 0.20911594
0001e0 c3 7d 90 bc 79 33 c2 be b1 ee 24 bf 1a 01 10 be
       -0.017638093 -0.37929896 -0.64426714 -0.1406292
0001f0 be 1d e5 bc 72 df 01 be fd df 44 bd fe 3f b0 bc
       -0.027968284 -0.12682894 -0.048065174 -0.021514889
000200 a4 8d 23 bd eb 1f 30 3e b6 29 b0 3e f9 60 4c be
       -0.03993 0.17199676 0.34406823 -0.19958867
000210 3b e2 b2 bd 32 f3 2f 3e d7 2f 2d bd 8f ef f3 3d
       -0.08734556 0.17182615 -0.04228195 0.119109266
000220 37 14 a9 3e 95 c3 49 3e 42 53 40 3e f7 60 0a be
       0.33023235 0.19703515 0.1878176 -0.13513552
000230 cb 99 73 3e 7a 3d 36 3e b2 e4 d8 3d 15 62 ba 3e
       0.23789136 0.17796889 0.10590495 0.36402956
000240 48 34 98 be dc 50 c9 3e 09 22 06 3e 24 c2 da 3d
       -0.29727387 0.39319503 0.13098921 0.10681561
000250 48 d8 2f be a6 57 2a be 01 17 9b bd 9d 7e 51 bd
       -0.17172348 -0.16634998 -0.07572747 -0.05114614
000260 a1 db ef bd c1 c8 9d 3e c9 f0 71 3e 79 d8 22 3c
       -0.11711813 0.30817226 0.23627008 0.009939306
000270 5d 04 af 3e 93 33 a3 3d a1 33 3a 3c 47 52 48 3d
       0.34183016 0.079688214 0.011364848 0.04890659
000280 68 50 c2 3d df d9 6f 3d e9 2c e5 be 8d 2d 83 3e
       0.094879925 0.058557387 -0.44760826 0.2562069
000290 93 19 06 bf b0 dd 2f be 30 52 37 3e d0 08 66 bd
       -0.52382773 -0.17174411 0.17902446 -0.056160748
0002a0 87 31 dc bc 26 04 17 bc a3 77 80 bd 9a e7 d0 bd
       -0.026879085 -0.009217298 -0.06272819 -0.102004245
0002b0 2c ce 63 3e e4 5f d0 3e 86 3e 3a 3e ea 8d 97 bd
       0.22246617 0.4069816 0.18187913 -0.07400115
0002c0 1b 4f a8 bc 20 5c 31 be 8a 38 1a 3e b4 fa 5d be
       -0.020545533 -0.17320299 0.1506063 -0.21677667
0002d0 9a fc 98 3e 71 e8 00 3d 0c 84 95 bd 78 f6 bf bd
       0.2988022 0.031471673 -0.073005766 -0.09373182
0002e0 8c b5 36 be 5e 15 2e 3e 37 b5 f3 3b 94 d3 a7 bc
       -0.17842692 0.17000338 0.007437374 -0.02048663
0002f0 53 5b bf bc a8 e0 da bd 3f 38 73 3d 64 00 84 3d
       -0.023358976 -0.10687381 0.059379812 0.06445387
000300 8d c6 19 3e 47 c6 52 be a8 c9 3a be 38 9d 7d 3c
       0.15017147 -0.2058345 -0.18240988 0.015479378
000310 3a a5 a5 3e 31 a1 32 be a1 36 c7 bd 77 e3 c2 bd
       0.3235262 -0.17444302 -0.097272165 -0.09516042
000320 63 2c 8b 3e e2 a5 72 be cf d9 0b 3e 15 db 1d be
       0.27182302 -0.23696092 0.13657306 -0.15415604
000330 01 02 40 3d 26 13 dd bd ba 33 80 bd 51 d6 8e bd
       0.04687691 -0.10794668 -0.06259866 -0.06974471
000340 e2 c9 c9 3d 56 5e e4 bd c9 84 07 3e e0 62 e7 3c
       0.09852959 -0.11150806 0.13234247 0.02824539
000350 20 72 1b 3e 1a 9f 9a 3e 87 20 5f bd 70 e6 f4 bd
       0.15180254 0.3019951 -0.05447438 -0.11958015
000360 e6 af 0d be 7d a9 0d 3e 56 dc c3 bc b9 e2 34 3e
       -0.13836631 0.13834186 -0.023908775 0.17664613
000370 51 07 87 bd a2 aa 16 3e 94 86 56 be 5f d0 51 3e
       -0.06593192 0.14713529 -0.20949775 0.20489644
000380 3a 1f 57 be a4 5c 67 bd ae 35 e4 3c 7e 78 49 3e
       -0.21008006 -0.056484833 0.027857628 0.1967487
000390 34 c8 03 bd 9c ed bc be c9 da 21 bb bf 87 94 bd
       -0.03217335 -0.36900032 -0.0024697057 -0.07252454
0003a0 b4 8e bc bd 4b 3c 08 3b e3 79 79 bc 2b 2d e8 3c
       -0.09206906 0.002078789 -0.015226814 0.02834185
0003b0 2a 01 05 be 57 db 5e 3d 7d 16 c8 3d 1a 9c 3b bc
       -0.12988725 0.054408398 0.09769914 -0.011450792
0003c0 ae cf 28 be 87 65 0e 3e 1d 67 50 3c 63 1f ac bb
       -0.16485474 0.13905917 0.012719897 -0.005252765
0003d0 28 8b 41 be 0c 70 43 3d 1f 60 4c be f2 a6 f5 ba
       -0.1890074 0.047714278 -0.19958542 -0.001874177
0003e0 0d 06 61 bd 62 28 9a bd 02 71 c8 3d 2f 3a 4e 3e
       -0.05493741 -0.07527234 0.097871795 0.20139383
0003f0 a8 e2 55 be 51 a7 ec 3d ce 5d ca 3e 44 ee 08 3d
       -0.20887244 0.115553506 0.39524692 0.033430353

2.bias f4 [64]
000000 f5 69 bb bd bb fd 39 be 1c 01 ac 3b ff fa 63 bd
       -0.09151069 -0.18163197 0.0052491557 -0.05565929
000010 d8 6d 1f bc ec a6 94 3d 78 56 04 3e c6 4c 21 3c
       -0.009730779 0.072584 0.1292361 0.009844964
000020 f2 de 0f be 4d bd ec bd ed ed 51 3e ad 23 df bc
       -0.1404989 -0.11559544 0.20500918 -0.027238691
000030 57 01 94 bd 72 97 1e be a7 d1 bb 3d e9 56 15 3e
       -0.07226818 -0.1548746 0.091708474 0.14583935
000040 00 9a af bd 51 78 0f be cf 4d 96 3b d1 23 34 bc
       -0.08574295 -0.14010741 0.004586912 -0.010994867
000050 7f 29 d2 3d 82 5e b1 3d 95 eb ac bc 45 15 15 bb
       0.10261821 0.08660604 -0.021108428 -0.0022748273
000060 b1 58 ae 3d d8 67 24 3c d2 3a 97 bc 35 9a fc bc
       0.0851301 0.010034524 -0.018460665 -0.03083525
000070 72 c4 aa 3d 4a 42 27 bd e0 76 02 3d 4c cd ae 3d
       0.0833825 -0.040834703 0.03185165 0.08535251
000080 93 24 95 3b ca e6 9e 3c 9b 2b 2b be b6 29 51 bd
       0.004551479 0.019397158 -0.16715853 -0.05106517
000090 aa 16 9d bd 98 30 41 be 83 85 5f bd d3 06 bf bc
       -0.076703385 -0.18866193 -0.054570686 -0.023318684
0000a0 49 7d 4a bc 51 32 14 be cc 33 43 bc 72 6f ba bb
       -0.012358972 -0.14472319 -0.011914205 -0.005689555
0000b0 77 df 04 3e b5 2e a3 bb 12 17 ca 3d 5a 8a 77 3d
       0.1297587 -0.004979933 0.098676816 0.060434677
0000c0 44 b2 a3 3c aa 43 17 3e ba 08 ed bc 2c d6 66 3d
       0.019982465 0.14771906 -0.028934825 0.056356594
0000d0 97 e1 67 3e 8d e6 06 3c 78 b2 79 bd 2d 6f 08 3e
       0.2264465 0.0082336785 -0.060961217 0.1332366
0000e0 0a 5e 77 3e 89 0e 4b bd 71 1e 25 be 8b 52 33 3d
       0.24156967 -0.04957441 -0.16124894 0.04377989
0000f0 bb 04 b7 bd 23 3f 2c 3d 09 8f b1 3d 03 0c 51 3d
       -0.08936449 0.0420524 0.0866986 0.051036846
