Homework_2/hw2_code/BipedalWalker-PPO_test/dir_save/we0_critic_210.pth (torch, 24543 bytes, 4 tensors)

0.weight f4 [64, 24]
000000 94 63 81 bf 7f 25 7f c0 6a 35 db 3e c5 16 b6 be
       -1.0108514 -3.9866636 0.4281419 -0.35564247
000010 c5 5d ed be 3a 06 3a 3d 29 c2 6f bd 45 7e 15 3b
       -0.46360603 0.045416094 -0.058534775 0.0022810858
000020 2a 13 a2 be 0f ac e0 bf a8 1c b8 3d 61 51 e4 3d
       -0.31655246 -1.7552508 0.08989841 0.11148334
000030 bb 56 aa bd 27 eb d5 3d ad 47 a4 3e c0 f4 68 3b
       -0.08317324 0.104452424 0.32085934 0.0035546273
000040 51 e2 8b 3e 76 f9 42 be b3 06 aa 3d 16 95 86 bd
       0.27321103 -0.19040474 0.08302059 -0.06571405
000050 9c d0 c7 3e 01 3a 8a 3e 18 5b 13 3f 5e ca 61 be
       0.39026344 0.26997378 0.57560873 -0.22049853
000060 15 ab 3d c0 22 0a 4b c0 3d a4 ed 3f 6a f0 55 be
       -2.963567 -3.1724935 1.8565747 -0.20892492
000070 04 8d 24 bf f9 69 d3 bd 03 44 c6 bf bf d8 d0 bc
       -0.6427767 -0.10322947 -1.5489506 -0.025493978
000080 9f 79 91 3e e0 fb 93 3e b9 4a 74 be b2 fe 87 bd
       0.28413102 0.28903103 -0.2385663 -0.06640376
000090 eb ba b6 bd 0d e7 87 bd 80 8a ae 3d 71 59 85 3d
       -0.089223705 -0.06635866 0.085225105 0.065112
0000a0 77 85 c9 bd be 43 50 bf f3 11 17 bf 9d 0e 1c bf
       -0.098399095 -0.81353366 -0.59011763 -0.609598
0000b0 9c a2 3f bf 17 70 9f be 89 19 28 3e 66 2f 8f 3e
       -0.748575 -0.31140205 0.16415991 0.2796585
0000c0 e5 eb fc be 71 70 17 40 fe 73 91 3f ac a9 d1 3f
       -0.49398723 2.3662379 1.1363523 1.6379905
0000d0 ec 5d 96 3e df a3 84 3e c7 89 33 bd cd a1 28 3e
       0.29368532 0.25906274 -0.043832567 0.16467972
0000e0 58 a6 d7 3c 48 6d 12 bf 70 46 9a 3c b8 86 ba 3f
       0.026324436 -0.57198 0.018832415 1.4572363
0000f0 e0 e2 8c bd d0 47 73 be 8f e8 30 bf d0 39 63 be
       -0.068792105 -0.23757863 -0.69104856 -0.22190022
000100 bc ff b5 be 9b cd 8b bd 7c 98 65 be 1d 92 86 3e
       -0.35546672 -0.068263255 -0.2242145 0.2628335
000110 a9 20 e5 3d 30 11 18 3f c7 9b fa 3e 96 f5 2c bf
       0.1118787 0.59401226 0.48946974 -0.67562234
000120 76 c8 02 40 e3 15 3a 40 1b 3e 30 c0 b4 ca a6 40
       2.0434852 2.9075859 -2.7537906 5.212244
000130 fe e1 b2 3f 46 3a 3c 3e 26 38 3e 3d 98 eb ab 3d
       1.3975217 0.18381605 0.046440266 0.08394545
000140 c1 ce 2b 3e a2 26 90 3f d0 de a5 bb ae 0d 20 3f
       0.16778089 1.126179 -0.0050619617 0.62520874
000150 ba f5 0b bd 12 70 30 be 3a ed bd 3e 40 b0 62 3c
       -0.03416989 -0.17230251 0.37095052 0.013835967
000160 9d 63 76 bd e2 f4 a5 3d 32 6a f0 3d 7e f2 0e 3e
       -0.060153592 0.08103348 0.11739005 0.13959691
000170 ed ce 00 3f 35 19 87 3e a1 eb 1b bf 39 ba a4 bf
       0.50315744 0.2638642 -0.60906416 -1.2869331
000180 b7 72 7f 3f 3d 02 64 bf d6 73 6a 3f 34 de 55 c0
       0.99784416 -0.89065915 0.91583 -3.3416872
000190 25 4a 1e 3f 56 e9 4d bd cb 13 29 3e b8 a3 00 be
       0.61831886 -0.050271355 0.16511457 -0.12562454
0001a0 d0 93 af 3e 21 72 58 c0 64 25 39 3c 7c 65 a6 bf
       0.3429246 -3.3819659 0.0113004185 -1.299972
0001b0 f2 e8 d9 3d fa d9 5c 3e cb f8 32 3e f0 be 00 be
       0.10640134 0.21567526 0.1747772 -0.12572837
0001c0 94 17 cb be 4c 1b c0 be 46 5d 58 be 4f 7d e8 be
       -0.39666426 -0.37520826 -0.21129331 -0.45408103
0001d0 a9 19 fe be e1 95 8f bc eb 52 d9 3d 0f a8 9c 3e
       -0.49628952 -0.017527523 0.106115185 0.3059697
0001e0 02 1d 69 be c2 e0 77 3f ce 6e ee 3e cd e7 3c 3f
       -0.22764972 0.9682733 0.46568912 0.737912
0001f0 a6 87 87 3e e9 86 14 3f b7 64 1c be 0a 60 8a bf
       0.2647068 0.58018357 -0.15272795 -1.0810559
000200 40 97 56 bf 7e cb 1e be f7 bd 9e bc ae 2a 2e 3f
       -0.8382454 -0.15507314 -0.019377692 0.68033874
000210 3e f7 22 3e ab 62 0c bf 9b c5 6c be 4a 04 11 bf
       0.15914628 -0.54838055 -0.23122256 -0.5664717
000220 71 79 3f be b8 9f fc 3c 5e 88 05 bf b1 50 da be
       -0.1869867 0.030837879 -0.52161205 -0.42639688
000230 58 3f fe 3d 3e 3a 1c be 79 a1 c1 be 5f f7 4e be
       0.124144256 -0.15256593 -0.37818506 -0.20211552
000240 bd 77 47 3f 98 c1 15 c0 d2 de bd be ae 0a 9f be
       0.7791708 -2.339941 -0.3708406 -0.31062835
000250 9b 76 09 3e 5e 5f b4 3c 48 5b ae 3d 77 b7 5e 3b
       0.1342415 0.02201813 0.08513504 0.0033983865
000260 20 a6 31 3c ec c4 78 3f 8f b9 4c be 94 e6 4c 3f
       0.01084283 0.9717548 -0.1999266 0.80039334
000270 48 68 1f be 64 c9 b5 be d7 6d 94 3f 00 d9 06 3f
       -0.15567124 -0.3550521 1.159602 0.52674866
000280 1c 5c 25 3f d5 80 fc 3d 1f 24 02 3f ea fa 03 3e
       0.6459367 0.1232926 0.50836366 0.12888685
000290 ae 32 4b be 94 2b 31 bf 70 46 09 bf a0 96 f5 bd
       -0.19843552 -0.6920712 -0.53623104 -0.1199162
0002a0 76 40 9d 3f 76 f9 2f be bc d0 71 3f fb dd e4 3f
       1.2285297 -0.17185006 0.9445913 1.7880243
0002b0 db d3 a4 3f 2d 06 36 be 96 2c 5a 3e 0c f7 84 bd
       1.2877153 -0.17775793 0.2130607 -0.06492433
0002c0 3e 5d 79 3c b4 f9 fb bf 5e 2b f8 3d 9d 26 2d bf
       0.015219985 -1.9685578 0.12117647 -0.67637044
0002d0 62 97 44 3d e1 97 cb 3d 3e 07 b8 be 01 9b 15 bf
       0.047995932 0.09941078 -0.35943025 -0.5843964
0002e0 ff 30 e1 bd 7e ac d7 be b5 4d 8b be 86 24 2a be
       -0.109956734 -0.4212379 -0.27207723 -0.16615495
0002f0 21 8d ac 3b 40 1d 0a bf 61 7e 57 be f1 8f 0f 3f
       0.0052658473 -0.5395088 -0.21044303 0.5607901
000300 11 3b 9f be 2a 79 05 40 6e 81 a1 bf f1 d5 00 c0
       -0.31099752 2.0855203 -1.2617624 -2.013058
000310 56 d3 8c 3f d1 40 8c 3d 38 61 fe 3e 06 47 79 3d
       1.1001995 0.068483 0.49683547 0.06085875
000320 87 e4 39 be f1 4f af bc f3 6f 89 3d 13 ec 2e 3f
       -0.18153583 -0.021400424 0.06710806 0.6832897
000330 11 ce 1f bd a7 9f be be 66 5a 95 bc 89 5f 73 3e
       -0.03901488 -0.3723118 -0.018231582 0.23766913
000340 49 03 04 3e 7d 52 94 3d 7e 6e 07 3f 86 c9 04 bd
       0.12891878 0.07242296 0.5290297 -0.03241875
000350 60 e0 00 3e 14 3a 0b be 53 3a c4 be be ec 08 3d
       0.12585592 -0.13596374 -0.38325748 0.0334289
000360 0d 71 a9 bf f3 27 da 3f 74 b7 bf 3d 93 26 df 3e
       -1.3237625 1.7043442 0.09361163 0.43584117
000370 01 2b 7f be 14 b4 79 3e 45 41 50 be 93 24 0c 3e
       -0.24918748 0.243851 -0.20337398 0.13685827
000380 42 cf 5d bc 41 8a 39 3f 78 e4 29 be 5f 43 10 40
       -0.013538184 0.72476584 -0.1659106 2.254112
000390 ef 79 05 be be 59 e8 be 87 ae 07 bf 83 8e 72 bd
       -0.13034795 -0.45380968 -0.5300068 -0.05921794
0003a0 d6 e5 c5 bd 76 b5 fc 3d 25 3d 67 3e 41 aa 1b 3e
       -0.09662978 0.123392984 0.22581919 0.15201665
0003b0 8b f6 9b 3e 98 5a ae 3e ef 16 b6 bd ae e4 4b be
       0.30461535 0.34053493 -0.08891093 -0.19911453
0003c0 4b 94 c4 3e f9 3a 1d bf fa b5 6d 3f 29 79 9f 3f
       0.3839439 -0.6141811 0.928558 1.245885
0003d0 a2 36 11 3d 33 3b e1 be c6 c1 0c bf f7 ba 94 bd
       0.035452493 -0.43990478 -0.54983175 -0.07262223
0003e0 fb a8 f4 3d 19 c4 98 bf 94 3c a2 3e 38 47 69 bf
       0.11946293 -1.1934844 0.31686842 -0.91124296
0003f0 6c bf 58 3d 63 4a c8 be f1 fc 7c bf 8f 18 32 bf
       0.05291693 -0.39119253 -0.9882346 -0.69568723

0.bias f4 [64]
000000 49 3c 1e 3e 4b ad 9c 3e 55 75 d9 be 05 1b 4f bf
       0.15452684 0.30600962 -0.4247233 -0.80900604
000010 d8 1a 6a 3e 72 33 25 be b2 b9 09 3f e2 bd f3 3e
       0.22861803 -0.16132906 0.53798974 0.47605807
000020 20 b6 9a 3e 01 53 72 be ec 6e 91 be 40 71 ac be
       0.30217075 -0.23664476 -0.2840494 -0.33680153
000030 3a 2d aa be 8b e6 eb be f3 5c 06 bf fe 27 ed 3e
       -0.3323763 -0.46074328 -0.5248558 0.46319574
000040 25 94 5d 3d e1 15 cd 3e 8f 1a 2b be 49 7e 25 be
       0.05409636 0.40055755 -0.1670935 -0.16161455
000050 02 15 b2 be 80 2c 56 3f d6 b0 f8 be a4 45 48 bf
       -0.34781653 0.8366165 -0.48572415 -0.78231263
000060 e8 d5 d1 be 0a 99 54 bf 9c a8 f9 be c9 0f 7b bd
       -0.4098351 -0.8304602 -0.4876145 -0.06129435
000070 1b 74 01 3f b1 b8 5b bd 10 97 75 be 30 d3 5b be
       0.5056779 -0.053642932 -0.23983407 -0.2146728
000080 47 32 c1 bd c7 d8 32 be 56 c4 4f be 0a 6a 34 bf
       -0.09433418 -0.17465506 -0.2028974 -0.704743
000090 7c 43 fc be 86 53 c4 3e 8c 6d 01 be 0c d1 a6 be
       -0.49270236 0.38344973 -0.12639445 -0.32581365
0000a0 29 e9 01 3c 96 a4 35 3e 4b 39 58 3e 8d 23 f4 3e
       0.007929125 0.17738566 0.21115606 0.47683373
0000b0 dd 87 c0 3d 5b 2d a6 3e cf e5 3d be 4a 67 5f 3e
       0.09400914 0.32456478 -0.18544696 0.21816745
0000c0 48 25 17 3f 1c f7 e6 3d 71 5a bf bd f8 02 8b be
       0.5904126 0.11277601 -0.09343422 -0.27150702
0000d0 fa 5f 32 3f 49 e2 fe bc f4 6f 79 3f 2b b1 49 be
       0.696777 -0.03111376 0.9743645 -0.1969649
0000e0 22 f1 d6 3d 73 a6 a2 3e b4 19 c6 3e fd c0 72 bd
       0.10495211 0.31767616 0.38691485 -0.05926608
0000f0 06 69 18 bf a4 74 07 be 86 70 b3 3e ee ec 69 be
       -0.59535253 -0.13228089 0.35046786 -0.22844288

2.weight f4 [64, 64]
000000 4a 3e 3b be a4 ec 5f be e7 c7 45 3e f1 15 ad bf
       -0.1828548 -0.21867615 0.19314538 -1.3522321
000010 d5 a8 98 bc 9d e9 2b 3d 04 33 38 bf 26 6a 9e be
       -0.018635193 0.041970838 -0.71952844 -0.3094036
000020 3a f1 fc be 14 0e 88 3e ef d3 9c 3e ed c9 18 3c
       -0.4940279 0.2657324 0.30630443 0.009325487
000030 6b 52 d7 3e 47 84 cf 3d bc 66 2e 3e 6d ee 6d bf
       0.42055067 0.10132652 0.17031378 -0.92941934
000040 e6 1c e1 be 77 f8 40 bd 7f f4 19 3e c9 71 d4 bc
       -0.4396736 -0.047111955 0.15034674 -0.025933163
000050 1b 02 8f 3e ae f9 5a bd c1 55 3b bd cd 37 4d 3e
       0.27931294 -0.05346077 -0.04573608 0.20040818
000060 7e eb ab 3f f6 93 dc be b1 70 a7 3c a1 a2 2f 3d
       1.3431242 -0.43081635 0.020439478 0.042879704
000070 b8 15 97 be 51 26 6c bf bd b4 8e be 33 5d 72 3c
       -0.29508758 -0.92245966 -0.27872267 0.014792728
000080 bf 31 65 3e d8 75 ed bd ea 25 20 3e 00 27 01 be
       0.22382258 -0.115947425 0.15639463 -0.12612534
000090 3f 8d a9 3d 76 ec 0a 3d ab 38 82 3f 48 5a 96 bf
       0.08278894 0.033916913 1.0173544 -1.1746302
0000a0 1f 6f 03 3f 17 ec ed bd be 2c 8e bf ae 4b 85 bf
       0.5134143 -0.11617296 -1.1107404 -1.0413721
0000b0 ab 41 3a bf 69 82 ce be 98 a9 e3 3e a1 c9 33 be
       -0.7275645 -0.4033387 0.44465327 -0.17557384
0000c0 66 e9 c2 be 37 98 19 be 41 66 a6 3e ba d8 4f 3f
       -0.38068694 -0.14999472 0.3249989 0.81190073
0000d0 6e 67 25 bf bb ab d1 be 51 ed 45 bf 29 b7 0e be
       -0.64610946 -0.40951332 -0.7731524 -0.13937058
0000e0 e9 80 e4 be 74 6b 71 bf a8 77 0c be 9e e0 a8 be
       -0.446296 -0.94304585 -0.1371752 -0.3298387
0000f0 64 18 51 3f 22 e0 50 3e 12 8f 87 bf 39 8d ba be
       0.8167784 0.20398 -1.0590537 -0.3643587
000100 de 55 a5 be 46 7c 98 3f 8b f6 81 bf 8b 05 07 40
       -0.32292074 1.1912925 -1.0153364 2.1097133
000110 b4 40 00 3f 04 aa 31 bf 0e bd 1b 3f 80 a4 a4 be
       0.5009873 -0.6940005 0.6083535 -0.32156754
000120 8e d7 03 3f 42 e0 86 bf 60 4f 53 bf 8e f5 65 be
       0.51500785 -1.0537188 -0.8254299 -0.22456953
000130 5a 86 11 bf b5 04 74 bf 0f 4a 60 bd 99 64 9f bf
       -0.5684563 -0.9531968 -0.054758128 -1.2452575
000140 cb 70 85 3f e7 d3 1b 3f 3a 5b 41 3e 9e 99 ae be
       1.0425047 0.6087021 0.18882456 -0.34101576
000150 aa 03 8e be 28 86 ba be 7d 3a 10 bf 75 c9 0f 3f
       -0.2773717 -0.36430478 -0.56339246 0.56166774
000160 87 68 96 bf 58 e5 ef 3f 04 80 c0 bf 9e f1 ae bf
       -1.1750649 1.8741865 -1.5039067 -1.3667486
000170 3d f5 bb be a0 be 80 3e 1e f3 1e bf 70 41 5b 3f
       -0.3671054 0.25145435 -0.6208972 0.85646725
000180 19 c9 57 3f 43 e9 6c 3f 71 0c ec 3e 91 11 2a 3f
       0.84291226 0.9254343 0.46103242 0.66433054
000190 ad 94 e6 3b c8 ea 5c 3f 37 2c 49 bf 1a e8 a5 bf
       0.0070367665 0.8629575 -0.7858309 -1.2961457
0001a0 a2 4e 7f bf fc 65 9d bf 5e df 14 40 ac a6 24 3f
       -0.9972936 -1.2296748 2.3261333 0.6431682
0001b0 15 2d 6c bf 55 01 35 3f e1 2e 95 3f 1c 56 a0 bf
       -0.9225629 0.7070516 1.1654931 -1.2526278
0001c0 07 37 46 3f 2f 2b 55 bf 26 b2 03 40 82 5a ba 3e
       0.77427715 -0.8326902 2.0577483 0.36397177
0001d0 ea d4 6b 3f 55 e7 3a bf d4 b8 25 be fc 37 2b bf
       0.92121756 -0.73009235 -0.16183788 -0.668823
0001e0 f5 39 9c be 67 db b6 3e d0 00 6a 3f a0 84 70 bf
       -0.30512968 0.35714266 0.9140749 -0.9395237
0001f0 1b 66 9f 3f 5e 24 14 3d 1f 8c 0b bf c4 21 12 bf
       1.2453035 0.036167495 -0.5451068 -0.5708277
000200 d9 01 63 bd 01 a8 2c be 08 eb 62 be d3 f2 8b 3f
       -0.055421684 -0.16860963 -0.2215997 1.0933479
000210 6d 33 0e 3f 7d 59 e5 be 14 86 af 3d 62 bb b9 bd
       0.5554722 -0.44794837 0.08570495 -0.090689436
000220 5c 4f 05 3f 01 6c 52 be 17 c9 d8 be a3 70 4e 3e
       0.5207422 -0.20549013 -0.4234092 0.20160155
000230 f3 aa 8e bf f1 e2 c9 be 08 af b7 3e dc 12 ff 3e
       -1.114592 -0.39430955 0.35875726 0.49819076
000240 4c 1b a0 3c 0a 11 fc 3e 47 03 87 3c a3 86 c9 be
       0.019544266 0.4923175 0.016481055 -0.39360532
000250 50 98 19 be ed d6 00 3e 06 fa 37 3e ee 37 a7 3e
       -0.14999509 0.12581988 0.1796647 0.32659858
000260 54 64 0e bf 91 04 4f 3f de c3 a7 3e a1 bd f7 be
       -0.5562184 0.8086634 0.32766622 -0.48386863
000270 8d 3b e5 3e cd 4c be 3e ad bb d3 be c2 72 d0 3e
       0.44771996 0.3716797 -0.41354123 0.40712553
000280 f4 ac 0e 3e 4b 35 04 be 6f 00 86 3e 3b 68 a9 be
       0.13933164 -0.12910955 0.26172206 -0.33087334
000290 ce 24 5c be 3c a1 d3 bc 19 d6 10 bf a9 3b e5 3e
       -0.21498415 -0.025833718 -0.5657669 0.4477208
0002a0 c1 58 bc be 4b 61 8c be 9d ef 6f be fc 36 8a 3f
       -0.36786464 -0.2741798 -0.23431249 1.079803
0002b0 bd 51 39 be 5f fd f9 3e 68 ef 95 3e 6e a0 bc be
       -0.18097587 0.4882612 0.29284215 -0.36841148
0002c0 51 73 f8 3e f1 e7 4d be fd 75 96 bd 95 03 b0 be
       0.4852548 -0.2010801 -0.07346723 -0.34377733
0002d0 6b ec c9 3f 20 a6 c0 be 8b eb 87 3f ae bd fc be
       1.5775274 -0.37626743 1.0618757 -0.49363464
0002e0 27 82 eb 3d 39 04 ce 3e 59 e9 c7 3e 0d fc a4 3d
       0.11499434 0.40237597 0.39045218 0.08055887
0002f0 d2 86 76 bf 56 3f ff be c1 36 58 be 76 30 e8 be
       -0.9629947 -0.4985301 -0.21114637 -0.45349473
000300 ea 3d 56 be 48 27 5f be dc b5 4d bf 8c 91 9b 3f
       -0.20922056 -0.21792328 -0.8035562 1.2153792
000310 7e fa 5c bd 19 1f c9 be 35 d4 09 bf 02 ea df be
       -0.053949825 -0.39281538 -0.5383943 -0.4373322
000320 69 c6 3a 3e 79 e7 2b be da 20 ce be 48 e9 fd 3d
       0.1823975 -0.16787519 -0.4025944 0.123980105
000330 ed 2a 9f be 08 2c a2 be 5a a9 3d bc 9e 8c c3 3e
       -0.31087437 -0.31674218 -0.011576021 0.3819322
000340 8b f7 8c 3e cb ca 8a 3e 00 68 38 3d 02 00 51 bf
       0.2753261 0.27107844 0.045021057 -0.81640637
000350 14 59 ea be 8c 2a 33 3f 98 92 26 3e ae 2f 22 3f
       -0.45771086 0.69986796 0.16266859 0.63354003
000360 df 1e 7d bf ea ff fb 3d dd 91 01 3f 24 a2 ad 3e
       -0.9887523 0.12304671 0.50613195 0.33912766
000370 1f 28 4c 3f d9 1a 93 bd fd 6e 63 be 6c 9c d2 3e
       0.7974872 -0.07182855 -0.22210307 0.41134965
000380 d1 12 0e be 42 a1 c7 be 4f 95 24 3e eb 46 38 3e
       -0.13874365 -0.38990217 0.16072582 0.17995803
000390 08 dd 93 3d 5e ac 7f be d7 5c 5b be b9 a4 29 3f
       0.07219893 -0.24968097 -0.21422134 0.6626697
0003a0 40 1e 1e be 35 8d 22 be 2b 56 e0 3e f5 46 89 3f
       -0.15441227 -0.15874179 0.4381574 1.0724779
0003b0 e5 1a 7f 3f 30 8d 2b 3f 06 3d 52 be b8 a3 a9 bd
       0.9965041 0.6701231 -0.20531091 -0.0828318
0003c0 18 e9 f1 3e 58 f5 8b 3d be 91 c6 be fe ca 61 3e
       0.4724815 0.06833905 -0.38783067 0.22050092
0003d0 56 b5 81 3f 37 32 71 bd 37 5d 7b 3e f4 a9 ae be
       1.0133464 -0.05888578 0.24547277 -0.3411404
0003e0 1b 5c f9 3e cb 03 21 3f 5a ec bf 3e ae 28 0e be
       0.48703083 0.6289641 0.3748501 -0.13882706
0003f0 51 33 9f bf b8 37 33 be 90 64 3c be 15 00 5f 3e
       -1.2437536 -0.17501724 -0.18397737 0.21777375

2.bias f4 [64]
000000 36 61 8d be 39 f8 3d 3f 5a 85 06 3f 02 33 08 3f
       -0.2761323 0.7420688 0.5254723 0.5320283
000010 d3 5f 25 3f 2c 6c d9 be 94 ed 82 bd 94 17 43 be
       0.6459934 -0.4246534 -0.06392971 -0.19051963
000020 72 63 9b be b7 13 c7 be 95 39 04 3f 08 d0 21 bf
       -0.30349308 -0.3888223 0.51650363 -0.63208055
000030 f4 2d d4 3e ed 0f db be f4 8b 3b 3f f3 68 08 bf
       0.4144131 -0.42785588 0.73260427 -0.5328514
000040 a3 f0 1d bf 36 14 e5 3e 3d 22 05 bf 87 1c 31 3f
       -0.6169531 0.44741982 -0.5200537 0.69184154
000050 dc 89 53 3d 18 9f 31 3f 91 9b 1b 3f b7 6d 22 3f
       0.051645145 0.6938338 0.6078425 0.6344866
000060 72 eb 23 bf dc cf 05 bf 3a 30 c1 3d 42 5c 23 3f
       -0.64031136 -0.52270293 0.094330266 0.6381265
000070 64 a0 77 3e 02 c1 1c 3f f4 82 26 3f 2b 05 c4 3e
       0.24182278 0.61232007 0.6504357 0.38285193
000080 b5 34 29 3f c0 e3 45 3c 01 f7 2b bf 44 3f 17 3f
       0.6609605 0.012078226 -0.67173773 0.5908091
000090 22 56 30 3f 11 88 12 bf 6c 09 01 3f 13 b3 1e bf
       0.6888143 -0.5723887 0.50405 -0.61991996
0000a0 34 6d 00 3f f0 ff 17 3f d7 2d 16 bf 17 45 bd be
       0.5016663 0.59374905 -0.58663696 -0.36966774
0000b0 34 66 16 3f 63 9f 68 bf 4a 13 06 bf 4e fb 18 3f
       0.587497 -0.90868205 -0.5237318 0.5975846
0000c0 c4 28 04 bf f0 03 6e 3f 29 47 85 3e a1 3e 11 3f
       -0.51624703 0.9297476 0.26030853 0.5673619
0000d0 32 9c de 3e 4f de a3 3e c8 14 07 3f d8 e6 c7 3e
       0.43478543 0.32005545 0.52766085 0.39043307
0000e0 e3 c6 4b bf 52 65 87 be db df 26 3f c7 77 b2 be
       -0.7960035 -0.2644449 0.65185326 -0.34857008
0000f0 da 91 1e bf 01 7c 5a 3f b3 e9 20 3f f1 16 a8 3e
       -0.619413 0.85345465 0.62856597 0.32830003
