Homework_2/hw2_code/BipedalWalker-PPO_test/dir_save/we0_critic_-50.pth (torch, 24543 bytes, 4 tensors)

0.weight f4 [64, 24]
0	0xbf924372	-1.1426833
1	0xc01c7c25	-2.4450772
2	0x3f401bf3	0.7504265
3	0xbd44a0e4	-0.048005
4	0xbed7910e	-0.42102855
5	0xbe8642d6	-0.26222867
6	0xbea9066b	-0.3301271
7	0xbe5b902c	-0.21441716
8	0x3d8bd574	0.06827822
9	0xbfb9f4f9	-1.4527885
10	0x3e1fe061	0.15612938
11	0xbde7db03	-0.1132107
12	0x3e0369ec	0.12833375
13	0xbe505e46	-0.20348462
14	0x3e87a5d8	0.26493716
15	0xbceca105	-0.028885374
16	0x3e865ee0	0.2624426
17	0xbe406d2c	-0.18791646
18	0x3ddeeb49	0.10884721
19	0xba2d7d75	-0.0006618121
20	0x3ee4ae48	0.44664216
21	0x3e3e42f9	0.18580236
22	0x3ea22e4a	0.3167594
23	0xbf044e90	-0.51682377
24	0xc01501e4	-2.3282404
25	0xc04156a4	-3.0209131
26	0x3fcf964a	1.621774
27	0xbd96682c	-0.07344088
28	0xbef52c74	-0.47885478
29	0xbcd66570	-0.026171416
30	0xbf23b0c0	-0.63941574
31	0x3dd48b83	0.10378172
32	0x3ea100fb	0.3144606
33	0x3ee07bdf	0.43844506
34	0xbedadd9d	-0.42747203
35	0xbeb41297	-0.35170433
36	0xbdf8d23b	-0.12149473
37	0xbdaae00d	-0.083435155
38	0xbe001445	-0.12507732
39	0xbdacc1f9	-0.08435435
40	0xbe22f74b	-0.15914647
41	0xbf41138b	-0.75420445
42	0xbed29191	-0.41126683
43	0xbeb4dc31	-0.35324243
44	0xbee37fc0	-0.44433403
45	0xbba49d11	-0.0050236066
46	0x3e26db5a	0.16294613
47	0x3e39c392	0.1814101
48	0xbf256af3	-0.64616317
49	0x3ff834cf	1.9391116
50	0x3f81c05f	1.0136832
51	0x3fc6ed73	1.5541214
52	0x3e8cae47	0.27476713
53	0xbce88f3e	-0.028388616
54	0x3cae524a	0.021279473
55	0xbd65886b	-0.0560383
56	0xbe95ca02	-0.29255682
57	0xbe80568a	-0.25066024
58	0x3e2c87dc	0.16848701
59	0x3f2bbf09	0.6708837
60	0xbd5feb6b	-0.05466787
61	0xbe2e1715	-0.17000993
62	0xbef58118	-0.47950053
63	0xbd964f7c	-0.07339379
64	0xbe92e341	-0.28689006
65	0xbdd08303	-0.101812385
66	0xbeb996f3	-0.36247978
67	0x3d67b16c	0.056565687
68	0xbe079939	-0.13242044
69	0x3ea03052	0.31286865
70	0x3ea846a6	0.328664
71	0xbf221209	-0.6330877
72	0x40019b7e	2.0251155
73	0x402c1308	2.6886616
74	0xbff15066	-1.8852661
75	0x4054b34d	3.3234437
76	0x3fbb9a64	1.4656491
77	0xbcb32253	-0.021866953
78	0x3f24295e	0.6412562
79	0xbcdfcab3	-0.027318334
80	0x3d7410f2	0.059586473
81	0x3f8a82fb	1.0821222
82	0x3df8e8a2	0.12153746
83	0x3f5d6a30	0.86490154
84	0x3e01b5b2	0.12666968
85	0xbe092b88	-0.13395512
86	0x3e852453	0.26004276
87	0xbe059181	-0.13043787
88	0xbe74f8d7	-0.2392305
89	0xbdf80285	-0.121098556
90	0xbde8ea55	-0.1137282
91	0xbe14de61	-0.14537956
92	0x3e1fdaf5	0.15610869
93	0xbd882765	-0.06648139
94	0xbf045421	-0.5169087
95	0xbf64cd1c	-0.8937547
96	0xbed5fcae	-0.41794342
97	0xbf2e2e70	-0.6803961
98	0x3fb54191	1.4160634
99	0xbf9c60d1	-1.2217046
100	0x3f1952c0	0.5989189
101	0x3f1371e0	0.57595634
102	0x3e951501	0.29117587
103	0x3e50a9ce	0.20377275
104	0xbe7b940f	-0.24568199
105	0xbfef5cad	-1.8700157
106	0xbec604d1	-0.3867555
107	0xbebd6f46	-0.36998957
108	0xbd7d2f45	-0.061812658
109	0x3d2d71bd	0.042344797
110	0x3e6b1009	0.22955336
111	0xbd35ae8d	-0.044355918
112	0xbe8f5cb8	-0.28000426
113	0xbe585fb9	-0.21130265
114	0xbc8eeaba	-0.01744591
115	0xbe82fa6b	-0.2558168
116	0xbe9a6173	-0.30152473
117	0x3e0c6e1d	0.1371388
118	0x3e27d253	0.16388826
119	0x3ea00269	0.3125184
120	0xbe699d8c	-0.22814006
121	0x3f13a0ce	0.57667243
122	0x3f12fbdf	0.57415575
123	0x3f467c81	0.7753373
124	0x3e7be085	0.24597366
125	0x3f16ea16	0.58950937
126	0x3e97b391	0.29629186
127	0xbe9afa77	-0.30269215
128	0xbf397301	-0.7244111
129	0xbec670c5	-0.3875791
130	0x3e306763	0.17226939
131	0x3eddefbe	0.4334697
132	0x3d966b02	0.07344629
133	0xbeefe025	-0.46850696
134	0xbda65936	-0.081224844
135	0xbed004be	-0.40628618
136	0xbcfe5c92	-0.03105
137	0x3e20ccf5	0.15703185
138	0xbedf9845	-0.4367086
139	0xbebb3320	-0.36562443
140	0x3e247ddb	0.16063635
141	0xbe2344bd	-0.1594419
142	0xbef3a314	-0.47585356
143	0xbea82a57	-0.32844803
144	0x3ec77294	0.38954604
145	0xbfce1cd7	-1.6102551
146	0xbf0ad9cb	-0.54238576
147	0xbf6097b9	-0.8773151
148	0x3dc8c924	0.098039895
149	0xbd14684c	-0.036232278
150	0xbc096e8b	-0.008388172
151	0x3d6ca3fb	0.05777357
152	0x3c80944c	0.015695713
153	0x3f11992d	0.5687435
154	0xbcecf32c	-0.028924547
155	0x3f4db2b7	0.8035082
156	0xbdd0ea35	-0.102009214
157	0xbc8fa0b8	-0.017532691
158	0x3f3cd427	0.7376122
159	0x3e2fa7e0	0.17153883
160	0x3eb7c69f	0.35893723
161	0xbdabfe08	-0.08398062
162	0x3ec4ce28	0.38438535
163	0x3d84781a	0.0646822
164	0xbe73d79a	-0.23812714
165	0xbf2d853c	-0.67781425
166	0xbea8b72e	-0.32952255
167	0xbe0cc26e	-0.13746044
168	0x3f146f27	0.57982105
169	0x3ef9c655	0.48784128
170	0x3ef49962	0.47773272
171	0x3f2b9d62	0.6703702
172	0x3f63ebb8	0.89031553
173	0xbdfb3c5c	-0.12267372
174	0x3e9228f5	0.28546873
175	0xbdb45dd5	-0.088069595
176	0x3dd48d03	0.10378458
177	0xbf9e9aee	-1.2391031
178	0x3e119bbe	0.14219567
179	0xbf38ef76	-0.7224039
180	0x3dcd8e30	0.10036886
181	0xbdd0f13a	-0.1020226
182	0xbe84704a	-0.2586692
183	0xbf000bc6	-0.50017965
184	0xbd74fe53	-0.059812855
185	0xbedd1a96	-0.43184346
186	0xbeb15605	-0.3463594
187	0xbe8f39a4	-0.27973664
188	0xbe3704f4	-0.17872983
189	0xbf3457e3	-0.70446604
190	0xbed77426	-0.42080802
191	0x3eae9a27	0.34101984
192	0x3ef1d3d1	0.47231916
193	0x401cf180	2.45224
194	0xbf2f5bfd	-0.6849974
195	0xbfe29055	-1.7700297
196	0x3f997523	1.1988872
197	0xbdf17ac5	-0.117909946
198	0xbdc531d2	-0.09628643
199	0xbdea304f	-0.114349954
200	0x3e14f6e3	0.14547305
201	0x3c2e0a62	0.010622593
202	0xbdaa8fbb	-0.08328196
203	0xbe7371b1	-0.23773839
204	0xbe6842c6	-0.22681722
205	0xbe5a356b	-0.2130944
206	0x3c1a5977	0.009420744
207	0x3e9dcd78	0.30820823
208	0x3e660bac	0.2246539
209	0x3e2c15ef	0.16805242
210	0x3f1bcd98	0.60860586
211	0x3c7835a3	0.015149507
212	0x3e04f140	0.12982655
213	0xbe063193	-0.13104849
214	0xbe93d59e	-0.28873914
215	0xbd0ea41d	-0.03482448
216	0xbf8a7735	-1.0817629
217	0x3fd75e4c	1.6825652
218	0x3f573d45	0.84077865
219	0x3eef594a	0.4674781
220	0xbe318fbc	-0.17339987
221	0x3e77dea8	0.2420603
222	0xbf1b3ba7	-0.606379
223	0x3e0d4d94	0.13799125
224	0x3cfaac06	0.030599605
225	0x3f55d326	0.8352531
226	0xbdf0540c	-0.11734781
227	0x3fa719ec	1.3054786
228	0xbd18f433	-0.03734226
229	0xbecdd429	-0.40200928
230	0xbe88ba74	-0.26704752
231	0x3e1a7eab	0.15087382
232	0x3d328299	0.04358158
233	0x3e320c41	0.17387487
234	0x3e457018	0.19281042
235	0x3d9a87f4	0.07545462
236	0x3e52ea78	0.20597255
237	0x3e5c4e73	0.21514301
238	0xbd152b09	-0.036417995
239	0xbdb82cd1	-0.08992923
240	0xbdc9fd19	-0.09862728
241	0xbe466c8c	-0.19377345
242	0x3f3f27fc	0.74670386
243	0x3fb583f6	1.4180896
244	0x3e3fb6e9	0.18722118
245	0xbf00607c	-0.50147223
246	0xbcced677	-0.02524875
247	0xbd696406	-0.056980155
248	0xbf058764	-0.52159715
249	0xbf4d15b6	-0.80111253
250	0x3eacb090	0.33728456
251	0xbf0724f1	-0.52790743
252	0xbe5da754	-0.21645862
253	0xbe8ef4da	-0.27921182
254	0xbf1a7af0	-0.6034384
255	0xbea84a82	-0.32869345

0.bias f4 [64]
0	0xbde2c16f	-0.11072051
1	0x3e5064a9	0.20350899
2	0xbea31573	-0.31852302
3	0xbedf5063	-0.43616018
4	0x3e6c6a8c	0.2308752
5	0xbe8a0578	-0.26957297
6	0x3ed61036	0.41809243
7	0x3e79284e	0.24331781
8	0x3e0ff14d	0.14056893
9	0xbdf40dcf	-0.11916696
10	0xbe64fbac	-0.2236163
11	0xbe146fbe	-0.14495751
12	0xbe89435a	-0.26809198
13	0xbeee7577	-0.46573994
14	0xbe69598b	-0.22788064
15	0x3e21b0ae	0.15790054
16	0xbd4570f7	-0.048203435
17	0x3f0935d8	0.53597784
18	0xbe53de4d	-0.2069027
19	0x3cc72217	0.024308247
20	0xbe967639	-0.29387072
21	0x3efbd654	0.49186957
22	0xbe378cb7	-0.17924772
23	0xbe6074a0	-0.21919489
24	0xbe9aa0f6	-0.30200928
25	0xbf0247ed	-0.50891
26	0xbe894ef8	-0.2681806
27	0x3cc5cec0	0.024146438
28	0x3dedcc1a	0.11611195
29	0x3de173df	0.11008429
30	0xbddfa8c3	-0.109208606
31	0xbe9032ed	-0.28163853
32	0xbd858ceb	-0.065210186
33	0xbdfd54b0	-0.123696685
34	0x3d4592b8	0.048235625
35	0xbdf79ab7	-0.120900564
36	0xbe413213	-0.18866758
37	0x3e4fc04b	0.20288198
38	0xbe9543d3	-0.29153308
39	0xbeaf845d	-0.34280673
40	0x3b71b383	0.003688068
41	0xbe5f2b67	-0.217939
42	0x3e91d894	0.28485548
43	0x3e72c219	0.23706855
44	0x396d1fd6	0.00022613941
45	0x3eb44016	0.35205144
46	0xbd56957f	-0.052388664
47	0xbd27d714	-0.0409766
48	0x3f1fa629	0.62362915
49	0x3e7a1f6f	0.24426053
50	0x3e5450cc	0.20733947
51	0xbe0acbbd	-0.13554282
52	0x3ed95b9a	0.424527
53	0xbe48f88e	-0.19626066
54	0x3edade6c	0.4274782
55	0xbe4bdc03	-0.19908147
56	0xbe19ea8d	-0.1503088
57	0x3e8edadf	0.2790136
58	0x3ee3cc1c	0.4449166
59	0xbec3f9c7	-0.38276502
60	0xbe71dac5	-0.2361861
61	0xbc914c6b	-0.017736634
62	0x3e73093f	0.23733996
63	0xbe96b21e	-0.29432768

2.weight f4 [64, 64]
0	0xbccd5676	-0.025065642
1	0x3bd592c7	0.0065177414
2	0x3e82e169	0.255626
3	0xbfa7bb26	-1.3103988
4	0x3e6af503	0.22945027
5	0x3e13c3fa	0.14430228
6	0xbf0db58a	-0.5535513
7	0x3c52e0d6	0.012870988
8	0xbf287959	-0.6581016
9	0x3daf7b9e	0.085685
10	0x3eb3fbca	0.35153037
11	0xbea5eb1e	-0.32405943
12	0x3e624b83	0.22099118
13	0x3eba8190	0.36426973
14	0x3ccf02f8	0.02526997
15	0xbf1fa6cd	-0.6236389
16	0xbe8f6869	-0.28009346
17	0xbe49cdb3	-0.19707374
18	0x3a70e948	0.0009190035
19	0x3ef651cb	0.48109278
20	0x3d1e257f	0.038609978
21	0xbebfad44	-0.3743688
22	0xbe415573	-0.18880253
23	0x3e75c218	0.23999822
24	0x3cff317f	0.031151531
25	0xbf2e177b	-0.6800458
26	0xbdf3aea9	-0.11898548
27	0x3e3f6d3b	0.18694012
28	0xbf11426e	-0.5674199
29	0xbec82e84	-0.3909799
30	0xbe045bb5	-0.12925608
31	0xbed77a49	-0.42085484
32	0x3d2a370e	0.04155641
33	0x3df75ea6	0.120786
34	0xbe238f55	-0.15972646
35	0x3e8c676b	0.27422652
36	0xbe6f1c95	-0.23350747
37	0x3ddfc73b	0.10926672
38	0x3f1ab05e	0.60425365
39	0xbfb6a37c	-1.4268641
40	0x3e8138fb	0.25238785
41	0x3e4c4e99	0.19951858
42	0xbf5750d9	-0.8410774
43	0xbf4b895c	-0.7950647
44	0xbe1790c2	-0.14801314
45	0xbcd76c79	-0.026296841
46	0xbd9d1284	-0.07669547
47	0x3cd2ba58	0.025723621
48	0xbec8181e	-0.390809
49	0xbd847ba9	-0.06468899
50	0x3d0bcc09	0.03413013
51	0x3d3b316c	0.04570143
52	0xbeef5625	-0.4674541
53	0x3b8eba8d	0.0043557347
54	0xbf294c14	-0.6613171
55	0x3dcc2c45	0.09969381
56	0xbe92366c	-0.28557146
57	0xbec2cc89	-0.38046673
58	0xbe3d45e3	-0.18483691
59	0xbe19bc83	-0.15013318
60	0x3f2b8973	0.67006606
61	0x3ee4968f	0.44646117
62	0xbf25a10b	-0.6469886
63	0x3df27f1e	0.11840652
64	0xbf3d86b0	-0.7403364
65	0x3f415f4f	0.75536054
66	0xbe7d917b	-0.24762528
67	0x3fc3ffbf	1.5312423
68	0xbce9a9bb	-0.028523317
69	0xbe497b44	-0.19675928
70	0x3d87530f	0.06607639
71	0xbe8cc77a	-0.2749594
72	0x3da77778	0.08177084
73	0xbf0bbd72	-0.54585946
74	0xbeb9f277	-0.36317798
75	0xbe69db7d	-0.22837634
76	0xbe8319fc	-0.25605762
77	0xbf004571	-0.5010596
78	0xbe63f2e4	-0.22260624
79	0xbfa8d388	-1.3189554
80	0x3f4b6aec	0.79460025
81	0x3e0a0a2c	0.13480443
82	0x3def4f34	0.11685029
83	0x3c3f125d	0.011662093
84	0xbdbdf544	-0.09275296
85	0xbf17cb0d	-0.59294206
86	0xbe68851f	-0.22707032
87	0x3e4fdd28	0.20299208
88	0xbf1e73c0	-0.6189537
89	0x3fce0f64	1.6098447
90	0xbf3841c8	-0.71975374
91	0xbf02a0fd	-0.510269
92	0xbf15346e	-0.58283126
93	0x3ef2a5b8	0.47392058
94	0xbf1f3a6d	-0.62198526
95	0x3f9d8575	1.2306353
96	0x3ed19cda	0.4093998
97	0x3f34bfe7	0.7060532
98	0x3eab3900	0.33441925
99	0x3f5ebc64	0.8700621
100	0x3e89dcd8	0.26926303
101	0x3f1ad3d9	0.60479504
102	0xbf53fdd3	-0.8280918
103	0xbf968ae1	-1.1761132
104	0xbf403dae	-0.75094116
105	0xbf36e45d	-0.71442205
106	0x3fc82278	1.5635519
107	0x3e1c8e2e	0.15288612
108	0xbf4fe878	-0.81214094
109	0x3eb71cdb	0.35764202
110	0x3f47f5b5	0.78109294
111	0xbf31f748	-0.69517946
112	0x3ed57aa5	0.41695133
113	0xbeebf32d	-0.46083966
114	0x3fa5774a	1.2927029
115	0x3e805643	0.25065812
116	0x3ee1dcbd	0.44113722
117	0xbee3b76e	-0.44475883
118	0xbe16cbc5	-0.1472617
119	0xbe9a8597	-0.30180046
120	0xbeaaea3a	-0.33381826
121	0x3e54b807	0.20773326
122	0x3ef3fc24	0.47653306
123	0xbf4f275f	-0.8091945
124	0x3f83a545	1.0284811
125	0x3e67ffa8	0.22656119
126	0xbf53fbdf	-0.828062
127	0xbf11ec51	-0.57001215
128	0xbcf7daec	-0.030255757
129	0xbe7ae732	-0.24502257
130	0xbdd2808b	-0.10278424
131	0x3f904363	1.1270565
132	0x3eda01b5	0.42579427
133	0xbeb0bd81	-0.3451958
134	0xbc99f3c1	-0.018792989
135	0xbe30762c	-0.17232579
136	0x3efbb71f	0.49163148
137	0xbe5042c3	-0.20337968
138	0xbeabfd33	-0.33591613
139	0x3e97bd69	0.29636696
140	0xbf842015	-1.0322291
141	0xbe9e3d25	-0.30906025
142	0x3ed50ed0	0.41612864
143	0x3ef39ab1	0.47578958
144	0x3c0f256f	0.008736952
145	0x3ec9bf60	0.3940382
146	0x3d41d6d2	0.04732401
147	0xbece2682	-0.40263754
148	0xbe30299c	-0.17203373
149	0x3da7124b	0.08157786
150	0x3e508128	0.20361769
151	0x3eb2c46f	0.34915492
152	0xbeebd135	-0.4605805
153	0x3f544f02	0.82933056
154	0x3ec8fd76	0.39255875
155	0xbf0cac10	-0.54950047
156	0x3edd04d5	0.4316775
157	0x3ebb140e	0.36538738
158	0xbec15691	-0.37761357
159	0x3eeca776	0.46221513
160	0x3de7582a	0.11296113
161	0xbd81f133	-0.06344833
162	0x3e765bbe	0.24058434
163	0xbecdf5d4	-0.40226614
164	0xbdfabd6b	-0.1224316
165	0xbd9d448d	-0.07679091
166	0xbf10085d	-0.5626276
167	0x3f0eb62b	0.55746716
168	0xbee00f4e	-0.43761677
169	0xbe6285c1	-0.22121336
170	0xbe6992d1	-0.22809912
171	0x3f83476f	1.0256175
172	0xbde72940	-0.11287165
173	0x3eddc9fe	0.4331817
174	0x3e60bc4f	0.21946834
175	0xbe9fdb20	-0.31221867
176	0x3ea0ddb5	0.3141915
177	0xbe1898f5	-0.14902098
178	0xbe0fe3f1	-0.14051796
179	0xbe8f31f2	-0.27967793
180	0x3fc3811a	1.5273774
181	0xbe9d66b3	-0.30742416
182	0x3f803195	1.0015131
183	0xbedf5123	-0.4361659
184	0x3e14716e	0.14496395
185	0x3ea75c86	0.32687777
186	0x3e70f92c	0.23532552
187	0x3e330e66	0.17485961
188	0xbf701f10	-0.937974
189	0xbf06e6ce	-0.5269593
190	0xbeabe225	-0.33570972
191	0xbeb87224	-0.36024582
192	0x3ebf5a94	0.37373793
193	0x3d9970f4	0.07492247
194	0xbec4620e	-0.3835606
195	0x3f6415be	0.89095676
196	0xbd18849b	-0.037235837
197	0xbe8d6823	-0.27618513
198	0xbf17bd71	-0.5927344
199	0xbea2b33a	-0.31777364
200	0x3e2aa964	0.1666618
201	0xbe17d56b	-0.14827506
202	0xbeb1b6a1	-0.34709647
203	0x3cabe2d3	0.020982182
204	0xbeb6cead	-0.35704556
205	0xbed2f1f3	-0.41200218
206	0xbbd5238b	-0.006504481
207	0x3ef6bf85	0.48192993
208	0x3d8120d7	0.06305092
209	0x3ea4feb4	0.32225573
210	0xbeb4bc48	-0.35299897
211	0xbe77be18	-0.24193609
212	0xbdfe57bd	-0.124190785
213	0x3f022e27	0.5085167
214	0xbced5ef2	-0.028975938
215	0x3f1c93e2	0.6116315
216	0xbebe9e61	-0.3723021
217	0x3ea74461	0.32669356
218	0x3d2a2fc7	0.04154947
219	0x3e6d1143	0.23151116
220	0x3f216d0f	0.63057035
221	0x3eb48696	0.3525893
222	0x3e026a20	0.12735796
223	0x3eb8cec1	0.3609524
224	0x3c248b7c	0.010043021
225	0xbe77c7f2	-0.24197367
226	0x3ef13bba	0.4711588
227	0x3e9aaf10	0.30211687
228	0xbded18b4	-0.11576977
229	0xbe877fc4	-0.26464665
230	0xbee1d1ca	-0.4410537
231	0x3f353c45	0.7079509
232	0x3d20abe5	0.03922643
233	0xbe933583	-0.28751764
234	0x3f3294fc	0.6975858
235	0x3fa81ea9	1.3134357
236	0xbe8f866d	-0.28032246
237	0x3ea2f794	0.31829512
238	0x3cbed824	0.023296423
239	0xbe184b40	-0.14872456
240	0x3ea43891	0.32074407
241	0xbd2236af	-0.03960293
242	0xbe1fb940	-0.15598011
243	0x3daab7e1	0.08335853
244	0x3f255a5a	0.6459099
245	0x3e2a70c3	0.16644578
246	0x3e9d4815	0.30719057
247	0xbea0f4a0	-0.31436634
248	0x3e9efe8d	0.31053582
249	0x3e78dc43	0.24302773
250	0x3e735e08	0.23766339
251	0xbeb6dd57	-0.35715744
252	0xbfbe6b43	-1.4876484
253	0xbf1cb8ac	-0.61219287
254	0xbeee7efd	-0.4658126
255	0x3e248472	0.16066149

2.bias f4 [64]
0	0xbe8daa2d	-0.27668896
1	0x3ed5b692	0.41740853
2	0x3eb76567	0.3581955
3	0x3ea3ffc7	0.3203108
4	0x3e967d8b	0.29392657
5	0xbea98a3b	-0.33113274
6	0xbe3ac32f	-0.18238519
7	0xbe639212	-0.2222369
8	0xbe974800	-0.2954712
9	0xbe5498ff	-0.20761488
10	0x3ea92008	0.3303225
11	0xbe9384c9	-0.28812245
12	0x3ed610d9	0.4180973
13	0xbec6986e	-0.3878817
14	0x3e9f7554	0.31144202
15	0xbeb3acdb	-0.35092816
16	0xbec48749	-0.38384464
17	0x3e93d58c	0.2887386
18	0xbe95e572	-0.29276615
19	0x3e92c3fa	0.28665143
20	0x3d979e4a	0.07403238
21	0x3ea41abd	0.3205165
22	0x3ebad745	0.36492363
23	0x3e427b15	0.18992265
24	0xbeab97d5	-0.33514276
25	0xbe93a6ec	-0.2883829
26	0xbd2b33c8	-0.04179743
27	0x3eaf7a7b	0.34273133
28	0x3dfd71c0	0.12375212
29	0x3ec23e3d	0.3793811
30	0x3ed0a218	0.40748668
31	0x3ecc64a9	0.39920548
32	0x3edd5094	0.4322554
33	0x3e0e8a92	0.13920048
34	0xbeb8c47d	-0.3608741
35	0x3ecfb2e2	0.40566164
36	0x3ebec520	0.3725977
37	0xbeb3cd51	-0.3511758
38	0x3e73a6f4	0.23794156
39	0xbeb9fb6c	-0.36324632
40	0x3ebf62cf	0.37380072
41	0x3ec06b71	0.3758197
42	0xbeb419d5	-0.35175958
43	0xbe286fc3	-0.16448884
44	0x3ec8a8d8	0.39191318
45	0xbeb2aa77	-0.3489568
46	0xbea3d026	-0.31994742
47	0x3e90d2dc	0.28285873
48	0xbea5fa9c	-0.32417762
49	0x3f092f8b	0.5358817
50	0x3e3238fe	0.17404553
51	0x3ebd202e	0.36938614
52	0x3d7acf4d	0.061232854
53	0x3ea2a734	0.3176819
54	0x3ebe4a4a	0.37166053
55	0x3e8c197c	0.27363193
56	0xbe9d2851	-0.3069482
57	0xbe3a854e	-0.18214914
58	0x3e74617e	0.23865315
59	0xbe9436fc	-0.289482
60	0xbec1838b	-0.37795672
61	0x3ec974f6	0.39347047
62	0x3e911873	0.28338966
63	0x3eaf5525	0.34244648
