Homework_2/hw2_code/BipedalWalker-PPO_test/dir_save/we0_critic_150.pth (torch, 24543 bytes, 4 tensors)

0.weight f4 [64, 24]
00000000: 2210 8fbf e2d9 4ec0 c32f f63e 8c73 9ebe
00000010: 33c6 9cbe cad8 15be 444c 05bf c2ae cebd
00000020: e648 d73d ee0d d9bf f491 7f3d ffa5 f2bc
00000030: 3778 58bc 820f 723d 8ad9 933e ab9a 93bc
00000040: 367f 833e 3699 51be d0eb 973d 6ffd 65bd
00000050: 378f d23e 7b73 843e 4f9a 043f 8db1 8cbe
00000060: 2e9b 33c0 ef9d 59c0 8fd3 de3f f5c7 7bbe
00000070: 4b5d 15bf 0da3 dbbd b2b7 a9bf 22c4 f13c
00000080: e872 9e3e 0a4b ff3d 9b47 6dbe b41c f13d
00000090: c4d8 99bd 6bfa 87be 14b4 f5bc 28c9 7cbc
000000a0: b669 04be b8d1 47bf f990 f9be 9424 e7be
000000b0: a09a 0ebf d4a0 f1bd caca 273e 69a3 703e
000000c0: cdb8 ecbe 003f 0140 476b 963f 0031 c93f
000000d0: a92c aa3e 3798 f23d 45ad acbc 0861 253e
000000e0: b337 0abe ec33 ffbe 765b 133d 00c5 953f
000000f0: 5329 d83c 33d0 acbe d1fb 25bf f198 57be
00000100: 046d c7be 0205 21be f97e c1be e64e 5b3d
00000110: f1b9 0dbe 0e91 a53e fe79 b13e 50ea 34bf
00000120: 5fa4 0c40 8950 3840 b074 2dc0 9b99 8740
00000130: 836e b03f e5d3 2f3e cd7b df3e 962c a93d
00000140: 5e21 3b3b de35 4a3f f257 a13d e520 183f
00000150: f0be 373d 5a86 88be a226 c23e 4dec 443c
00000160: 6ed4 90bd c9b9 763d cc22 9b3d e392 7a3d
00000170: 18fc c13e 0061 f13d 0ad8 17bf a6fb 94bf
00000180: 6664 f63e c243 a1bf 2079 933f 0137 18c0
00000190: 08e8 223f 8407 ab3e a893 b3bd 3e65 623d
000001a0: 33b5 7b3d fb13 4ac0 ee02 71be 5b8a 53bf
000001b0: 30e4 6dbd 5260 2e3e 9660 2a3e acab ecbd
000001c0: b4db bbbe 2060 a6be 55cf 13be 3059 bfbe
000001d0: 3ff8 cdbe 8ce7 873d 1a75 103e 08f0 9b3e
000001e0: 6826 92be 4b7b 1b3f bba9 4d3f 867c 173f
000001f0: be52 a63e 2e26 1d3f fe6a 283e 666e 2cbf
00000200: d29e 1cbf bc29 40be 9ec9 1fbd 84b1 203f
00000210: 52a3 3f3e 7037 8dbe 4ff9 1ebe 6119 fcbe
00000220: 0d9c fabd 2f46 9e3d 5eb9 fcbe 9923 d4be
00000230: 9a02 f53d 2596 38be ec2e d3be fd3b 41be
00000240: 7e2d 343f 29d2 e9bf 55e0 bfbe 2456 51bf
00000250: e87e 1bbc d76f 8dbd 2ac7 b3bd 13d5 8bbc
00000260: 9829 183d 9525 383f 41cf c9bd c91c 563f
00000270: 94ab 2dbe 32a0 26be f7b0 6d3f 7692 a43e
00000280: ed23 f23e 573b 37bc b5b1 d73e eda7 aa3d
00000290: 5ca6 60be 2eee 31bf 5d68 06bf 3c7a 12be
000002a0: 4ec3 113f cbd0 22bd e50e b13e 003f 943f
000002b0: f4fd 8b3f af5c 7d3c 43cf 47bc 63e2 c8bc
000002c0: be1c 01bd 139c a4bf 1af7 d93c 2464 52bf
000002d0: a8be 9c3d 52f0 20be 51c4 85be 87a4 03bf
000002e0: d850 9cbd ac7b dbbe 2049 a2be 488e 79be
000002f0: 310c e7bd 3a0a 27bf f41c 92be c2e9 093f
00000300: 322e 683e 8def 0b40 4b53 78bf c119 0cc0
00000310: 04e4 833f a2ca b13d b254 6a3e f225 893d
00000320: fef7 d13c d9b5 03be 0232 143d 4ff9 043f
00000330: a249 46bd 07e8 9bbe 6ea7 223d 8a3d 9e3e
00000340: 716b 583e 6a5a 243e 1100 1f3f 4652 653d
00000350: a619 573e 3da1 9fbc 7adc 97be e7d5 383d
00000360: 6f74 90bf f7bf b73f 3f34 ac3e b1c6 883e
00000370: b08a 4cbe 972c ab3e 95a6 6ebe 9914 2d3d
00000380: 19a3 92bd a5f0 153f 29c4 e4bd e7c0 f83f
00000390: e992 b9bd 3ad2 fbbe c3a5 c9be fb05 ff3c
000003a0: 439d 7abd a226 c73d aaf6 0d3e 3eb3 8a3c
000003b0: cfe1 123e 02bc 373e 93de a7bd 369a 32be
000003c0: aeca 38bd bdba 39bf 1f30 753f 16c7 c53f
000003d0: 361d 393e f6a7 dfbe 8554 40be 9578 e2bd
000003e0: 2603 c53c 0d5e 71bf 6565 ec3e 5869 51bf
000003f0: 8acc c4bc bdcf b5be 7aca 5abf ae78 13bf
-1.1176798 -3.2320485 0.48083314 -0.3094753 -0.30619964 -0.1463348 -0.520695 -0.10091926
0.10511951 -1.6957376 0.06239505 -0.029620169 -0.013212255 0.05909682 0.28876907 -0.018018087
0.25682992 -0.20468602 0.074180245 -0.056149896 0.4112489 0.25869355 0.51797956 -0.2747921
-2.8063464 -3.4002645 1.7408313 -0.24587996 -0.5834548 -0.10724459 -1.3259184 0.029512469
0.30947042 0.124654844 -0.23171847 0.11773053 -0.07512048 -0.2655824 -0.029993095 -0.015428819
-0.1293095 -0.7805438 -0.48743418 -0.45145094 -0.5570469 -0.11798254 0.16385952 0.23499836
-0.46234742 2.0194702 1.1751488 1.5718079 0.33237198 0.11845439 -0.021078715 0.16150296
-0.1349781 -0.498443 0.035975896 1.1700745 0.026386892 -0.33752593 -0.64837366 -0.21054436
-0.3895036 -0.15724567 -0.37792185 0.05354204 -0.13840462 0.3233723 0.34663385 -0.7067003
2.1975324 2.8799155 -2.710247 4.2375007 1.3783726 0.17170675 0.4364914 0.08260457
0.0028553824 0.78988445 0.07878102 0.59425193 0.044859827 -0.26665002 0.379201 0.012019229
-0.07071768 0.060235772 0.07574996 0.06117524 0.37887645 0.117860794 -0.59314024 -1.1639297
0.48123473 -1.2598803 1.152134 -2.3783572 0.636353 0.3340417 -0.087683976 0.055272333
0.061452102 -3.1574695 -0.23536274 -0.8263299 -0.058078945 0.17028931 0.16638407 -0.11556181
-0.36691058 -0.32495213 -0.1443456 -0.37372732 -0.4022846 0.06635961 0.1410717 0.30456567
-0.28544927 0.60735005 0.80337113 0.5917438 0.32485002 0.6138638 0.16447064 -0.67355955
-0.6117984 -0.1876592 -0.039010637 0.6277087 0.18714646 -0.27581358 -0.15524791 -0.49238113
-0.122367956 0.0772823 -0.49360174 -0.4143341 0.11963387 -0.18026026 -0.41246736 -0.1887054
0.70381916 -1.8267261 -0.3747584 -0.81772065 -0.009490706 -0.069060974 -0.08778222 -0.017069375
0.037149042 0.71932346 -0.09853984 0.8363767 -0.16959983 -0.16272047 0.9284815 0.3214299
0.47293034 -0.011183581 0.42127767 0.083328106 -0.21938461 -0.6950406 -0.52502996 -0.14304441
0.56938636 -0.0397499 0.34581676 1.1581726 1.0936875 0.015463992 -0.012195411 -0.024522012
-0.03152155 -1.286013 0.026607085 -0.8218405 0.07653552 -0.15716675 -0.2612634 -0.51422924
-0.07632607 -0.42867792 -0.31696415 -0.24370682 -0.11281622 -0.6524998 -0.28537714 0.5387231
0.22673872 2.186496 -0.97002095 -2.189072 1.030396 0.08681227 0.22883871 0.066966906
0.025630947 -0.12862338 0.036180504 0.51942915 -0.048410065 -0.3045046 0.039710455 0.30906326
0.21134736 0.16050115 0.62109476 0.055986665 0.21005878 -0.019486064 -0.29660398 0.04512587
-1.1285533 1.4355458 0.3363361 0.2671409 -0.1997478 0.33432457 -0.23305734 0.04225597
-0.07160015 0.5857032 -0.11170227 1.9433869 -0.09061224 -0.49183828 -0.3938428 0.031130781
-0.061185133 0.097241655 0.13863626 0.016931172 0.14343952 0.17942813 -0.081967495 -0.1744164
-0.045115165 -0.72550565 0.9577655 1.5451381 0.1807755 -0.43682832 -0.18782242 -0.110581554
0.024049353 -0.94284135 0.46171108 -0.81801367 -0.024023313 -0.35510054 -0.85465205 -0.5760602

0.bias f4 [64]
00000000: 5bce cf3d 46c3 853e e671 e2be 4941 30bf
00000010: c611 683e 2ff7 12be 624b ff3e c234 e63e
00000020: f86e 993e 082d 58be 77df 4abe 1dac a9be
00000030: 67bb 98be 4730 dabe 55af e6be c3db ce3e
00000040: b2d7 03be e71d fe3e b579 8d3d 79c9 4bbe
00000050: 5790 cdbe 507e 3d3f 1248 dfbe 7cf8 03bf
00000060: a2aa d9be 7f29 3dbf 5752 d8be aba8 15bc
00000070: f86d bb3e d9a3 5dbc f4c8 69be 0f8d c6be
00000080: 9cf3 35be 722e 52be e177 4ebe 0393 06bf
00000090: bab2 cbbe a845 aa3e 6b6a 86be 4bba bfbe
000000a0: 8810 343d 4ee2 fb3d e0e0 533e 7eed d33e
000000b0: 33a5 933c 541d 093e dfb7 1ebe dd05 0c3e
000000c0: 1fb1 ff3e 2217 823e c470 d43c e337 48be
000000d0: 8bbb d43e 2435 053e 64a5 4a3f bd85 85be
000000e0: a7dd c23d b4f6 473e b0fb 793e 88e8 7bbe
000000f0: 8759 f2be a235 c7bd 554a c53e 422e 1fbe
0.10146781 0.26125544 -0.44227523 -0.6884962 0.2266303 -0.14352106 0.498622 0.44962126
0.29967475 -0.21110928 -0.19811808 -0.33139125 -0.29830477 -0.42614958 -0.45055643 0.4040204
-0.1287525 0.4963219 0.069079794 -0.19901074 -0.40149185 0.7402086 -0.43609673 -0.5155103
-0.42512995 -0.73891443 -0.4225032 -0.009134452 0.36607337 -0.013527834 -0.22830564 -0.38779494
-0.17768711 -0.2052553 -0.20162918 -0.5256807 -0.39784795 0.33256269 -0.26253065 -0.37446818
0.043961078 0.122990236 0.20691252 0.4139213 0.018023109 0.13390094 -0.15499829 0.13674112
0.4993982 0.25408274 0.025932677 -0.19552569 0.41549334 0.13008553 0.79158616 -0.26078597
0.09514933 0.19527704 0.24412417 -0.24600422 -0.4733393 -0.097270265 0.38533273 -0.1554499

2.weight f4 [64, 64]
00000000: a5ce 18bf f856 56be cdef 583e 3ee9 90bf
00000010: 13fe 0f3e 58fc 103e 04a9 4cbf 90f6 aa3d
00000020: 5c69 10bf 7165 a83d 99ee 8f3e cec6 5dbe
00000030: 6ebc c03e 1c3f c43e 7706 8cbe 8de7 a7bf
00000040: b336 d2be 3baa 11be fc75 823e f5df 213f
00000050: 4cb7 a63e cff2 aabd 83e3 9fbd 8956 be3e
00000060: 2275 3c3f 7655 89be c368 923d 08b8 423e
00000070: b4ec 33bf 884d 1abf 5cf2 61bd abbb f13d
00000080: 50a0 8b3e a8e2 d1bd 966a b83d 7270 c83c
00000090: 6763 a33e af66 24bd eada 1a3f 97ba 96bf
000000a0: 53c0 d43e dd23 423c cc10 87bf 3f02 84bf
000000b0: 7264 77be 096f 7fbe 02fa 463d 0125 aabd
000000c0: d0c6 cbbe 2eb9 e5be a8b2 0b3e e86a 313f
000000d0: 2ead 34bf 3711 b1bd e884 86bf 1b0c f43c
000000e0: 33f1 67be a119 30bf 0bbc 2abe f050 a8be
000000f0: a3d6 813f fa9d 613e 3fb9 38bf 5936 493e
00000100: 6dc7 ddbe 6035 943f 22bc 17bf 2e70 f73f
00000110: 68e4 963e 0bb0 f0be a451 db3d 26b3 2dbe
00000120: 49f3 7f3e c646 2ebf 7dd7 0fbf 4c3f 95be
00000130: 9991 d3be 7340 3dbf 5626 193d 7d31 a1bf
00000140: ed73 683f 6594 d23e 799c 073e 7cec 49be
00000150: a67d bebd c63b d6be ca07 05bf 1251 023f
00000160: ef07 4cbf b6f0 ee3f 0865 a5bf 06bd 7ebf
00000170: 4f5e d3be 0e53 a33e e05d 20bf 591c 893f
00000180: d066 313f 2a1a 363f d205 123f 972e 0a3f
00000190: 4840 263e e534 5d3f a57e 5cbf 1fa3 babf
000001a0: 7275 4abf 2ffa 85bf 1e31 0440 94bb 103f
000001b0: 9714 83bf e8d4 1b3f 6d3d 893f 50cc 82bf
000001c0: a8bb 223f 0073 2bbf 1669 e03f 814f c93e
000001d0: 09ba fa3e 12af 53bf 9ef0 2abe 500d 0dbf
000001e0: fca6 b0be 96bc e63e 6c5e 613f 2ab5 58bf
000001f0: 641f 9e3f 3cff 34bd 13b5 12bf 0239 2ebf
00000200: 9ff7 0abd 7f9f 07be ff12 2dbe 4396 8d3f
00000210: 39f3 073f 692b d7be 1879 503d ad2a e3bd
00000220: 91b0 f43e b370 38be e519 c3be 7d05 793e
00000230: 4d13 8bbf 5ee4 a8be 89a2 c93e 3c9d 023f
00000240: 3348 5b3d 20ea f13e f248 0abc 7273 d7be
00000250: d590 34be d6dd b13d 4893 153e 5e73 b23e
00000260: 5f89 05bf b9b1 4d3f 0c06 983e 6f67 07bf
00000270: 42c1 eb3e 5cde ba3e 8f8d cbbe e42f c43e
00000280: bda7 ea3d df31 abbd a62e 753e dd88 a0be
00000290: a09d 55be 090b 363c 6501 0dbf 53dc d13e
000002a0: 9e24 d0be 5d06 85be 90e6 44be 8a52 8f3f
000002b0: 57c4 51be a1ae f83e 6a6b 863e 3b67 abbe
000002c0: ce68 dd3e 029f 47be 76a0 bebd 316c b5be
000002d0: a95f c93f 2736 c0be 4199 883f 9f4e e7be
000002e0: 10c3 bf3d 498a d23e 1c40 b03e 5133 e63d
000002f0: 040e 79bf 8c5c ecbe eaa3 82be 56c3 d7be
00000300: d1a4 d8bb 7501 7ebd 52fe b9be 1d48 913f
00000310: 9554 72bc cf6a afbe 90d4 d3be ece3 81be
00000320: 02e0 453e 6c72 38bd 1998 adbe c59d 6f3d
00000330: e0c0 2bbe dbc3 ddbe 1d73 413e 4251 e73e
00000340: 9282 463e 558d e33e e76d 0dbe ee6d 57bf
00000350: 3665 69be f892 253f 1992 0b3e cbbe 303f
00000360: 207c 2bbf 204d 6c3e ecac a03e 66c5 253e
00000370: 4948 763f 1d13 3abe 880e fdbd 8458 f13e
00000380: a1d4 e5bd d241 6bbe 6a1e da3d a092 213e
00000390: 9a41 8e3d 0d18 41be 9473 95be 5d80 183f
000003a0: a14e 37be 42e2 c6bd fd92 1b3f 952c ac3f
000003b0: 3519 a43e dd77 c03e 715d 14be 0fe7 0bbd
000003c0: 55cc cc3e 8850 4e3e 84c2 9fbe 0e0a 233d
000003d0: a8bc 743f 9992 2e3e 1d79 a23e 087b 9abe
000003e0: a340 373f fe17 e63e 8c57 853e c09a dbbd
000003f0: 7516 b7bf 1931 0cbe 52cc c6be 04de d93d
-0.59690315 -0.20931613 0.21185227 -1.132118 0.14061765 0.14158762 -0.799454 0.08347809
-0.56410766 0.082224734 0.28111723 -0.21657869 0.3764376 0.383294 -0.27348682 -1.3117539
-0.41057357 -0.14225094 0.2548064 0.63232356 0.3256172 -0.08347093 -0.07807066 0.37175396
0.7361623 -0.26823014 0.07148888 0.19015515 -0.70283055 -0.60274553 -0.055162773 0.11803373
0.27270746 -0.102483094 0.09004705 0.02446768 0.31911775 -0.04013699 0.60490286 -1.1775693
0.41552982 0.011849371 -1.0552001 -1.0313185 -0.2415941 -0.249447 0.04857827 -0.08307839
-0.3980012 -0.44867843 0.1364237 0.6930375 -0.7057675 -0.086458616 -1.050931 0.029790929
-0.22650604 -0.68789107 -0.16673295 -0.3287425 1.0143627 0.2203292 -0.72157663 0.19649638
-0.43316212 1.1578789 -0.5927144 1.933111 0.29471135 -0.4700931 0.10708931 -0.16962871
0.2499515 -0.6807674 -0.56188184 -0.29149854 -0.4132202 -0.73926467 0.037390076 -1.2593228
0.9080189 0.4112884 0.13243283 -0.19719118 -0.09301309 -0.4184248 -0.5196501 0.50904953
-0.79699606 1.8667209 -1.2921457 -0.99507177 -0.4128289 0.31899303 -0.6264324 1.0711776
0.69297504 0.71133673 0.5704013 0.5397734 0.16235459 0.86408836 -0.86130744 -1.4581031
-0.7908546 -1.0466975 2.0654979 0.5653622 -1.0240659 0.60871744 1.0721871 -1.0218601
0.6356759 -0.6697235 1.753207 0.3931847 0.4897006 -0.8268901 -0.1669335 -0.5509844
-0.345024 0.45065755 0.880347 -0.84651434 1.235333 -0.044188723 -0.5730755 -0.68055737
-0.033927556 -0.13244437 -0.16901778 1.1061481 0.53105503 -0.42025307 0.050896734 -0.11092124
0.4779096 -0.18011741 -0.38105693 0.243185 -1.0865265 -0.3298673 0.39381817 0.5102117
0.05353565 0.47248936 -0.008440243 -0.42080265 -0.17633374 0.0868489 0.14606965 0.34853643
-0.52162737 0.8034931 0.29692113 -0.528922 0.46045882 0.36497772 -0.39756438 0.38317788
0.11457775 -0.083591215 0.23943576 -0.31354418 -0.2086091 0.011111029 -0.5508025 0.40988407
-0.40652937 -0.25981417 -0.19228578 1.1197064 -0.20485054 0.4857073 0.26253825 -0.33477196
0.43244022 -0.1949425 -0.09307949 -0.35434106 1.5732318 -0.37541315 1.0671769 -0.4517717
0.09363377 0.41121128 0.34423912 0.112402566 -0.9728701 -0.46164358 -0.25515682 -0.42141217
-0.0066114445 -0.06201311 -0.36326844 1.1350132 -0.014790674 -0.34261176 -0.4137311 -0.25369203
0.19323733 -0.045030996 -0.33905104 0.05850007 -0.16772795 -0.43313488 0.18891568 0.45179182
0.19385746 0.44443765 -0.13811456 -0.84152114 -0.22792515 0.6467738 0.1362995 0.69041127
-0.66986275 0.23076296 0.3138193 0.16188583 0.9620405 -0.18171354 -0.12356287 0.47137845
-0.11222196 -0.22974327 0.10650332 0.15778589 0.06946106 -0.18856831 -0.29189742 0.59570867
-0.17901088 -0.09711124 0.6077116 1.3451105 0.3205048 0.37591448 -0.1448877 -0.0341559
0.39999643 0.20147908 -0.3120309 0.03980451 0.95600367 0.1704811 0.31733027 -0.3017199
0.71583 0.4494018 0.26043355 -0.107228756 -1.4303728 -0.13690604 -0.3882776 0.10638049

2.bias f4 [64]
00000000: 3fc8 95be 189e 143f df78 f33e 7203 da3e
00000010: 7303 dc3e 6a82 cdbe f2bf 8dbd 963f 8abe
00000020: 68fe b5be 41b2 76be 421b dc3e 7dc1 ebbe
00000030: 3511 d13e babd d1be 2c75 1a3f 1fcf f7be
00000040: 0899 11bf 3f29 c73e 9665 09bf dfe1 fc3e
00000050: 44f3 ec3d ed0b cf3e 3291 083f e119 133f
00000060: 8b61 15bf 9a5f e5be 012e 843c 3f2b 013f
00000070: 60b2 5a3e 380c 0d3f 1ce8 103f 4439 de3e
00000080: 6799 063f 116f b13c cc75 20bf 0926 0e3f
00000090: ba8f 173f 280c 04bf 4c5c f83e 1876 16bf
000000a0: 6b3a f53e 65e5 0f3f 07ff 08bf 9855 97be
000000b0: 6c3d 083f b436 a1be 49f6 01bf e91d e03e
000000c0: 1f55 00bf 9cb8 2d3f 7b93 4c3e bd0a 0a3f
000000d0: a3ee 5d3e 006d f63e 9aad f83e 67c4 c13e
000000e0: 1a06 41bf bce2 8bbe ef65 e73e 823e dfbe
000000f0: 2eec 14bf df68 253f 6244 053f b484 ca3e
-0.29254338 0.5805373 0.47553155 0.42580754 0.42971382 -0.4013856 -0.06921376 -0.27001637
-0.3554566 -0.24091436 0.42989546 -0.46046057 0.4083344 -0.40965062 0.6033504 -0.48400208
-0.5687413 0.38898656 -0.5367063 0.49391076 0.11569837 0.40438786 0.5334655 0.57461363
-0.58351964 -0.447995 0.016135218 0.50456613 0.21357107 0.5509677 0.5660417 0.43403065
0.52577823 0.021659406 -0.62679744 0.5552679 0.59203684 -0.5158105 0.48507917 -0.58773947
0.47896132 0.56209403 -0.5351414 -0.2955749 0.5321872 -0.31487048 -0.50766426 0.4377282
-0.50129884 0.67859817 0.19978134 0.53922635 0.21673064 0.48130035 0.48569947 0.37845156
-0.75399935 -0.27321422 0.45194957 -0.43602377 -0.5817288 0.64613146 0.5205747 0.3955437
